models/model_d19.pt (torch_old, 373299 bytes, 22 tensors)

lstm.weight_ih_l0 f8 [120, 106]
00000000: 9bfd da17 cd60 a33f c0e7 f541 80f7 ac3f
00000010: 8ac9 4c22 588b b0bf d630 2f93 7481 c43f
00000020: 8633 b051 7c9a a7bf f980 4f34 85a5 b43f
00000030: 73a7 2388 b954 af3f 21ac 0156 d08a bbbf
00000040: 4331 961e 5e05 b33f 7f7b f304 367a c43f
00000050: dd3d 6976 61c1 a6bf 8274 f5ce 14a0 a7bf
00000060: 8bdc 190f c801 96bf d8dd 66ac bea4 c03f
00000070: 1714 313e d822 b3bf 82b8 acbd ec4f 913f
00000080: 9f25 aa46 8848 babf 36e4 1643 ead4 bf3f
00000090: 07cd 58d2 8b30 babf 831d df8c 0f95 b73f
000000a0: dc23 4292 6e05 b8bf 8c68 25b3 c33a c5bf
000000b0: 2d14 4af5 b6b4 b83f 9e6d e76d f036 c3bf
000000c0: 1e8b e6fa e325 b5bf eba0 e84d 9d92 ac3f
000000d0: fe97 89a6 3f52 b8bf bd4a 41f3 5fa6 bf3f
000000e0: c8d0 08e7 7bb7 c3bf a936 1fd0 1354 a3bf
000000f0: f06c 9bd5 2513 bfbf 2107 746f 13ec b3bf
00000100: 2f58 ac2e 2896 61bf d81c 7815 d9e6 b8bf
00000110: 9c6e dc6b 578f af3f 0217 4f13 0ff2 99bf
00000120: 9701 06fe 34c9 bf3f a107 9606 33b8 b9bf
00000130: dd52 51c6 c9a5 97bf bfbe e115 8ef1 8e3f
00000140: 4751 46dc 3dab c5bf dac6 479f 1927 c1bf
00000150: 5fb2 8470 32df b3bf 8c7c 2e1a fb6d bbbf
00000160: 09b8 1861 77da ac3f f6fc 53eb e9e0 c33f
00000170: 4282 61c3 2f74 b3bf 724d 747b ba89 aabf
00000180: 2dd9 b887 d4f2 a2bf 278f 0a16 89d6 993f
00000190: 45a4 f4fd c20f 90bf 3885 518e 69cc af3f
000001a0: 3cc6 78e8 264a aabf 98eb 54d5 7c36 9cbf
000001b0: 14c5 96cf e614 b23f a5f7 a082 e91e c53f
000001c0: 0a9c 7f7f f080 82bf edf4 390b e37f c6bf
000001d0: 2a01 e95c 3d27 a13f 6111 84b2 0840 be3f
000001e0: 08f0 b7fa 6c63 c5bf 008e 0ec0 81bd 8f3f
000001f0: 1fbb 09a2 0170 99bf 033a 2402 4830 be3f
00000200: ff9a 0a44 e2c0 c03f f090 70e7 cfaa b2bf
00000210: 7db5 2b81 8ce4 c5bf 6d6d f265 a69a c53f
00000220: 1b32 b481 0fe6 8cbf 968b 933c af47 b8bf
00000230: d3a9 68b6 4b82 b93f 01bd 3291 1b43 9abf
00000240: 98d3 f1a5 7d31 b2bf a77e e248 6081 a5bf
00000250: 18b5 a556 f0ba a03f 576c 54cc 76c5 bb3f
00000260: 4276 2a3a b51d c43f c5bd abc6 06c8 b23f
00000270: ad80 9e0d ca7c c0bf 8b7a 2cc8 c770 793f
00000280: 0037 ad22 cddf bc3f a39a 888e bc7d 843f
00000290: cb40 f4bb 76ea b53f 4041 a5bb db02 743f
000002a0: ef6f 9e1a 0dac b0bf e8c8 0722 0802 c5bf
000002b0: c69f 0d11 0654 c33f cb37 d852 1d5a a23f
000002c0: babf fd9a ebf3 b3bf 7346 e60d 1cfe a2bf
000002d0: fe64 2e45 85a0 b7bf 5cab 67ab 0f75 b3bf
000002e0: c81a 9100 6b61 c73f 7fbe 3723 4768 bebf
000002f0: dd8e 898d c8dc bfbf 0988 a134 2d02 af3f
00000300: 3791 4b4c 84ed c7bf 099f ea3d 1c63 b73f
00000310: bd6c b2aa a39e a93f bf3c 8400 b2f7 b5bf
00000320: edb1 45d4 6d24 b9bf 0b57 a804 4270 bdbf
00000330: 1f0e 69f4 897e b33f 8df1 ad67 7261 b6bf
00000340: 2f70 7fbe 5f28 c4bf f159 100d 333b 9dbf
00000350: 4bf4 b868 9f7d ae3f 8a1c 2497 1b4a c5bf
00000360: 964a 2062 4262 843f 3a61 8cf6 d3a4 bc3f
00000370: fe7f 7e58 1b88 7f3f 48aa ad68 b819 c8bf
00000380: 9f19 dde6 2366 b6bf 74bd 1dc0 f0cd c3bf
00000390: 3856 714f 9221 c53f 4eb6 75e5 8acd 91bf
000003a0: 11ce c536 f978 9ebf d292 e991 6c9b b3bf
000003b0: 9a76 39aa 17da c23f 1238 6e73 1ea0 bb3f
000003c0: 2e07 6a84 6238 c23f be2f 40fc 691a bbbf
000003d0: 9dd0 861a 1661 aebf e99f 1fa4 1b94 b63f
000003e0: 4c0c 68a0 3a8e c63f efb2 7a46 a122 adbf
000003f0: 46c0 023c 4526 b93f ad6b dd59 168f c23f
00000400: 3a0c 7f46 a2d6 b33f 1ee4 a48a 1f8b e1be
00000410: 1083 6aa3 e328 c5bf f3cb df05 7d41 c83f
00000420: cbe9 ad54 63e0 c0bf 0e6d 4477 029f c63f
00000430: fa13 17d5 6241 c5bf 27f0 66b0 8809 c13f
00000440: b7e8 600d 969f 84bf fa6c 8f43 c535 98bf
00000450: 9a81 28d8 59df adbf abaf e319 2a65 bb3f
00000460: 7050 94d8 3ad7 b53f 49b2 a295 e43f b5bf
00000470: 9d94 d765 0bf1 ab3f bd7a 9d52 8bf6 b2bf
00000480: 679c 5b36 96b2 61bf 1cd2 f598 fecf b5bf
00000490: a489 5c10 ff5d c73f 5f8a df5d 1c4f 7cbf
000004a0: 3849 308b c730 babf 9c3c 1125 1585 b8bf
000004b0: 5db7 26ae df84 bbbf 133f 160f e820 c3bf
000004c0: f733 cc72 aaa1 c0bf ee70 fa08 048d c73f
000004d0: 3c1e 3004 1788 a2bf 0aa9 fbdf 917a adbf
000004e0: 8d6c 7c28 2d2f 65bf b133 e83b c4ab c3bf
000004f0: a464 32b3 2d5c 9d3f 7287 8ae0 8bd1 c13f
00000500: 3d4f b917 2b24 c4bf e185 b4b7 ad3f 89bf
00000510: 9fe5 c461 4090 b73f 5302 bc18 a232 b0bf
00000520: f175 c35f 83e1 b23f 5f3d 5e8b 6c44 a5bf
00000530: ae23 2d26 4ce3 bf3f b7f7 0e40 80f6 993f
00000540: eed9 9275 9719 b23f 2303 3d68 11a8 be3f
00000550: 7688 c465 caa2 833f 8fa1 adfe b2bd bebf
00000560: 0a80 4033 cc1e a9bf 373c 3cdb ff57 bebf
00000570: 20e3 a42f a0a0 84bf a55a 2ccf 51d3 b43f
00000580: ef81 e092 3786 b53f 332f 6753 7735 c13f
00000590: 2e1b 233e 9dd8 c63f 3b9d 6085 95fe bc3f
000005a0: 212a 27a1 4e95 a03f 7821 74d5 22c6 c0bf
000005b0: 90dd 4b25 9c94 cabf d3d1 6f0c 090c 8bbf
000005c0: 4988 5a92 b23a b83f b90b 2255 07be 50bf
000005d0: afd3 7a92 0db2 c53f e040 120e efa4 903f
000005e0: dcf5 448c d9f9 aa3f b6c8 215a 827c bd3f
000005f0: 0dbc caf3 76a2 bfbf 0444 852c 3819 c43f
00000600: 92ac b530 511a a1bf 8648 29d7 806e 8abf
00000610: a5fa 29ce 0726 b6bf e0ea 9937 499d a7bf
00000620: 99e8 8d5c d2e5 943f cd99 1844 a051 c0bf
00000630: 65d8 8394 7b4d b53f af72 ee14 e41f c2bf
00000640: 5df3 48b1 de72 bbbf 31f5 af01 7980 acbf
00000650: 3761 aad1 d827 6e3f 9b70 6d53 60bd 7ebf
00000660: 11a6 a9b6 8223 c6bf f3b4 a265 d168 c6bf
00000670: cb89 d130 a918 c0bf d04a 35fd fce3 98bf
00000680: febf 4536 8440 aebf 279b 30fe bb05 8bbf
00000690: 0865 7e47 a4bd 823f e4f7 07a5 b37b b9bf
000006a0: 4b49 b79f ff1f a4bf fba1 3a4d 6724 b83f
000006b0: a27d f4a5 bf14 c53f 5ef1 7105 8fd3 98bf
000006c0: a274 73a2 13d3 c23f f5fd 3834 ad34 c23f
000006d0: 9550 e1f2 cee6 c0bf c96b d6c6 e0f8 acbf
000006e0: d71a b5df 7bd0 bb3f 0447 056e 7eb7 ac3f
000006f0: 8ad1 d713 f65d c6bf f9d4 221a 12b1 b2bf
00000700: a717 126c 124d c3bf f692 3695 2244 bd3f
00000710: 1a77 0004 41e2 bfbf a32b fe0c 24dd a7bf
00000720: 9c24 eb49 df05 c7bf 98e8 2dad e4f4 b73f
00000730: 09de 2470 2103 c23f 8724 8a0c b08f 9cbf
00000740: 1785 80f2 1578 c03f 5f19 24d1 c7b5 c03f
00000750: e21b 9c2b 98d0 b83f 6a4f 5bbd 82f1 c33f
00000760: bb94 4ac4 4470 b63f 6217 c847 0d23 b1bf
00000770: c477 7a0f d91e b7bf 9a19 cc94 f343 9dbf
00000780: 02e8 7be3 4282 c43f 717c 6cbc 5122 a9bf
00000790: 33c8 c4ad 75b3 b13f ddac 40fb 739a ab3f
000007a0: cff6 26b9 07e9 c93f c337 126e 7829 c13f
000007b0: 55f9 5d74 2a59 b0bf 78f8 935a 8db4 b63f
000007c0: ec57 c555 17f8 c53f 678d 1fab 4a8c bfbf
000007d0: 3ae7 9eb2 8ca2 c03f 1c64 c726 b736 bb3f
000007e0: 5b96 650c f26a ac3f 90df 64e9 dc5e 8c3f
000007f0: b8c3 d1af a070 c13f 409e 6fa1 32a0 9b3f
0.037847909128227296 0.056575782825305065 -0.06462622487450723 0.16020066439376163 -0.0461005067555567 0.08065063979256938 0.0611932734189641 -0.10758688068169465
0.07430065390343991 0.1599795841384228 -0.044444127754669195 -0.04614319826462411 -0.02149117080849953 0.13002761285836928 -0.074750437911533 0.016906451298546184
-0.10266925549708227 0.12434257638860022 -0.10230325589582288 0.09211823643919641 -0.09383288450966581 -0.1658558487641283 0.0965074871874811 -0.15011411062628793
-0.08260941386701545 0.05580607963594438 -0.09500501457077346 0.12363242806285775 -0.1540369871232825 -0.03775083461333157 -0.12138592209832999 -0.07782098265672889
-0.0021467957316288126 -0.09727246069097661 0.061640483776696814 -0.02533744387962767 0.12416392518753692 -0.10046690855781872 -0.023093369225835814 0.015109167139797262
-0.16928838019942757 -0.13400573994981962 -0.07762446639089536 -0.1071469248695271 0.0563542657877037 0.15530132284764137 -0.07599161644021371 -0.05183203465471821
-0.03700889736903643 0.02523245045689673 -0.01568512606641927 0.06210641729627259 -0.05134698474683971 -0.0275516038138722 0.07063143318261594 0.1650058639369806
-0.009034994975037253 -0.17577779815829989 0.03350250014455221 0.11816458090112782 -0.1670967315875489 0.01549817435608869 -0.024841332926764822 0.11792421390803302
0.13088634798369722 -0.07291888618835052 -0.17103725726284927 0.1687820432460784 -0.01411068071913584 -0.09484381894030344 0.09964440539685109 -0.025646620499796494
-0.07106766988165558 -0.04200268640238152 0.032676230027258224 0.10848181236762976 0.15715661373262618 0.07336466169703389 -0.12880826630590061 0.00621107139411826
0.11278993698689632 0.010005448436527791 0.08560888375018576 0.004885538417809976 -0.06512529277682665 -0.16412450467721063 0.1510016997592613 0.03584376941954267
-0.07794067892041215 -0.03709495229408057 -0.09229309977526509 -0.07600496229831094 0.1826604607360507 -0.11877865419205057 -0.12446263747693416 0.06056348102062265
-0.18693593716955956 0.09135605346329724 0.05003844698622959 -0.08581078064547663 -0.09821211273601423 -0.1149941693659821 0.07614958016443339 -0.08742442160832394
-0.15748211671496068 -0.028546140358310216 0.05955217507696683 -0.16632408981260866 0.009953039760181508 0.11189007539031062 0.007698160952628539 -0.1882849227070713
-0.08749603639907953 -0.1547223032061812 0.16508702162779954 -0.017385645156016864 -0.029758352249201595 -0.07659033357920045 0.14728065311185362 0.1079119712651109
0.1423457285455298 -0.10587179573502589 -0.05933446000872886 0.08819744831964695 0.1762154849276122 -0.056904830792836474 0.0982402106772052 0.14499167812286143
0.07749380322552293 -8.365368860384757e-06 -0.165310339730262 0.18949854647470907 -0.13184777865156003 0.17672758887861345 -0.16605792431633387 0.13310345281013378
-0.010070011409073805 -0.02364261841635782 -0.05834465755129088 0.10701239711823855 0.08531539714414449 -0.08300617840968373 0.05457339876355969 -0.07407446639033828
-0.0021603521189379918 -0.08520499452954094 0.18255604075336607 -0.006911383445159374 -0.10230681560668564 -0.09578067927326334 -0.10749624253977914 -0.14944172608056103
-0.12993364911417846 0.18399095953362327 -0.036194533597207784 -0.05757575854461734 -0.0025859720225419104 -0.15367939877651574 0.028671945631320597 0.13920734847948385
-0.15735376985923635 -0.012328488510834514 0.0920448530859148 -0.06327260116450732 0.0737535580442097 -0.04153765870352787 0.12456203395880891 0.025354389104670107
0.07070299740266936 0.11975201411133844 0.0095878422076263 -0.12008208005648256 -0.04906309247621728 -0.11853026487754979 -0.010071994260771044 0.08134948070469734
0.08407924018730005 0.13444415638365967 0.17848554166831704 0.11325964456829223 0.03238912312697929 -0.1310466329816895 -0.20766021557913605 -0.013206549350777507
0.0946456534680077 -0.0010218688589993376 0.16949624683698292 0.01625417254814543 0.05268745267174399 0.11518110943305512 -0.12357276393844092 0.15701963590484536
-0.03340390891647717 -0.012906080785942697 -0.08651779921818077 -0.04612187198377682 0.020407950305049914 -0.12749102902416923 0.08321354270796773 -0.14159823438685268
-0.10722152546163728 -0.05566766877744057 0.0036811098810397807 -0.007504822037699334 -0.17295869750096007 -0.17507379019426814 -0.12575259097782374 -0.024307206110573187
-0.05908597147470117 -0.013194531149634493 0.009150775367560829 -0.09954378871040565 -0.03930662941606274 0.09430547366594759 0.1646956978156427 -0.024244532306043502
0.14706654960801752 0.1422325615876471 -0.13204371318227417 -0.056586288711705963 0.1086499615822548 0.056087447099924886 -0.17474246949099054 -0.07301438463294464
-0.1507895496071658 0.11432090895557309 -0.12454611156178111 -0.04660904558757941 -0.17986670598319143 0.09358052471171374 0.14072053886205563 -0.027891875043256433
0.1286647256938884 0.13054750167811854 0.09693289818470377 0.1558078217118422 0.08765058319348189 -0.06694109919052729 -0.09031445148363476 -0.028579526860107764
0.16022525889985678 -0.04908996033759017 0.06914458744429978 0.05391275827454376 0.20242401638636529 0.13407807707375072 -0.06386056271546654 0.08869250737549972
0.17163364112883472 -0.12323443105520014 0.12996062013353954 0.10630364128827846 0.05550342942551075 0.01385281169187616 0.13624962410861285 0.02697829351737213

lstm.weight_hh_l0 f8 [120, 30]
00000000: 4272 a747 52ef 833f d5a0 702d 68a5 97bf
00000010: 9264 248d cd6e c53f cf37 68bb aa8a 903f
00000020: a4ce d747 3e92 adbf 0f47 b3fd 5fcf c4bf
00000030: 408f cbf6 ff90 b53f ccc7 35f4 3c24 b4bf
00000040: a48c 9704 1e6d b53f 5c5a b437 f4a1 b2bf
00000050: 03f8 23e6 303b b33f 6748 3c1e 5f92 acbf
00000060: 5a20 7e6c 6cf5 c0bf ad47 2a67 a516 afbf
00000070: 3285 2799 d8b9 c6bf 81d6 fb78 f84b babf
00000080: be71 ff1c 162e 4bbf 5e17 24ca cc84 c3bf
00000090: 4315 1c44 9a4c b93f a7e9 f2ce 8aff 9b3f
000000a0: 08a2 703b b5f7 b93f 938c 7cb8 ff6d b1bf
000000b0: 0e16 f5f6 0ea3 c63f fc61 1421 a58f bb3f
000000c0: d602 232f d5c7 92bf 8bde 51f1 086d bcbf
000000d0: 83bc 62a2 1d2f c1bf 99f8 840c 6010 babf
000000e0: 16bc 89bc ae6d b1bf fc99 aef5 4c72 c33f
000000f0: 2c57 e0aa ba23 ba3f 2bee b61c 8d33 c3bf
00000100: ed19 3f60 3355 b73f bc49 6d58 6ee8 cbbf
00000110: 0e2d 8fea 1649 a53f 08a3 19ff 81a1 babf
00000120: 65d3 d153 e5ed b43f 3294 eeac 27d8 a33f
00000130: 5fe6 cc8e ddb0 b63f 70b1 6ae7 6f28 c03f
00000140: f65b a9ac 8142 ad3f 34c1 71d9 afad 7bbf
00000150: 6f87 33d5 943d b2bf b8e7 f0bd 14be ca3f
00000160: 5754 e9b0 628d 9d3f ddf2 3ec7 3b70 a0bf
00000170: 082c 9005 1054 b73f c7bb ca8e 8723 b33f
00000180: 840f 3554 c620 b33f 0238 5add 9083 a93f
00000190: 03ce f20a dd19 b6bf c98f d517 559c c9bf
000001a0: aad0 e0dd 9285 b03f 5d42 6552 ae8a 9a3f
000001b0: 4820 a562 9fb1 c7bf 7de4 7efa 1db2 b33f
000001c0: c25b dec8 f777 c23f 55de 9ba3 d011 b23f
000001d0: 3f95 7081 d0b1 96bf f73f d0ca 6c58 b43f
000001e0: 3865 f08a c510 b4bf 5559 56d5 b7d7 c4bf
000001f0: 9b99 40ab bab8 c6bf 4874 2155 0121 bbbf
00000200: 1cfe e104 7168 a43f 79cb db51 2ccb bfbf
00000210: 6b2a c30c 5338 ac3f 06fc c1e7 f81f b6bf
00000220: c01f df79 75a9 71bf 7690 b066 0db4 c0bf
00000230: 48ac e798 b7b6 99bf 85ef fe73 3196 b6bf
00000240: 5af3 49aa c5b0 b53f 80fe e6ef c523 aebf
00000250: 8064 9807 b61b c2bf 4a4e ec8d d576 c33f
00000260: 3494 e8e2 16ea c43f b0ce cdbe cce8 a23f
00000270: 26fe ad5b b7a9 b3bf aad2 4095 5c37 c1bf
00000280: 0250 3e7f 9746 b63f 00ac 4fd8 634b b9bf
00000290: 81b2 6a71 8540 a23f a601 6903 5841 b2bf
000002a0: 8f44 0edb 85e2 b1bf a2d0 68b8 af11 bfbf
000002b0: f1fc 93b7 0ac5 c7bf 0a3b b222 c629 c1bf
000002c0: 6931 cd3e cfca b03f 45ca 8a4a 4e45 b33f
000002d0: d8a0 3e41 b67e 9cbf 751b 1a65 7703 c13f
000002e0: 6ea0 bf36 d5c3 c1bf f853 1443 ff35 c23f
000002f0: e236 6d17 b967 bbbf dd5a 39c9 0542 b03f
00000300: 852c da95 4e4a c2bf e629 78b8 79f4 afbf
00000310: f550 abe2 ec0b 7a3f 845c 4464 9818 aabf
00000320: 13ae ee30 3900 63bf 88a6 6597 ec97 9f3f
00000330: 48ce d8af f2f8 c43f 33f5 e0bc 0cf7 c23f
00000340: 2e1b 46d9 3fe9 87bf d42d e484 4088 bc3f
00000350: 4450 c459 7ea0 a6bf d4cf ec9b a705 af3f
00000360: 429c 430d 9ad9 b73f e36a 3780 20be c2bf
00000370: 4e82 e8a5 47db c13f d6a7 9ae7 4d04 babf
00000380: 4e1a ef6e 3d0f c7bf c4eb 8b88 ec56 c23f
00000390: 698b 5c26 6e86 8e3f 085c fb70 d8be b1bf
000003a0: 2598 c132 1c85 c53f cbd1 844a 36e1 a8bf
000003b0: b5ef d9a0 60d5 c13f a217 a9bc 659f 77bf
000003c0: b9af 8ab5 ea42 c0bf 0123 e985 15b7 783f
000003d0: d8c9 2e9f 8ed1 c23f 1934 5fbe 1885 b73f
000003e0: b55a 0da7 b8f9 bbbf fa36 c81e d1ad 9a3f
000003f0: d7af 126d e1ad c8bf 2f0d f7fe 6e90 c4bf
00000400: 5ecf 7d78 0bb9 9cbf 4227 2a65 84cc 86bf
00000410: 7be6 4005 f370 c23f 5a55 6aab dc43 99bf
00000420: d9b9 ffdf 0638 b8bf d2c4 7af9 7967 5dbf
00000430: fa33 f1e7 900b a63f 13ad 1a24 7ea4 b3bf
00000440: fa86 2d1b 6563 c43f 0c38 f707 fa47 b1bf
00000450: d005 4505 97cd a53f 8471 7e16 5c63 bcbf
00000460: a1c1 843f 7a7c 94bf a3dc 6ad4 f0b8 a83f
00000470: 15ae 01ab 23a3 b4bf 2cc0 d361 e476 c2bf
00000480: 4ea8 183d f095 aebf 4517 9f63 c8f4 bbbf
00000490: a1e9 2735 4c4b c5bf b461 95a4 f78b c1bf
000004a0: 9c29 b463 3a4a c13f c967 6c3b 2162 753f
000004b0: b6c0 31e9 151a c2bf 761f 6181 c2c3 8a3f
000004c0: f0a8 427d 46e9 c0bf a3db eeab 620e c73f
000004d0: 3020 930b 9c0e c2bf 51c2 b086 f66f bebf
000004e0: 0bf1 fecf 3c95 be3f bbe0 12a8 30dd 87bf
000004f0: 0c5d 00d9 eec8 bb3f dc83 c92c c9f3 b8bf
00000500: 2cc8 b6c0 794b adbf 4b3f c67e e6ef c33f
00000510: 6d1b fba0 077f be3f 8323 5577 e36c c8bf
00000520: 0816 feea 286d 883f b212 97ce 731c bb3f
00000530: bd7e 3407 14c4 c13f 1664 e9f4 267d 91bf
00000540: 87a6 ed61 f8d5 bb3f dec3 5125 1b56 c3bf
00000550: f15d 1562 a8cf b23f 045d 619e d57f b53f
00000560: 894f c1e3 a8b5 c0bf 0d03 bf96 e76d a03f
00000570: b457 d746 f852 b73f 1a37 d4aa 20a1 b8bf
00000580: 144f 4e99 ced6 b1bf 1b06 0700 351c a43f
00000590: 4998 9777 1c60 c03f dc9c cc3b 1d60 b8bf
000005a0: 24aa 02f1 7b81 a03f eaf5 0acc 6f29 b8bf
000005b0: 5ad2 c078 6f5c 8c3f ff1a ec7d df45 c4bf
000005c0: 4386 2f9c 835d 9fbf 96eb a17f 427e bd3f
000005d0: be51 84cb eb33 b23f 3037 ac73 8a3e ba3f
000005e0: bc9d f1f4 ef41 b1bf ac1d 92d0 834e 953f
000005f0: 611e d6a2 b42f b2bf 40b7 c2fa 6b13 c63f
00000600: c9e9 5be1 3515 bcbf 6a6f d62e 2838 b83f
00000610: 8122 397b 59dd 85bf 0e1c 0902 d122 b7bf
00000620: a532 c27d 7b16 883f 4e02 7feb 6e3a bcbf
00000630: 3128 c1e4 5835 a0bf ad85 f588 66a6 c03f
00000640: 9f4d 4ba9 ab0b c33f de22 8c4c 2bbb c6bf
00000650: 437f 9e6e 0e94 883f 74cc 7ff5 fd32 aa3f
00000660: ed6a 8fbf c074 b8bf 0ef6 46be ed9e b73f
00000670: 462a 0567 3189 b8bf 3c7f 9a59 43d9 c5bf
00000680: dad3 2987 de69 93bf b051 b8cd 9b76 c8bf
00000690: 696c 4d6e 7cb0 c1bf 36c0 06ea 7b87 96bf
000006a0: c71e 905f a439 be3f ec05 da03 4198 96bf
000006b0: dade 4f3b e874 0dbf 763d 8853 3560 c5bf
000006c0: 7000 bf0c d6fd b8bf c4cf f6eb c479 c33f
000006d0: 2ea3 3487 1b6c b9bf 8eaa a97e 4929 c3bf
000006e0: 175a 0303 dd97 9f3f 8e94 a033 5148 c1bf
000006f0: f2de 27cb 12cd b9bf 379b c219 232d b03f
00000700: 89f8 ee8f a70b c13f cde7 3af6 92b9 af3f
00000710: acaf 22b7 ae52 c0bf 48b5 3663 59ab 68bf
00000720: cc32 ce2c e196 ac3f 1ca1 49f3 97a8 a43f
00000730: 8d87 0fe2 a5c6 ac3f 5a73 beac 232b 983f
00000740: 631b 2859 93f6 a8bf 310c a10b fd27 c43f
00000750: 6d85 d33e 4a32 bc3f 2f78 82dc 8324 87bf
00000760: aafb 42ec 6007 b63f 8642 8714 231e 9ebf
00000770: 9781 bb33 c145 953f 7968 b4a7 b701 b53f
00000780: d200 ba44 76d3 91bf 38cd 6326 b781 b43f
00000790: 2353 b4b8 cd1f c9bf 037c 6d6c 23fd b5bf
000007a0: 246e 7d92 1a83 c43f b67b ac45 de5a aabf
000007b0: 1277 f3ca 6fe5 b03f c50c 3b62 bc33 bb3f
000007c0: 4f25 3b18 9552 b33f 54e1 1eb3 ca15 a4bf
000007d0: 312d 0a8c f01d abbf eec9 83a5 58ab a1bf
000007e0: df02 b0bf 1eb5 c8bf 73b7 7b79 bd31 b9bf
000007f0: 5ff0 e1e3 560a c03f 092d 9265 4d71 c5bf
0.00973381310625954 -0.023091914914545725 0.16744393722254763 0.016153972328588225 -0.057756372709176135 -0.16257858169279202 0.08424377227089241 -0.07867794954452662
0.08369624721631169 -0.07278372154210316 0.07512193316139819 -0.05580422634206244 -0.13248973176473805 -0.06071965107288633 -0.17754657247773192 -0.10272171930031428
-0.000829468533989401 -0.15249023313679805 0.09882511294207057 0.02734200370898923 0.10143597317858888 -0.06808470014634542 0.1768511491629145 0.10766059930427468
-0.018340426446914325 -0.11103874103161553 -0.13425035885800093 -0.10181236558580266 -0.06807987311343341 0.15192567821686953 0.10210768386636165 -0.15001071836546606
0.09114380931632811 -0.21803073232383763 0.04157325375816799 -0.10402691343336923 0.0817550019872449 0.03875850664125159 0.08863625274980212 0.12623404311797115
0.057148029639101525 -0.006757437621772323 -0.07125215726003174 0.20892581247772823 0.028859655425851418 -0.032106273719795665 0.09112644325084329 0.07476088749056863
0.07471885257569794 0.04983189298683045 -0.08633214490219392 -0.20008338607578782 0.06453817288349009 0.025919650820755858 -0.18510811154033235 0.07693660131089249
0.14428613002811913 0.07058433527333226 -0.022162683391930612 0.07947425796032791 -0.0783809150892879 -0.16283319393978482 -0.17751248704844333 -0.10597236946473843
0.03985932526211064 -0.12419392584324197 0.055117221172243124 -0.08642535837314833 -0.004311999216902451 -0.13049476160188406 -0.02511107321508302 -0.08822926599435561
0.08472857863848784 -0.058866677794410016 -0.14147067423690274 0.1520640318855036 0.16339384154812964 0.036932371417518595 -0.07680841434739047 -0.13450200355295766
0.08701464516190074 -0.09880661040340044 0.035648508162329236 -0.07130956729179747 -0.06986271474876758 -0.12136362316306529 -0.18570074046872478 -0.13408734029913943
0.06559462817421537 0.07527627296330149 -0.027827117664544015 0.13291828571911038 -0.13878884480732573 0.14227286124574312 -0.10705143758715566 0.06350742495247226
-0.1428926688862228 -0.062412074821697236 0.006359029134461948 -0.05096889709437227 -0.0023194424643031646 0.03085298227362057 0.163847289908164 0.1481643602618675
-0.011675356691524277 0.1114540409509382 -0.04419321866785755 0.06059001711255943 0.09316408943014756 -0.1464272142464643 0.13950439072597692 -0.10162817863843485
-0.18015258709620458 0.1432777086955338 0.014904842897129194 -0.0693183208307887 0.1681246993859428 -0.04859323177007332 0.13932426313465177 -0.005767247591000587
-0.127042139666967 0.006033977579655626 0.1470201756724936 0.09187464378119649 -0.10927919462606435 0.02605368376139603 -0.19280641389684547 -0.16065776299920162
-0.028049639920438955 -0.011132273042011701 0.14407193905372026 -0.024672935449946955 -0.0946049019691836 -0.0017946902425303624 0.04305699187589336 -0.07672870999765662
0.15928329302828798 -0.06750452703929016 0.04258415164305129 -0.11089110898178062 -0.02000609409987109 0.04828598587976642 -0.08061430859532266 -0.14425329949108467
-0.059737689455076834 -0.10920383865513113 -0.1663604030180297 -0.1370839646940688 0.13507776134822513 0.005220537007312794 -0.14142106901591028 0.013068694661469964
-0.13211899868230814 0.1801265086666862 -0.14107084813281423 -0.11889591968861991 0.11946468427681027 -0.011652355317309895 0.10853474424253678 -0.09746987670361257
-0.057216458105714046 0.1557586783424035 0.11912582092473452 -0.19082301451478764 0.011926955863383007 0.10590289872841188 0.138796332853408 -0.017078980158064715
0.1087336768229311 -0.15106524774776536 0.07348110575309598 0.0839818488760678 -0.13054381485801184 0.032088505889538245 0.0911097691490273 -0.09620861216191337
-0.06968394511050874 0.039277702573155625 0.12793308104955006 -0.09521658620780066 0.03223788563748922 -0.09438227397455248 0.013848181603045951 -0.15838235519932906
-0.030630165489020433 0.11520782104518754 0.07110475271867409 0.10251679729500718 -0.06741237382958948 0.020807323079251525 -0.07104042983530114 0.17246770614786477
-0.10969864608697501 0.09460688727852831 -0.010676096985791307 -0.09037500667282947 0.011761631751391841 -0.11026662110726557 -0.03165700714505738 0.13007814109282148
0.14879365698162147 -0.17758694875398978 0.012001145125224993 0.05117028829399653 -0.09553150822413743 0.09226880927504785 -0.09584339871541045 -0.1706928432004079
-0.018958546638220365 -0.19111964745446874 -0.13819842706547839 -0.02200120559581383 0.11806704838829339 -0.022065177784048304 -5.6184136532464685e-05 -0.1669985444900523
-0.0976232319944772 0.15215360185322713 -0.09930584002416928 -0.14969748196320548 0.030852750119118335 -0.13501944561827312 -0.10078542194230147 0.06318873766813914
0.1331681683349795 0.06196269279230613 -0.12752326910174128 -0.0030113931513457183 0.05583861991826708 0.04034876675433649 0.0562030638173062 0.023602063578084788
-0.048756222375280676 0.15747035091234943 0.11014236482471569 -0.011300115744514809 0.08605008857828858 -0.029411838653518284 0.02077390554666322 0.0820574554858541
-0.017408225960480923 0.08010430037738991 -0.1962830688359186 -0.08589383504066465 0.16025097039060754 -0.051474519734476074 0.06600092606410282 0.1062581767865139
0.07547885743692472 -0.039228758206663855 -0.0529627963015521 -0.03451039333767257 -0.19302734718077993 -0.09841522422695252 0.12531553389624414 -0.16752021274110288

lstm.bias_ih_l0 f8 [120]
00000000: a38f 87dd a689 c43f 8e45 9b39 b9a7 c13f
00000010: 52d1 2716 fc24 bfbf d25a 00d8 e97f 89bf
00000020: 189a 6e64 1f5e acbf 5f5f 5f74 43c4 9a3f
00000030: 605b 0623 fa49 c2bf f947 c82d 40f5 a83f
00000040: cb33 bdcc 5286 c33f c17d fb64 1818 b43f
00000050: 16b7 8d77 c369 c53f a9ae 1a0c 5931 bf3f
00000060: 4746 7cf7 3f82 923f 6f1d 805b a046 c4bf
00000070: 39b1 d1d7 e6e0 c63f f66e 80e2 d313 773f
00000080: 63a9 aecc 397d b1bf 722d 7752 76fe c7bf
00000090: bb58 c8fa 9c0d bfbf 7ac3 a48c b148 c3bf
000000a0: 4d36 a9f1 cdbb c53f 49d1 cc2d 37dd c13f
000000b0: 7f13 5389 cfff bfbf 7daa 27cb 1848 c23f
000000c0: e459 75ee af46 ae3f 39e0 c790 db68 b13f
000000d0: fb67 942a f4ab a1bf 6265 15e2 ab7a a3bf
000000e0: 9656 4cbb 6394 b5bf 9ea3 cfe0 dbf3 c5bf
000000f0: 1089 bc39 737e 75bf 7c4f 38bf c11b b13f
00000100: 602c 1d73 c300 a2bf 2c69 f6e1 e322 9d3f
00000110: 693b cfe0 c4a6 bd3f 82fe 7fb8 c74d 873f
00000120: 8894 e2a7 9f7c c13f 6207 b64c 0723 823f
00000130: 915c 3395 6424 b8bf bafc 72c9 9051 bdbf
00000140: e29b 6279 3db5 babf 33c7 d624 fa1f a3bf
00000150: 5da6 548f d94f c6bf d5cb ba52 365c 9d3f
00000160: ec3a de94 68fa c3bf 4ead b9c4 d1ed b33f
00000170: a662 9426 1212 babf fcec 537b 8897 c53f
00000180: f4c7 e85d f3c1 b23f f8e0 cb9f 096c c5bf
00000190: 0582 f97a 06dc 98bf 6590 4265 45fc b83f
000001a0: 3b14 8037 0d53 c23f 3c45 89fa daff bc3f
000001b0: 93ab f212 a461 99bf cd36 09eb cf1b babf
000001c0: a12f 1c64 a4e8 a7bf f837 4a78 6d67 c2bf
000001d0: 796f 0584 a1eb b33f 756c e855 fc0d bdbf
000001e0: 7e59 184c 6deb c23f 6986 932b 2376 a63f
000001f0: 12a8 397f 4842 bdbf 056c 387d a5d5 b53f
00000200: 1ca0 52bf 963e b8bf ebb6 d036 b215 b7bf
00000210: 8508 46df 5c56 b23f 3cc7 8407 421b 913f
00000220: 49af af64 2c48 b8bf 3510 3aea 582d a7bf
00000230: e88a f174 39f0 9f3f e08d 18e4 30fe b7bf
00000240: 096f 8f30 0603 b23f eddb 4f09 9710 9b3f
00000250: 21f6 3ced a697 bdbf cba1 f89b 38dc b4bf
00000260: d3fc 5c8c dc61 b53f 0d20 3dc9 2155 bd3f
00000270: 478b 2769 171b 7abf 738f cd81 5c61 8ebf
00000280: 401a d045 1fce 9e3f 086d 4411 1cf4 99bf
00000290: 38ff 51b3 de6c bf3f da15 c2d5 7b39 b3bf
000002a0: 918f 6426 36ba c73f 89ed b8eb 863c c4bf
000002b0: 2eb7 7805 0daf ba3f c5c6 ee51 eac6 973f
000002c0: ebce 71e6 99fa c4bf 3a03 e03d 0cc3 c33f
000002d0: 0a8f 72c0 f20e 793f 4d60 8a78 52a0 b83f
000002e0: 092d c272 e588 9cbf 906b f259 1081 c4bf
000002f0: 4061 44a7 2859 96bf bde4 d31f 091c c23f
00000300: 4a48 bde9 f9d9 aa3f e19d ab58 9e03 bfbf
00000310: 5b8a 8d5c 2dca bdbf 6d7a 9d58 690b b73f
00000320: d5a0 2faf 83b7 a6bf 65fa 7e0e 4846 c33f
00000330: eb0d ae93 c549 c3bf 3ad9 1de0 16bb b13f
00000340: 46a2 ee6b 4131 c13f c219 556f 0a22 a23f
00000350: 979f 3b93 f5b2 bb3f 27d4 1eae c51c 9c3f
00000360: 2f2b 9596 e7af bf3f 33a0 de2d 16f4 c33f
00000370: 9036 7c6c 8f99 c63f 3634 0e60 0c3e c5bf
00000380: 322a 7e04 d208 62bf 1614 a455 23a3 b8bf
00000390: ac06 9007 6aa9 ab3f 0c8d 56c7 2aaa bf3f
000003a0: 3211 0568 d301 9a3f 3571 f134 a5ba c43f
000003b0: 90b4 18b3 7bce b03f b90e b169 98cd c5bf
0.1604508001029191 0.13793101609057284 -0.12165809193522151 -0.012451006798113982 -0.055405598649759635 0.02613931081563636 -0.14288260183522095 0.048746114338555864
0.15253672596955278 0.07849266496076891 0.167290147186059 0.12184673829568261 0.018074988823235463 -0.15840534656329505 0.17873845613520148 0.005634143519298132
-0.06831704375386986 -0.1874530699409252 -0.12130147097227255 -0.15065593116153392 0.1697938375458982 0.13956346260386912 -0.12499711134576151 0.14282522124934252
0.05913305078381706 0.06800625118910454 -0.03451502818843718 -0.038045283649533315 -0.08429549524984234 -0.17150448300460835 -0.005247545337427675 0.06682978552299618
-0.03516207485389411 0.028453407923373294 0.11582594383729163 0.011378822629921407 0.13661571214212054 0.008855874088798014 -0.09430531160920654 -0.11452584188644979
-0.10432800496583597 -0.03735334109968704 -0.1743118238312488 0.028672074126642706 -0.15607936161946812 0.07784758618224893 -0.1018382400692511 0.16868692418925224
0.07327195208270593 -0.167359545732104 -0.02427682996347082 0.09759935114067415 0.14315953454948435 0.11327904335600619 -0.02478653302811613 -0.10198688018973741
-0.046696793766471296 -0.1437813603737934 0.0778141925160848 -0.1134946546302887 0.1478096601064855 0.04387006670891653 -0.11429265123447888 0.08529123599184636
-0.09470503016439163 -0.09017480695976203 0.07163029147162277 0.016705543240454576 -0.0948512788597188 -0.04526784762586581 0.031189821016947145 -0.09372239655254289
0.07035864530137927 0.026430473273617073 -0.11559527675577687 -0.08148530776873668 0.08352449824177492 0.1145802608781425 -0.0063734926684187515 -0.014834139548561364
0.0300831686363614 -0.025345266870414412 0.12275497320115114 -0.07509588211731658 0.1853702247109337 -0.15809713849908416 0.10423356422026295 0.023219739199425122
-0.1638977408616634 0.1543898870586647 0.00611777138616155 0.09619632189640122 -0.027865967873862228 -0.1601887168115721 -0.021824488839315537 0.1414805798920379
0.05244427660240143 -0.12114896454624315 -0.1163662291487894 0.09001787579971117 -0.04436885369779168 0.1505823202878275 -0.1506888362019788 0.06926100703808383
0.13431566019177604 0.03541596039808638 0.10819945187142675 0.027453507187335326 0.12377784181914529 0.15588643302658198 0.17656128689889217 -0.16595606508454502
-0.002201471510436614 -0.09623928871958784 0.05402690260235707 0.1236902939477213 0.025397589897026403 0.16194596371759365 0.06565068361733695 -0.17033677254413762

lstm.bias_hh_l0 f8 [120]
00000000: 5d70 78c2 fc38 c3bf 8c45 9bb9 abfd c43f
00000010: 97eb 829d 72bf 7b3f 4fe9 ff09 eec2 ad3f
00000020: 67a1 e946 e666 61bf 2a28 e8a2 74c4 b0bf
00000030: 4849 f339 88cd b63f 04b8 3752 be23 a2bf
00000040: 34cc 42d3 692a c1bf 2741 824d 6940 c4bf
00000050: 62dc 365e ba6a a63f b2ae 1a8c 6ea4 b63f
00000060: 4177 1001 9730 cabf f33a 0057 7694 b8bf
00000070: d4c4 46df 41c0 a63f f306 28fe 24e8 b03f
00000080: 9e56 5173 a12b b53f b9a3 3462 7b26 6c3f
00000090: 5c2c 64fd af1d c1bf 0d79 b6e6 7360 b33f
000000a0: a826 5b39 d26b a7bf 49d1 ccad e405 c63f
000000b0: f3c7 ce6a 67b8 7f3f 8355 d894 1493 c7bf
000000c0: 7756 9d9b 5730 c73f e80f 9cd7 4465 c1bf
000000d0: ed67 942a 0df2 aebf a9a6 7a77 cd9d c43f
000000e0: 5a5a 316d 4357 90bf 9ea3 cf80 9fc6 c0bf
000000f0: d46e c818 fe27 af3f 84b0 c720 62c9 b4bf
00000100: d169 7186 f68e bd3f 59d2 ecc3 91e9 8b3f
00000110: 95c4 307f 1dca bbbf c100 c023 e504 90bf
00000120: 8594 e2e7 d498 c73f 6d60 cbd4 330b c53f
00000130: 6fa3 ccaa 1489 bc3f bafc 7249 cde2 b6bf
00000140: b037 c532 f9f8 aebf 334e ca36 3fae c43f
00000150: a359 ab70 8484 c33f 124d 51eb 9e29 b4bf
00000160: eb3a de14 da09 c1bf 5ca5 8c36 fc0c aebf
00000170: 9a8a 511a 5dd3 90bf 95cf 3eb5 b9f1 8f3f
00000180: 2470 2e44 4a67 a2bf a307 5ffe b99b 9fbf
00000190: 0982 f97a 7ffd 91bf 6590 4265 797f b43f
000001a0: 93d7 ff70 3e77 b5bf 788a 1275 9c1c a43f
000001b0: c655 7909 fed7 a6bf 33c9 f694 f666 b53f
000001c0: 19f4 f8b6 5f51 c73f 2890 6b8f 94ff b33f
000001d0: e3de 0a08 f109 a23f e3d8 d0eb 4599 aabf
000001e0: 7f59 18cc 1a84 c53f 35c3 c915 3b74 bf3f
000001f0: 12a8 399f 7ead bdbf 0336 9c7e c6ab c53f
00000200: 1050 a93f 4ac3 c1bf 2b92 5e52 2866 a03f
00000210: 3a04 a34f e4b1 c43f cc31 e1c1 76dc b43f
00000220: 49af af84 f605 bbbf 1f08 1dd5 3412 b9bf
00000230: 9ece 61b1 918f c2bf 36e4 ce37 142d ab3f
00000240: 096f 8fb0 3929 b13f f6ed a784 d1c8 a33f
00000250: 137b 9e66 e90e c0bf 365e 0784 0500 b83f
00000260: a481 d1b9 6209 c2bf ea6f 613b 50e1 c6bf
00000270: 623c 49db 5226 c6bf ecb1 3990 795a b5bf
00000280: 61f9 8b0e 3a3e b8bf 1bb4 1145 e01d 7ebf
00000290: 2603 b832 64ba 95bf da15 c275 3c8e bdbf
000002a0: 6f70 9bd9 6f39 c4bf f3da 71f7 ea08 babf
000002b0: d148 879a dcb8 b2bf 949c 08d7 deb0 adbf
000002c0: 58c4 3866 3ade ac3f 86f9 3f64 555c bbbf
000002d0: 18ae f127 4fe2 a9bf b39f 7507 9eab b8bf
000002e0: 76e9 9e46 f210 a83f 39d7 e413 c2fb b1bf
000002f0: 4161 44a7 c87f 98bf 8fc9 a7bf eaac bf3f
00000300: f0ad 9025 efd1 c3bf 5b88 519d 1135 913f
00000310: 50eb e446 1887 a43f 4b16 8a9d 02be 9cbf
00000320: 952f 6868 d3aa be3f 7559 1018 e9ba 84bf
00000330: 8637 b8ce af86 a8bf 3ad9 1d20 a595 b13f
00000340: ba5d 1174 41f0 c1bf 6c46 d53b 6dcd c13f
00000350: d0cf 9d89 7129 c23f 27d4 1eae c6fd 923f
00000360: 90a9 d5d2 4290 a4bf 7140 bddb d67e bd3f
00000370: 276d f858 ba7a bd3f 76bc 1cff 0ba9 8c3f
00000380: 541d b85f e2cf ad3f e6eb 5baa 2c93 be3f
00000390: ab01 e4a1 bd1a c23f 7ab9 541c 3106 c3bf
000003a0: 2ba2 00ed 6b12 c13f cb8e 0e2b 767d c0bf
000003b0: 1569 31e6 2fa9 ae3f b90e b189 855d c5bf
-0.15017661567333365 0.16399141848391385 0.006774375644620265 0.05812782165590368 -0.0021242616269782524 -0.06549767472475368 0.0890736714821162 -0.035428950821241784
-0.1341068536326887 -0.1582156780682535 0.0437830200202647 0.08844653053773291 -0.20460784484833464 -0.09601535438580892 0.04443555689375392 0.06604224400509988
0.08269700112699715 0.003436318381905026 -0.1337184893858162 0.0756905020011553 -0.045744485379669186 0.17205484854060618 0.007744220708376648 -0.18417603748154585
0.18116278742188616 -0.1359029820233666 -0.060440455863684274 0.161065753306777 -0.01595788339576596 -0.13106149472812673 0.06085199406171929 -0.08119786548894764
0.11546269209194483 0.013629092017802312 -0.10855278353916938 -0.01564367323590044 0.18435155222428903 0.164404372123275 0.11146668596178498 -0.0893982223815212
-0.060493266532474776 0.1615675942926927 0.15248160840446898 -0.07876008267458115 -0.1331131555457071 -0.058692819270002444 -0.016431288462977457 0.015597773402852325
-0.035944290945934904 -0.03086748709734589 -0.017568580513740915 0.08007010194938997 -0.08385076769613269 0.039280785838191556 -0.044616640717019915 0.0836023439103755
0.1821708339138304 0.07811859609097438 0.03523209784674266 -0.05195063117609935 0.16809401479322258 0.12286729127823721 -0.11592856776556484 0.16930466825617438
-0.13877227886644095 0.032029399924145295 0.16167882812990958 0.08148901208296094 -0.10555973758135652 -0.09793405726398462 -0.1450063816188178 0.05307830029728004
0.0670352989249602 0.03864149803481702 -0.12545506964394146 0.09375032876357 -0.14091142724192907 -0.17875101947254218 -0.17304454524353036 -0.08341178675772881
-0.09469950537820672 -0.007352710775291117 -0.021218839259748233 -0.11545160174326644 -0.15800283551550673 -0.10169857541209719 -0.07313326618831019 -0.05799003958628038
0.05638296602081344 -0.10687764832980493 -0.05055472719763204 -0.09636867220035476 0.04700429069585514 -0.07024777398768557 -0.023924956521200306 0.12373225382888207
-0.15484418234096564 0.01680400393195956 0.04009319177062898 -0.02806858145279127 0.11979409502981604 -0.010122128531332856 -0.047902578338933785 0.06868965181442813
-0.14014452140211892 0.1390816251901471 0.14188975543549853 0.018546203973262145 -0.04016312431015756 0.11521666397789133 0.11515392944459234 0.01399430630007557
0.05822665613600955 0.11943320426136914 0.1414410629731838 -0.14862645991656703 0.1333746821631093 -0.1288287840117078 0.059884545182926775 -0.16691655371879735

lstm.weight_ih_l1 f8 [120, 30]
00000000: 7ff7 1780 b8e2 a7bf 359b ad48 dcf6 acbf
00000010: f74f 4afb bf7f ba3f de62 ef59 c855 803f
00000020: c408 1e4d 42a7 b8bf 0fab 80ec 5301 86bf
00000030: 8ef5 1161 886a b63f 69ae b19c 1458 c63f
00000040: 508d 1744 e83d c23f 266b 50bf 72fc a8bf
00000050: 21c9 34b7 dd5f c5bf 31b0 cfff 5e22 a13f
00000060: 6528 18c7 9979 83bf c721 6c29 9511 b6bf
00000070: 2b42 d061 9eca b43f 6cb3 ddad 6a03 c0bf
00000080: 29f4 a0d7 cd2a b83f 690b de8b cd54 c6bf
00000090: ca00 16f2 6be9 a6bf e5de 1637 efcf c6bf
000000a0: 7f50 7574 3f86 b93f 4deb 7e12 ca74 ab3f
000000b0: adc4 547e 96b4 b4bf 915e caa6 4fe3 c33f
000000c0: 3ac7 536f a62e a23f 5a72 31fe 268d ad3f
000000d0: ed81 fbc6 d104 c1bf 567c e5f9 b921 c6bf
000000e0: 3042 2b79 c1d9 9b3f 1c17 992c 0e3f bfbf
000000f0: 26f6 0575 fcbf c13f 56a4 99d4 068b c0bf
00000100: 8acc 5512 cbd6 bd3f da6f c541 6dcd 94bf
00000110: c098 aa27 84f1 c43f 4fab 21d2 c068 c53f
00000120: e4cb 9083 b023 a5bf 84d3 614d 8462 c6bf
00000130: 43e2 422e 5b88 abbf 2ed4 ec6a 1627 733f
00000140: 24c4 6d78 34ef a23f 8b25 c88f 9a87 953f
00000150: f6ed 53e4 9bb8 b83f e184 aabe 6cc1 c23f
00000160: a52a 183e b01b 90bf c5bb bf35 aaee c1bf
00000170: b91a 079a da7d b73f 5d5d 7d37 1a7e 903f
00000180: a285 d7ac 0d9e c43f 224f ad20 f811 c1bf
00000190: 6f39 4526 c200 8dbf 1fc8 0b8b 1b33 96bf
000001a0: e06d 61dd 990c b83f d6b3 ac49 6a71 acbf
000001b0: 24d7 474a cfc5 bcbf 89b2 8f80 fcd8 bfbf
000001c0: 4aaa 042e 5598 aabf ee3a 7d89 dc9d 90bf
000001d0: b8dd 3870 8f4c b6bf 74b5 caef 8355 aabf
000001e0: 552b ab2d dac1 98bf 1727 447f 0eb1 a93f
000001f0: 2d2e ac6d 9db0 c3bf 73f0 b855 42b6 bcbf
00000200: 8ce6 2b77 8ec8 a5bf 396b cbc8 c02f be3f
00000210: 27a9 e866 4a4c b1bf 62c4 6ae5 b990 c23f
00000220: b111 f4db c145 c13f 8601 3517 1730 b0bf
00000230: 3183 b5c9 46b3 c6bf bd40 a3e5 c2a2 c33f
00000240: 9d83 599d 7069 b33f 4217 2431 177a a93f
00000250: 67f9 17b9 94a8 92bf 3ac7 2dc3 1dbe b93f
00000260: c116 03a4 26af 8cbf 60a5 669b 3b37 a53f
00000270: 4930 3f8f 8242 cabf 7ed1 9712 df3c a93f
00000280: 14a5 8021 21c9 c23f 0ad7 00b7 4352 b2bf
00000290: 0dd1 0977 9564 c1bf ce36 aafb 4a05 b2bf
000002a0: be4c 6bbf 084d a03f a6f4 8306 6fee c63f
000002b0: 34bc 534a 26e9 a93f b5cd 8747 9693 b33f
000002c0: acb5 62fd 7e4e c63f 5a34 4a6a 7f2d abbf
000002d0: c587 fa88 2401 b63f 9748 9e5b 1992 c43f
000002e0: a496 9dec 0a6e b2bf 7b06 3022 f14b c7bf
000002f0: 74f5 60a2 9d28 b0bf d4bf f88a 7dc1 ad3f
00000300: d431 4341 f94d c33f ef56 b412 bf79 c5bf
00000310: c358 03bb 7f46 b13f 24aa d144 e333 9d3f
00000320: 9154 f9b5 d454 c7bf 7701 04a3 e8ca af3f
00000330: fdd1 8216 3891 bebf fb20 6a21 c443 c1bf
00000340: 41d0 29b0 8979 b73f 4fc9 4e07 7cd6 9fbf
00000350: 148a a640 765b ad3f 52aa a49d 3e0d 933f
00000360: a3b7 88d4 b428 bc3f 9fbc 1c70 0fb1 c3bf
00000370: ff02 8e16 19b1 b83f 9251 6f31 d3ab c2bf
00000380: 7934 d268 4c41 b5bf 8c1a c2c2 b495 bd3f
00000390: 8334 1326 519f bc3f 1554 e56a be3e a3bf
000003a0: e32f db69 6f87 bdbf 04f8 114b 4a57 b9bf
000003b0: d13f 614e 35c4 b5bf 4d4f 64a4 94e0 4fbf
000003c0: 7828 8e05 8eb8 af3f 61ac 8d25 07b1 a6bf
000003d0: 7593 69a9 b648 8e3f 7c2a 339f f81a 9abf
000003e0: 0fb5 63ee e1a6 b03f e563 4a10 986d be3f
000003f0: 6b9e eb12 116b c1bf 509c 3260 718e 7e3f
00000400: a2aa 5ae0 d778 c23f f48a 38d0 b733 b2bf
00000410: e654 9624 0c79 92bf f720 200b c9dd c1bf
00000420: b96c 02d0 b76b bcbf 46c8 7802 8da4 c13f
00000430: 326a ec00 73c8 88bf 9c94 f6f8 a704 c93f
00000440: 161b dca3 edeb b83f 938e d153 37bc 7bbf
00000450: 1744 861c d5a0 a93f 1e25 515c 8ed6 c13f
00000460: 7b75 0fb2 efa3 c3bf c22f 2c0f 0a42 b73f
00000470: efe9 5749 1b3a 94bf 4f77 4c4d cd71 b8bf
00000480: 75bd 204f a303 c3bf 0a5e beb2 c5e3 92bf
00000490: d52f f3ec 3ade aabf 992c 50d3 284c b2bf
000004a0: 7cef fe9e 03f8 a03f 7726 9cd5 effd b63f
000004b0: 27e2 e166 224e be3f f86a 0403 eb6e bfbf
000004c0: 5caf b242 ee0c c2bf 0cc3 9c3d eff1 a8bf
000004d0: 3978 f00b eb0c acbf ff00 8f16 c503 ba3f
000004e0: 4fa7 c6f7 12c6 c23f 3e64 1c38 209e a03f
000004f0: bfed 24d9 ed72 b33f c1ec eb98 9e6e c7bf
00000500: 6843 5fd4 7a24 c7bf 3b59 e0e9 cc38 af3f
00000510: 9f13 7204 f8e7 c43f 3b23 5f5b 600d bc3f
00000520: 5845 1025 d2c9 acbf bdf9 752c e4a8 a7bf
00000530: 9a0b 3457 b11b c13f 6dcb 11f4 fe1a 98bf
00000540: fbb1 ac18 728d 6ebf d9d8 0261 01a0 c5bf
00000550: b55b 00f9 231b 9cbf 35a3 0022 969d a8bf
00000560: dc51 65fc a661 a83f c882 80a2 4903 c4bf
00000570: b615 3c96 d311 a23f 929c e9c2 5027 c8bf
00000580: 167f cab2 3f74 b0bf 5f65 78bc 69fc a6bf
00000590: 59ac b5d8 a108 c73f c38f 29b2 c08b bebf
000005a0: 28a4 cd0f 4294 95bf 0bd7 7199 f255 c73f
000005b0: 0bfd 02e7 6cd0 b53f 4186 cd78 d467 b33f
000005c0: f79f 75b1 86ec 763f 5875 2db9 70bf a33f
000005d0: cbdc 1559 daf1 c03f 0acf 5d3f ab28 a2bf
000005e0: 19f4 bcf2 f871 b7bf 5ff1 bac9 28a4 a03f
000005f0: be09 c237 3742 c13f bf3a 25b0 8e29 8abf
00000600: 2f1d 75da f52c c53f c44b 649c 246d c63f
00000610: 05c6 2fb7 c20b afbf 39a0 c0de b24e c43f
00000620: 4a2a 6a88 180d c63f 6480 cba7 38fb b3bf
00000630: ea93 d329 19c9 c33f 8dc3 e93e 3015 c63f
00000640: 0f42 17ba 0f9f c03f a03b 22d1 903e 863f
00000650: d641 bb3f a048 b33f 4fe7 b7fd 4ae4 bd3f
00000660: d979 100b 6311 c6bf 2853 1214 8208 c43f
00000670: 68b1 b3a1 3802 aebf 4860 74d8 3d9d c8bf
00000680: 2e95 cf6f 6db3 aabf 90d3 99a4 e4b5 b23f
00000690: 98dd 5bf3 eb71 a63f da82 90b7 df2d c8bf
000006a0: 0a11 b485 1dd7 c8bf 036c 5298 9283 ae3f
000006b0: 81c7 d589 73a7 c33f b6d7 6e6a 2f84 b33f
000006c0: 4476 6ccc e229 8fbf eb69 b7f4 23de bfbf
000006d0: ca1b 9f46 8e26 babf 5c77 ac5a aac0 95bf
000006e0: 732e 2952 2c7e c33f 83b5 66ca ff67 a0bf
000006f0: a23c 2953 4d00 b8bf 72b8 83f6 e7dd 9d3f
00000700: 7017 5961 4df0 c5bf c9e2 c59a 36f7 76bf
00000710: ec0a 00c5 15cd b03f f355 9195 040f 973f
00000720: f394 4e90 7dda b23f 3eca b770 7541 b5bf
00000730: 6afc 6599 1254 c3bf 0f90 03e0 db53 b73f
00000740: 1354 b09a 99de c13f a812 62ad dbf7 b53f
00000750: 7379 fe17 4232 a43f 2453 3b97 3696 c2bf
00000760: c66e b1e9 66c2 9ebf 9a00 d236 b062 aa3f
00000770: 0173 6ff7 57af c63f 2e77 7b88 a2dc 7e3f
00000780: 7fc5 4e3d 1ebc aebf d4ef 36da 7b38 873f
00000790: 01f7 e9c9 ab0c c63f 2ea8 98e4 ad29 8abf
000007a0: 2d9c abd5 94c7 9f3f 4086 5b37 273d ccbf
000007b0: 5933 27bb 994e bebf c595 8568 1a6e c73f
000007c0: 25ae d70d 1bab bd3f c546 1181 bb02 bf3f
000007d0: 9f31 e2ec 47b1 bb3f 7652 d5b4 11a5 9c3f
000007e0: 1ff3 9252 d644 b6bf 42bd 2e54 ce4c c93f
000007f0: 2833 3e58 103f a13f 5e06 2302 6d94 a93f
-0.04665161670344186 -0.05657089602646296 0.10351180920616786 0.007976117367364418 -0.09630216963526822 -0.010744720129954225 0.08756306047322068 0.17456300402715222
0.14251426052860916 -0.04880102715852379 -0.16698810048689786 0.03346535561271969 -0.009509278667810326 -0.08620579015053585 0.08121671569848192 -0.12510426988174161
0.09440313829777892 -0.17446297959767357 -0.04474961595679046 -0.17822065534504997 0.09970470994204737 0.05362540698793925 -0.0808805521417237 0.155374485436131
0.03551216229415251 0.057717531709134476 -0.13295957771244052 -0.17290425016378447 0.027197859783713862 -0.12205589855974747 0.13867145265605635 -0.12924275761477827
0.11655873487124971 -0.020314890994413172 0.16362049042544946 0.16725931415870796 -0.041287914333586945 -0.1748814943163347 -0.05377469005310733 0.004675948685691584
0.036981239033487406 0.021025099778886818 0.0965669090691604 0.14652785596721343 -0.015730623044911813 -0.14009597420178302 0.09176412830775406 0.016106042515585773
0.16107340755028782 -0.13336087794834223 -0.014161602776451258 -0.02167933498544283 0.09394227652358422 -0.055552789205058836 -0.1123933369015871 -0.12440469874099781
-0.05194345652337924 -0.016227193729089366 -0.08710571756170438 -0.051433680554832245 -0.02417698768367001 0.05017895988028281 -0.15382736067873407 -0.11215605347473616
-0.04254574970941602 0.11791615392887146 -0.06757035267279275 0.14504169179920995 0.13494132270728934 -0.06323379818514327 -0.17734608506273156 0.1534045811918129
0.07582763520760101 0.049759602306990405 -0.018221210286350067 0.10055719390018406 -0.01400594890618423 0.0414370181272925 -0.2051547240683951 0.04929253675428223
0.14676298271050625 -0.07156775682309671 -0.13588207542819256 -0.07039326328432624 0.03183772408160611 0.1791514188588838 0.050606915066844144 0.07647074934339211
0.1742705094560909 -0.0530814950226179 0.08595493644909798 0.16070858930158202 -0.07199161793468051 -0.18200506371799804 -0.06311974729847752 0.05811683961326222
0.15081706701893316 -0.16777790463736816 0.06748197856663567 0.028518248629931034 -0.182276333670107 0.062094945811625495 -0.11940336751542442 -0.13488055831499665
0.09169827032911916 -0.031091630884199358 0.05733842410269943 0.018605211612490465 0.10999612988299971 -0.15384095167380438 0.09645230103161494 -0.1458686820393607
-0.08302762564763268 0.11556558375205322 0.11180598430219572 -0.03758807234650178 -0.11534782728557462 -0.09898819287079169 -0.08502514995166101 -0.0009728170196319025
0.06195491617025167 -0.044319365820080454 0.01478712753778109 -0.0254935118835342 0.06504642553382588 0.11885977170676616 -0.13607991622778867 0.007460062860594155
0.14431284384530324 -0.07110165437238064 -0.0180398843127322 -0.13958085101354076 -0.11101864651066053 0.137834192473351 -0.0121010765702084 0.19545459419638156
0.09734997988207925 -0.006771293757171687 0.05005517934035469 0.13936023242630652 -0.15344043917040637 0.09085142965721985 -0.019752909041907015 -0.09548648011374648
-0.1485485206953673 -0.018447007212300227 -0.05247673170524051 -0.07147460135472485 0.03314219776026925 0.08981226887785874 0.11837973605896278 -0.12278622459090716
-0.14101961380708417 -0.0487208140097036 -0.05478605767005757 0.1016200237345437 0.14666974161564858 0.03245640454242292 0.0759724288117729 -0.18306333987115944
-0.18080077523930105 0.06098022799430899 0.16332912652083295 0.10957910757782667 -0.05622727110324871 -0.04621041338667762 0.13365761526082737 -0.02354048123056478
-0.0037295559353849295 -0.1689454768836132 -0.02744728286060268 -0.04807728924817526 0.0476200278377836 -0.15635033068340065 0.035292255486676735 -0.18869981305326583
-0.06427381625189485 -0.044894508606555965 0.17995093423391742 -0.11931995725313897 -0.02107337209182361 0.18231041424194702 0.0852115692132324 0.0758030695847305
0.005596662659947064 0.038569948773082785 0.13238076543686925 -0.03546652935520285 -0.09158283163283477 0.032502436280511963 0.13483324263149926 -0.012774576902896738
0.1654345814406297 0.17520578037564694 -0.060636601316115736 0.15865169407448024 0.17227465306162265 -0.07805208298259597 0.1545745329123343 0.17252162048273725
0.12985416971652383 0.010861522085432729 0.07532693439430402 0.11676472372337553 -0.1724056057000343 0.15650964717920002 -0.05861069654369794 -0.19229863232681255
-0.05215017309073243 0.07308796900345116 0.0438379034584912 -0.18889996016607463 -0.19406479862676235 0.05959756955527242 0.153547708799632 0.07623573635541345
-0.01521660982467233 -0.12448334431193302 -0.10215081428678655 -0.02124277285030672 0.1522879983116244 -0.03204345079152928 -0.09375460892009582 0.02916681711297326
-0.17139594319649687 -0.005606854724071916 0.06562934932302839 0.022518226269616148 0.07364640019530437 -0.08303007127668935 -0.1510031937614003 0.09112333506669777
0.13960571339762903 0.08581326468454142 0.039445939473114054 -0.14520914444315125 -0.030038459790701542 0.051534182254728125 0.17722606260112886 0.007534632582716401
-0.06002897737870238 0.011338203045731556 0.17226168974951153 -0.01277480939741701 0.03103478006496745 -0.22061624720577022 -0.11838684863250871 0.18304758170704197
0.11589211547805485 0.12113544369756386 0.10817384274759555 0.027973438894451218 -0.08698787227599468 0.19765643225171386 0.03368426396546048 0.04996052409252337
