models/model_d39.pt (torch_old, 373299 bytes, 22 tensors)

lstm.weight_ih_l0 f8 [120, 106]
000000 85 56 f5 c9 fa 93 a3 3f 31 14 0b 05 ca ff b1 3f
       0.03823837008773715 0.07030928252341152
000010 7f b3 c6 5f 00 f7 b0 bf 4a ff d9 ea 70 9e c2 3f
       -0.0662689431980663 0.14546023814545556
000020 f7 69 8f ae e0 f6 a9 bf ac c2 d7 08 25 4a b4 3f
       -0.050711652096385444 0.07925635782135981
000030 1c c4 5c d3 79 48 a9 3f 87 fb 52 70 00 58 ba bf
       0.04938107209307693 -0.10290529959000426
000040 f8 c5 fd 0e 05 25 b1 3f ca a3 d4 5c cf c0 c4 3f
       0.06697112670897087 0.162134094550565
000050 22 11 72 fd b8 6a ab bf d1 52 4e d8 f6 e4 a4 bf
       -0.05354860395257989 -0.04080935850575929
000060 e2 9d ae 83 5f c9 91 bf ed c3 1f fc 04 2c be 3f
       -0.017369739925610868 0.1178591838395417
000070 8d 68 b0 c6 91 12 b2 bf eb 73 92 b8 aa c6 8c 3f
       -0.07059584713752738 0.014050801999752912
000080 78 a1 7b 54 5e 3a b9 bf dc 26 64 84 83 30 c1 3f
       -0.09854688227244945 0.13429302181639613
000090 b2 6b 5e 23 d7 8d ba bf f4 6f 22 40 5c d6 b6 3f
       -0.10372681249138685 0.08920837941917609
0000a0 ab f0 26 30 0a da ba bf 4e 8b a7 f0 e3 5b c5 bf
       -0.10488952327335947 -0.16686677218157303
0000b0 6a c9 8b 83 e5 41 bb 3f 8c bd 14 3e 5c a4 c3 bf
       0.10647425138066571 -0.15345337897586508
0000c0 1e a6 71 30 c8 65 b0 bf 9c 3a f8 ed 38 c8 a9 3f
       -0.06405306990350154 0.05035570053961644
0000d0 87 ee 65 64 2a 3b b9 bf 66 7a 6d a6 eb 1e bf 3f
       -0.09855904532553882 0.12156555951285383
0000e0 d8 e8 26 7c b9 d8 c2 bf c5 bb dc be 04 cf a5 bf
       -0.14723890840634257 -0.04259505109654741
0000f0 57 21 ab 0b 78 3e bf bf 7c 9e 6c 79 45 7f b5 bf
       -0.12204695019602717 -0.08397325720272336
000100 05 d1 56 59 15 56 8d bf 49 a8 f0 ca a0 a2 bc bf
       -0.014324347294725212 -0.11185650782195568
000110 67 2d 84 42 7a 68 ad 3f 35 ee 0d 2c e9 b4 a0 bf
       0.05743772565809984 -0.03263024008535035
000120 62 05 d4 23 b6 6c bf 3f 26 3d c6 b5 ef c5 bc bf
       0.12275255560600365 -0.11239526927805751
000130 6e 02 c4 16 03 0e a3 bf d4 56 61 fd 3f b8 8c 3f
       -0.03721627858067654 0.014023303909350394
000140 ba 68 3f 99 e0 e2 c5 bf 50 57 65 64 82 a1 c0 bf
       -0.1709862468986268 -0.12992887403623365
000150 b1 3a 94 33 c5 70 b5 bf 78 18 c7 92 13 e6 bd bf
       -0.08375198849919731 -0.11679193814697608
000160 73 5a b3 ef 19 de a7 3f f2 00 dc 37 24 be c2 3f
       0.046616373548819555 0.14642765738972902
000170 8c c6 2d d9 3e 2d b6 bf 00 52 f4 9e 6d c6 af bf
       -0.08662789156167089 -0.06206076207505262
000180 df 3d a7 d3 e3 db a4 bf b0 b1 38 3c 90 e4 91 3f
       -0.040740127169211375 0.017473462749124813
000190 b1 72 33 c2 0a 2e 97 bf 60 d6 ba da 5c 4b ad 3f
       -0.02263657388981483 0.05721559686700739
0001a0 46 be 57 27 6b 63 a9 bf a5 27 63 3b 7d 04 a4 bf
       -0.0495866284871878 -0.03909674978201786
0001b0 4c c5 53 a6 65 05 b5 3f b2 1a df 1e 3a 08 c5 3f
       0.08211360274051066 0.16431356913945688
0001c0 6c d3 cc a4 b3 e2 80 bf 16 05 f9 d2 18 74 c7 bf
       -0.008244899241256674 -0.18323049832728405
0001d0 0b bb fb 8e d9 a9 9e 3f ee bb 18 a4 33 d2 bc 3f
       0.02994480071259446 0.11258242374672964
0001e0 15 9c 05 01 c9 7a c6 bf 24 73 01 4b 04 b8 87 3f
       -0.17562210607431497 0.011581452883711991
0001f0 d3 67 ea d7 52 ef 88 bf 9e 27 b8 3e 86 b3 bb 3f
       -0.01217522355482351 0.10820807486757508
000200 70 a8 e8 bd 47 e2 bc 3f 10 b0 d0 2d 7e 75 b5 bf
       0.11282776247449688 -0.08382404917273356
000210 58 6f 03 b4 1d 5e c5 bf 00 52 50 03 19 db c5 3f
       -0.1669346932384268 0.17074883138469943
000220 c0 ce a4 55 fc 18 8f bf c7 85 73 a7 aa 04 b9 bf
       -0.01518437515605997 -0.09772745693364647
000230 b3 7a 3c 23 c6 b4 b8 3f 4f 69 f1 74 50 44 a1 bf
       0.09650839195499365 -0.033724321627874525
000240 74 dc 8c f3 f5 cb a8 bf 83 55 32 ac 0a 5a 9f bf
       -0.04843109701180817 -0.0306169192886805
000250 02 51 c0 04 43 17 97 3f 09 80 b1 1b ee 9d c0 3f
       0.0225496741914677 0.1298196444722637
000260 c5 1c 73 6b c3 30 c4 3f ef 81 46 98 11 49 b6 3f
       0.15773813959660835 0.08705244033490776
000270 3c d3 09 92 38 5e be bf a0 82 b1 75 6d 93 81 bf
       -0.1186251980341923 -0.008581977037637245
000280 90 f5 19 fc 82 0e ba 3f 21 36 31 f8 50 3d 79 3f
       0.10178393034762778 0.006161991393196981
000290 24 d2 55 7c 00 bd b5 3f ad b9 e2 cd 7d ad 8a 3f
       0.08491519008186593 0.013026221128112104
0002a0 c4 18 58 a3 da 50 b0 bf 38 e7 ff 88 2b 0f c5 bf
       -0.06373373496907947 -0.16452545346674596
0002b0 49 fc c4 12 2a 3f c5 3f cb 8e 8a f7 e5 68 a0 3f
       0.16599012295225382 0.03205031058067006
0002c0 21 01 4a 65 39 06 b4 bf 61 00 e6 96 7d c2 a8 bf
       -0.07821997378232882 -0.0483588453962518
0002d0 6c 3c ec 50 31 a6 b7 bf e6 4c c1 a9 15 fd ac bf
       -0.0923796484532759 -0.05661838242726862
0002e0 4f a0 5e ed 20 2d c8 3f 0d fe 5b 3c e5 ad ba bf
       0.18887721624673978 -0.10421593402497127
0002f0 0d 3e cb 35 ac d7 bf bf 5d 95 74 86 32 89 b2 3f
       -0.12438465417221085 0.07240596563913955
000300 68 53 3e ce bf 2e c8 bf ba 21 38 e2 e5 84 b5 3f
       -0.18892667360764936 0.08405911229068055
000310 4e 9b 79 29 96 ab a3 3f e2 5d 5f 00 29 ef b5 bf
       0.038418476641530405 -0.08568054446310883
000320 96 6a b8 08 6e ef c0 bf 2e a2 1f e7 b2 f6 be bf
       -0.13230681825446727 -0.12095182554879422
000330 dc ff ce 49 fa 40 ae 3f fd bb e2 59 dd 6e b9 bf
       0.05908949042304787 -0.09934791035151132
000340 cb 3b df 17 f1 91 c5 bf e3 ff d1 de 53 61 94 bf
       -0.16851628938317584 -0.01990252540099381
000350 f5 3b 17 89 45 37 b1 3f da ef e1 2c c3 61 c4 bf
       0.06724962803785657 -0.1592334717896609
000360 e7 11 f8 94 3a 59 92 3f 0f 65 9d c8 e5 47 bd 3f
       0.017918505995128255 0.1143783201963695
000370 59 d1 c9 40 aa 7f 90 3f 0e cb e9 1a b4 d8 c8 bf
       0.016112003521315674 -0.19411326707957993
000380 89 52 20 b4 12 2d b4 bf 3e eb e9 8d 3d e3 c4 bf
       -0.07881276033033137 -0.16318482808477514
000390 37 b1 36 d1 44 d9 c4 3f 9c cb 2a 86 8f 12 9a bf
       0.16288051810750812 -0.02546142822638907
0003a0 d7 72 2d 14 d2 b3 9d bf f4 4a 11 5d 84 c4 b5 bf
       -0.029006273728884615 -0.08502986213833791
0003b0 96 11 e4 f2 0e 36 c2 3f 41 00 fb a4 29 db b8 3f
       0.14227473125368978 0.09709415700763292
0003c0 aa 33 62 5d c0 33 c1 3f 85 e7 c3 16 e4 0d b7 bf
       0.13439182815309653 -0.09005570941726944
0003d0 8e 55 bc 5b 1f 5a b1 bf 53 9b df 9f ce b1 b7 3f
       -0.06778141011849056 0.09255687144432771
0003e0 9e 9c 1a f1 c6 87 c7 3f 8d ad a0 12 f5 0f a9 bf
       0.18383108875898285 -0.04894986965549739
0003f0 81 71 81 8b a3 c9 bc 3f cf 63 ff 92 00 87 c3 3f
       0.11245176463984842 0.15255744149797443
000400 a6 2d de c3 4a de b6 3f 18 48 06 5b c1 97 80 3f
       0.08932940751963389 0.008101950254772602
000410 e1 eb b8 47 a4 c3 c8 bf 3c 16 01 60 f1 5c c9 3f
       -0.1934705114561828 0.1981488913317423
000420 4a 5b 67 26 39 ad be bf 6b 62 02 29 1c a3 c7 3f
       -0.11983067691413143 0.18466522219093248
000430 81 40 4d c9 e8 65 c6 bf cf 20 7f be b8 1e c2 3f
       -0.17498502568424004 0.1415625505599167
000440 bb 4d c8 6a 6f 52 92 bf 67 a9 bc 22 95 0a 90 bf
       -0.017892590420229598 -0.015665369267631315
000450 1d eb 89 12 5c 60 a1 bf f9 ee dc c7 81 10 c2 3f
       -0.03393829084685349 0.1411287523168239
000460 4a d1 16 f7 9e 5f b3 3f b1 52 53 f4 50 b8 ae bf
       0.07567781002473342 -0.05999997122277046
000470 c2 bc b7 85 7b e8 af 3f 51 8e b8 cb fa ec b0 bf
       0.062320575783695556 -0.06611602281241714
000480 b4 0d 23 fa ed f7 74 bf fe cf 25 a4 33 62 b7 bf
       -0.005119256589924449 -0.09134218938362434
000490 29 47 e5 89 28 cd c6 3f 0f b4 f2 20 49 4c 85 bf
       0.1781359360998576 -0.010399409597392077
0004a0 c0 69 8f 85 bf 04 b8 bf 90 da 19 26 d7 1a b6 bf
       -0.09382245074031115 -0.08634705238533003
0004b0 0b 82 bd 46 ae 31 b8 bf f8 47 7e a9 c1 0f c2 bf
       -0.09450806834275498 -0.1411058499912199
0004c0 6f b2 fb aa 86 5c bf bf 67 97 be 76 55 2e c9 3f
       -0.12250558542627642 0.19672649667807748
0004d0 81 c6 a3 05 ca dd a1 bf d2 3d eb b9 a3 54 a9 bf
       -0.034895241917081606 -0.049473873562984175
0004e0 f8 f5 81 f3 e9 15 77 3f 8a a3 d1 80 78 9b c3 bf
       0.0056361330717868904 -0.15318208971009667
0004f0 cb 36 30 ef 45 1c a0 3f 64 10 fb 91 f1 d9 c2 3f
       0.03146570725230687 0.1472761118694762
000500 d3 56 54 9c 5b c1 c3 bf aa b4 9e 1f d1 6d 82 bf
       -0.15433831342004697 -0.008998521592582815
000510 1f 92 c9 12 47 84 b4 3f 49 85 25 04 aa 6e ac bf
       0.0801433964603082 -0.05553180027596711
000520 ea 4d ab b4 e2 90 b0 3f d8 31 9d 59 7a b7 9e bf
       0.0647107783400355 -0.029996787757498783
000530 e8 a0 5a 00 24 57 bd 3f 6a 8a 44 ee f2 93 a1 3f
       0.11461091049807559 0.03433188589612686
000540 d6 2e 96 70 d1 3b b0 3f a8 02 59 57 c3 8d c1 3f
       0.06341275213906825 0.13713876500152833
000550 82 e0 2d a2 62 7c 62 bf 9e 7c c7 05 09 ce bc bf
       -0.002256577151850848 -0.11251884833426337
000560 fd 3e bf 1c 6b 3e a5 bf 97 2b 87 99 02 09 c0 bf
       -0.04149183965603063 -0.12527496811375435
000570 5c 7d 24 2c 0b 43 6b bf e7 e7 5f fb 06 c6 b3 3f
       -0.003327867337375485 0.07724040638996109
000580 fb 3c e2 ff d1 06 b6 3f 3d c3 27 8e 2e 2c c1 3f
       0.08604156968270964 0.13416082326104997
000590 9d 01 ae 64 a6 65 c6 3f 44 2d 86 9f 0c 45 b8 3f
       0.17497711101533478 0.09480360884315525
0005a0 36 3f 72 28 48 97 97 3f 5b eb 79 e5 82 a7 c3 bf
       0.02303803202499851 -0.15354953961272141
0005b0 c5 cb d2 34 17 e6 ca bf 56 a3 dc 6f 1f 35 54 3f
       -0.21014680938023225 0.0012333685876432985
0005c0 49 6c b5 c9 15 35 b7 3f 03 22 aa dc 06 cc 82 bf
       0.0906537644818154 -0.009178212746761899
0005d0 d6 c6 4f bb d1 b7 c5 3f 34 d1 1a d5 c6 e7 82 3f
       0.16967221876216482 0.009231141451302528
0005e0 09 e6 b5 62 21 3e a9 3f 94 e4 46 cb 62 7b bb 3f
       0.04930214242899573 0.10735146963897285
0005f0 30 cc 3b 83 15 1b c0 bf fd d1 05 8b 11 00 c4 3f
       -0.12582653911485542 0.1562520912954283
000600 9d 38 80 0a 43 d8 9f bf 90 51 e7 10 47 09 91 bf
       -0.03109841109840571 -0.016636953741753724
000610 92 5a c7 1a 95 d5 b2 bf ed 7c b8 f0 92 5c ab bf
       -0.07357150939729198 -0.05344065845951627
000620 d9 17 8d 3a 40 0d 93 3f 28 4f e2 4c 17 64 c2 bf
       0.018605235646894733 -0.14367953542807155
000630 0b c2 58 2f 6c 56 b5 3f 88 4b 32 f1 9b 4c c3 bf
       0.0833499541847759 -0.15077542569323676
000640 f8 22 a8 d6 42 08 bb bf b6 72 ff 4b c0 29 b3 bf
       -0.10559480419773226 -0.07485582213798633
000650 a8 cf 13 ca 70 61 69 3f 16 7f c9 d3 1c 25 90 bf
       0.003098221103408922 -0.01576657335897299
000660 da 36 1d 99 5b 0d c6 bf 9e e0 b3 fd a2 89 c6 bf
       -0.17228264786029152 -0.17607533824753302
000670 0c 1b 27 25 29 4a bf bf 14 0d ee a3 3d 01 9b bf
       -0.12222535283136099 -0.02637192071007373
000680 e3 b5 4e 38 ab 1a a2 bf aa 76 01 98 50 9e 87 bf
       -0.03535971700999221 -0.011532430304380743
000690 84 6a c8 76 40 c3 88 3f 56 c6 bf 4d 28 61 ba bf
       0.012091163277593305 -0.1030450048272312
0006a0 0d f2 76 c6 67 fe 9a bf 60 7a 39 b3 a1 8e be 3f
       -0.026361104477233655 0.11936388612364501
0006b0 81 a3 14 b3 6f 8c c5 3f d1 89 44 bd c5 82 ab bf
       0.16834827655955212 -0.05373208938023633
0006c0 2e 91 d8 b0 7a 5d c1 3f 7c cf ba c6 c4 03 c0 3f
       0.13566526064927004 0.12511501029586813
0006d0 cb 6a df 27 d9 89 c3 bf 4f 25 4e 88 32 20 aa bf
       -0.15264429518614117 -0.05102689660913972
0006e0 03 0a 1e 8c 66 31 ba 3f 00 a5 c6 64 7a 89 a9 3f
       0.10231629296144011 0.049876999665977806
0006f0 82 f0 d0 b7 3c 48 c8 bf 7b 3f 97 f9 b9 dd b2 bf
       -0.18970450377844733 -0.07369577735448544
000700 ba df 6d 99 6b 23 c3 bf 5f 69 8c 42 10 fa bb 3f
       -0.1495184420743934 0.1092844164344675
000710 0f 14 de a6 a2 19 c0 bf 60 82 2b 47 0d bd b1 bf
       -0.1257823290617641 -0.06929095256374174
000720 7f a6 e2 36 f7 c9 c6 bf ae 46 8f 65 2f 74 bd 3f
       -0.1780385034556282 0.1150540945957583
000730 a3 df c9 72 fa 5c c2 3f 59 82 86 de 5e 8e a1 bf
       0.14346247296248035 -0.03428932634711108
000740 a1 bb d2 1a eb 68 bc 3f 5a 13 86 3d 0a 60 c1 3f
       0.11097592739927943 0.13574340824211611
000750 1c 08 47 fa 0f 61 b7 3f 3c 75 87 c5 eb fa c3 3f
       0.09132480488099798 0.1560950006959646
000760 09 4a b6 15 55 fc bd 3f 07 25 7f 74 50 9e b5 bf
       0.11713153629379049 -0.08444693416744907
000770 30 2e ed d9 b2 58 bc bf 88 26 0b 3a 6a 13 97 bf
       -0.11072843380423403 -0.02253499964971309
000780 53 76 67 fc b3 82 c6 3f 00 dd c7 d7 2b 54 b0 bf
       0.17586374115392064 -0.06378435152133832
000790 8e 3d 22 b4 b3 28 b3 3f 11 47 31 7d 21 d5 a0 3f
       0.07483981273457216 0.03287605908611913
0007a0 f2 0f dc 31 89 dd c7 3f a2 ec 9c dd c4 f3 ba 3f
       0.1864482396559875 0.10528211985085759
0007b0 60 be cc 9c db 16 b5 bf 21 50 97 26 62 5f b0 3f
       -0.08238003328437449 0.06395543520130832
0007c0 03 20 c2 a0 f6 12 c6 3f c6 90 7d 54 fa 34 c3 bf
       0.17245371675039686 -0.15005425572883818
0007d0 aa ba 88 99 6d cc bc 3f cc f0 f3 bb 42 fd bb 3f
       0.11249432562247344 0.10933320130056073
0007e0 96 59 ab 33 35 02 a9 3f 61 15 3b 03 13 fc 91 3f
       0.048844969327251395 0.0175631495210572
0007f0 f0 80 26 5e d7 3f c0 3f 11 e2 8b 5b 89 d5 71 3f
       0.12694828126132718 0.004354034951341138

lstm.weight_hh_l0 f8 [120, 30]
000000 53 2f 6e f4 9c 32 6e 3f e3 34 4c 78 68 5e 98 bf
       0.0036862435840187362 -0.023797638265979592
000010 20 31 a0 97 d9 00 c6 3f 69 e3 f0 d0 2c 26 91 3f
       0.17190093902207426 0.016747188809151412
000020 d9 26 73 7a 4f f9 af bf 9f 84 53 28 70 a9 c4 bf
       -0.06244896287678409 -0.16142084092192463
000030 30 77 b8 83 2c c4 b5 3f c9 dc eb 9b 17 bb b4 bf
       0.0850246259292049 -0.08097980076478274
000040 fb fe ec ed 5a f7 b5 3f c8 13 47 df 19 16 b3 bf
       0.08580559071287645 -0.07455598546137232
000050 60 f8 f8 87 4f 5c b4 3f e4 fb b8 72 44 c6 af bf
       0.07953354901926124 -0.06205953503057751
000060 6c b3 2a 68 49 d6 c0 bf fc 82 67 e9 52 3d af bf
       -0.1315395125033335 -0.06101473902868368
000070 22 a0 20 02 6c 33 c6 bf ab 4d b3 30 17 a5 ba bf
       -0.17344427207831453 -0.10408158244108871
000080 d0 6d 73 40 43 6f 5b 3f 8f 5b 7c 10 0f 1b c3 bf
       0.0016744763141137604 -0.1492632704255041
000090 88 17 90 5e 5b 6c bb 3f c8 69 44 6e d2 b0 9d 3f
       0.1071221452585559 0.02899483488099877
0000a0 40 41 20 66 b7 65 ba 3f e1 bc 78 3b df be b0 bf
       0.1031145691233677 -0.06541247560447828
0000b0 c5 6c fb 81 c5 78 c6 3f 1b b5 13 03 1c a7 c2 3f
       0.17556065413268676 0.14572477483981391
0000c0 1b 10 f9 cf 80 06 9a bf fb ae 70 80 f6 7d bc bf
       -0.02541543263784272 -0.1112970412802347
0000d0 c1 66 66 9a 9c 96 c0 bf 79 87 08 ba 09 e6 b8 bf
       -0.1295963052660252 -0.09726010124043495
0000e0 6c bb 5a 8c 1f 46 b1 bf 5d c2 ec c9 34 e5 c3 3f
       -0.06747624565717353 0.15543231830226292
0000f0 ac 3d ac 8a 8d a5 bc 3f 68 39 2c 5e c9 35 c4 bf
       0.11190113673750685 -0.15789143656042914
000100 69 4d 54 e9 b4 5d b5 3f 3b e8 d8 30 52 f9 cc bf
       0.08346110054508461 -0.22635867486116176
000110 6e 75 e7 ae 1f c9 a9 3f 00 3e 24 f4 99 2f bd bf
       0.0503625775342965 -0.11400758944022726
000120 a0 74 e2 b9 7c 15 b3 3f 90 6f ac aa b5 3b a7 3f
       0.07454661882589386 0.04537742336671535
000130 7c aa 27 90 f4 c3 b5 3f 52 20 38 eb 67 9c be 3f
       0.08502129096420136 0.11957406513840965
000140 69 68 49 bc 3b fb a8 3f 7b ac 85 5b 04 a6 46 3f
       0.048791758283827154 0.0006911774899384238
000150 a0 f4 1e 57 bd b5 b3 bf e5 47 55 cc 04 a9 cb 3f
       -0.07699187638259497 0.21609554269031075
000160 61 b3 85 7a a9 27 98 3f cb 94 18 c7 09 69 95 bf
       0.023588798621335786 -0.020908501412255014
000170 05 96 ed 62 86 4e b5 3f cb 17 ce 82 2d 49 b2 3f
       0.0832294456027612 0.0714291042660015
000180 4c 70 7b a9 53 4f b1 3f 79 cd e1 fa 6f 7a a5 3f
       0.06761668098209944 0.04194974839711114
000190 98 64 e2 f0 23 98 b4 bf 67 a2 26 b3 e2 bd ca bf
       -0.0804464781853248 -0.20891984698870944
0001a0 ad 19 96 bf f4 37 b2 3f 55 c0 73 7b da 42 9e 3f
       0.07116632153893106 0.0295519006585326
0001b0 ab ce f5 fd 56 da c6 bf a9 19 fe 64 b2 c1 b0 3f
       -0.17853820228957792 0.0654555794299997
0001c0 dd a7 cd b5 89 42 c1 3f 00 ca a6 8b 1d bf b0 3f
       0.13484307648769703 0.06541618976078922
0001d0 c9 1d 4c aa 40 5b 83 bf 01 04 1a d1 2d 3d b2 3f
       -0.009451394269048745 0.071246017027093
0001e0 97 28 29 35 93 a6 b2 bf 3a 27 12 54 89 7f c5 bf
       -0.07285423324461458 -0.16795460324311212
0001f0 35 9f 94 71 93 3c c5 bf 3f 47 96 bd 49 12 bc bf
       -0.1659111313431311 -0.10965405348386258
000200 12 67 b4 0f bc 3c a2 3f 10 7a f7 f5 87 34 c0 bf
       0.03561961833675133 -0.12660312185376243
000210 95 b8 6c be bc 9e a6 3f 6e ea 35 2e 47 cb b4 bf
       0.04417981934089813 -0.08122677686871224
000220 71 10 dd f1 c3 87 76 bf 52 41 70 0d 6d 98 c1 bf
       -0.00550056973390066 -0.1374641719453487
000230 d5 0d 8d 1a 76 d4 98 bf 3d ae bf 1d e0 cf b8 bf
       -0.02424797570280453 -0.09692192770278836
000240 29 53 54 40 42 84 b4 3f 74 31 51 f9 4b 5f ab bf
       0.08014310904065937 -0.053461431678985344
000250 07 70 08 36 65 2d c2 bf 49 34 1b fd cb 1f c4 3f
       -0.14201035631492706 0.15722036226944372
000260 5f 1f ef 87 53 8c c3 3f 8a ba cc 03 a5 a5 a6 3f
       0.15271991860776787 0.044232517923196005
000270 50 db e4 f3 82 fa b4 bf 4c f8 a2 2b 93 7d c1 bf
       -0.08194750265543616 -0.13664474135106486
000280 75 53 16 77 1f 27 bb 3f 54 69 c0 9e 42 fe b8 bf
       0.10606571824457751 -0.09762970329066906
000290 b3 32 7e 34 1e f0 a4 3f 32 8c e8 37 ec c6 b2 bf
       0.04089445486815659 -0.07334781994772824
0002a0 17 95 32 d8 09 3d b7 bf 7c e8 9e 92 cb 40 c0 bf
       -0.09077512291203892 -0.12697739276137898
0002b0 e0 cc ae 50 4f 3e c7 bf 3e 2d 5d c7 00 b3 c0 bf
       -0.18158904494848738 -0.13046273932045865
0002c0 1c 58 ad ca d4 c0 b3 3f 16 bd c1 b2 67 e8 b2 3f
       0.07716112087413801 0.07385871996097068
0002d0 fa 10 f2 e6 c8 7f a1 bf d8 80 16 f0 04 09 c1 3f
       -0.034178045455549325 0.1330877468399254
0002e0 72 a5 ae 5e 6d 46 c1 bf fe e5 d4 c2 55 77 c2 3f
       -0.13496176837115176 0.1442668153120365
0002f0 26 8a c5 71 b1 81 bc bf e2 8c c2 5b 61 bc b0 3f
       -0.11135396030071174 0.06537445535882427
000300 85 e9 c6 8a a9 37 c2 bf 22 ff 4a 77 42 bd b0 bf
       -0.1423236777898859 -0.06538787281442329
000310 23 3e c0 31 8a 7a 81 3f 6e af 67 41 6c bc a9 bf
       0.00853450741126866 -0.05026567743683939
000320 f4 4c 09 af 2a 68 58 3f d1 23 db d5 cc 93 92 3f
       0.001489679034553157 0.01814193778298884
000330 dd 1f 0d 07 5a ea c4 3f aa f3 a3 e5 9b b5 c2 3f
       0.16340184540081185 0.14616726601516677
000340 88 a0 aa 3f 57 b2 80 bf 11 f6 d4 3e 3e 75 bb 3f
       -0.008152658110091929 0.10725773843747556
000350 e2 de fd e3 90 2e a5 bf f8 5a 8c e6 d6 94 b0 3f
       -0.04137089522458638 0.06477110985393242
000360 91 7f 4d 28 84 fa ba 3f 4b 56 20 a2 35 47 c2 bf
       0.1053850744624454 -0.14279814163517054
000370 8a c6 54 91 58 01 c2 3f 03 7e 86 ae 12 41 b9 bf
       0.14066607567069794 -0.09864918480752043
000380 b8 60 02 61 a0 59 c7 bf 78 10 10 c2 4e 67 c4 3f
       -0.1824226831129232 0.15940269923897055
000390 ac 9e 97 00 40 a5 76 3f b5 49 cb cd 09 5b b1 bf
       0.005528688439404721 -0.06779538416166171
0003a0 59 20 b0 1d 01 36 c6 3f d4 a3 b6 8d c8 e9 a5 bf
       0.17352308225258886 -0.0427992508878742
0003b0 77 93 04 4f 1d 1f c2 3f e6 52 f4 cf 58 cb 8a 3f
       0.14157453878683743 0.013083165975822774
0003c0 73 1f 83 a5 80 b9 bd bf d7 82 5d f5 e1 da 50 bf
       -0.11611179390740549 -0.0010287481904571094
0003d0 6e 47 a8 6a f5 76 c2 3f 9b d8 d0 72 e5 35 b5 3f
       0.14425533016088415 0.08285364201660388
0003e0 60 6f cb b0 9c 50 bb bf e5 a6 5c 08 a7 c2 97 3f
       -0.10669879261280135 0.02320347775017852
0003f0 5c 9b c9 1b 35 a4 c9 bf f0 39 84 e0 54 c3 c3 bf
       -0.2003237138444217 -0.1543985458633439
000400 c7 d9 9b 82 b6 ba a3 bf 5b 68 91 38 37 19 94 bf
       -0.03853388161035159 -0.019627440288197167
000410 90 0d ea c0 95 c2 c1 3f 1d b6 1b 9e 48 0c 9c bf
       0.13875076217310012 -0.02739060845390472
000420 bf e6 fa ce 55 02 b9 bf 2e 05 94 8b a8 71 79 3f
       -0.09769188216423695 0.006211908702654241
000430 62 52 c7 7c f6 f7 a2 3f 79 29 e3 3a bd 25 b1 bf
       0.037048056346667094 -0.06698210418395502
000440 92 a3 24 9e 07 97 c2 3f 06 31 46 31 19 79 b2 bf
       0.1452340624030311 -0.07216031506522222
000450 1a 3f b7 74 11 18 a3 3f ab 24 0d 8f d5 d1 bd bf
       0.03729300069573878 -0.1164830660101354
000460 ba a8 c5 64 dc de 7c bf 13 ee e8 96 37 e9 a5 3f
       -0.00704847422853499 0.04279493062173514
000470 5d 41 ad 27 5e aa b2 bf c1 11 34 90 9d c5 be bf
       -0.07291210621520379 -0.12020287294951172
000480 18 ba d2 64 90 e4 ae bf 83 d7 b9 f2 1f 9e be bf
       -0.06033755522490852 -0.11960029292990097
000490 27 77 6e 45 42 e1 c5 bf e4 3b d6 30 43 45 c2 bf
       -0.17093685522279964 -0.14273872265445597
0004a0 84 62 76 1d 4d 36 c2 3f 22 a0 7a 3c 37 67 64 bf
       0.1422821420535635 -0.0024906233628208133
0004b0 80 15 d7 08 a6 4d c2 bf c1 98 9e 54 4c 9d 89 3f
       -0.14299464637421622 0.012507053692229044
0004c0 83 32 3c 16 4b 36 c0 bf fe 71 6e b9 da 29 c7 3f
       -0.1266569002695129 0.18096479467648402
0004d0 ff 1e 22 f6 65 25 c2 bf 46 b2 ea c2 61 a8 bd bf
       -0.1417663051436122 -0.1158505535956432
0004e0 a1 64 81 48 10 68 bf 3f bf 24 41 95 1b 4e 8c bf
       0.12268163461830507 -0.013820853702912193
0004f0 9f 53 c8 da 46 d1 b9 3f 63 ef 2b 68 05 bd b8 bf
       0.10084956017847312 -0.09663423341038206
000500 3a a0 72 0f 05 fb ac bf 50 56 35 b3 05 09 c2 3f
       -0.05660262883731133 0.1409003376999629
000510 60 b4 3d 3d 8c 90 be 3f ee 8b 9d 1b 4d 34 c8 bf
       0.11939312453405782 -0.18909610603722576
000520 31 96 cb 90 8a 3f 86 3f d7 81 be 96 96 78 ba 3f
       0.010863382858086275 0.10340253048207813
000530 be ca 5c 72 28 84 c2 3f 04 f4 5f 10 5b ef 93 bf
       0.14465814193825638 -0.01946775710529282
000540 5b 2e fb 2d cc 4c bf 3f 02 9a da f7 0c be c2 bf
       0.122265588022111 -0.14642488577119656
000550 08 34 8e 5f 7a 99 b5 3f 01 7e 53 1f 52 61 b5 3f
       0.08437313874146934 0.08351624741361975
000560 7e 7e ce 67 0e bb c0 bf 1e 9b 80 74 32 74 a9 3f
       -0.1307085043781519 0.04971463844440492
000570 b4 6e d4 5d a7 e5 b5 3f 36 10 96 6c 04 96 b7 bf
       0.08553548851744602 -0.09213283206014541
000580 12 72 86 5c 84 3f b1 bf 95 f5 3e 07 2d 23 a6 3f
       -0.06737544306674462 0.043237120756639026
000590 89 f9 c0 f3 bd 16 c1 3f 54 df 84 95 c8 76 b9 bf
       0.13350653078118693 -0.0994687428509427
0005a0 b0 39 f6 08 2b 71 96 3f 3a 40 45 5c 2e 15 b8 bf
       0.02191607706259341 -0.0940731978673747
0005b0 0d 82 95 02 d7 94 9b 3f a5 94 d6 14 a8 3b c3 bf
       0.026934966595378685 -0.1502580739735652
0005c0 1c d7 f1 e3 22 26 a7 bf ff 75 61 c7 97 5e bf 3f
       -0.04521283180740296 0.12253712289517436
0005d0 75 4e 28 5a 7b 9d b3 3f 66 c4 6e c6 b0 99 b8 3f
       0.07662173224553633 0.09609513134525258
0005e0 11 44 3b 12 e2 b4 a4 bf af dd fe 37 53 57 95 3f
       -0.040442528462911416 0.020840931217859623
0005f0 f6 52 43 29 4a 0e ae bf c3 f8 78 96 25 51 c5 3f
       -0.058702771698937825 0.16653890464107776
000600 5e 6d 48 9b 6e dc bc bf ad dc 06 56 f5 15 b6 3f
       -0.11273852625929723 0.08627255773795879
000610 f6 b7 a5 5c 8e e8 3a bf 3a 50 67 a6 3a 21 bc bf
       -0.00041058993942655277 -0.1098820358523093
000620 d3 43 87 d8 93 2b 61 3f a3 5e 39 a7 7e 62 b7 bf
       0.0020959746945909768 -0.0913466604482616
000630 46 80 b9 c2 34 ec a4 bf 40 57 56 6e 8a 6a c1 3f
       -0.040864609499067714 0.13606386554300265
000640 88 1f 42 40 ff 73 c0 3f cf 38 69 95 1e 1c c5 bf
       0.12853994977581018 -0.16492063804111587
000650 f9 b5 9c ac 8d 55 7b 3f 27 51 4c f0 09 25 b5 3f
       0.006673386969664013 0.08259641758587986
000660 50 68 44 50 37 5f c0 bf a2 a2 4f 6b e8 7d b6 3f
       -0.12790576381013574 0.08785870189570713
000670 7b f0 7b ab f0 ec b4 bf cd 36 50 65 44 8f c4 bf
       -0.08174041926025837 -0.160622167081263
000680 e4 34 6f ec bf 9a a1 bf aa 60 b4 a3 6f 61 c6 bf
       -0.03438377152597541 -0.1748485135401599
000690 6e 9a 15 63 89 73 c3 bf 56 ce 11 83 5b b9 92 bf
       -0.15196339929680697 -0.01828520762906146
0006a0 3c d5 99 83 73 00 c0 3f 07 02 7e 62 88 39 93 bf
       0.12501377034974748 -0.01877415753506464
0006b0 22 c4 f0 63 19 63 80 bf 1b 5b 91 32 cc 9f c4 bf
       -0.008001516687814517 -0.16112663716440853
0006c0 4e 7d dd b0 b4 7d b7 bf 1d 4a 5d ba da a4 c2 3f
       -0.09176186864850885 0.14565595722031413
0006d0 f0 ec ca 7d 26 15 bb bf b8 fc 75 7d 6b a4 c2 bf
       -0.10579147883520412 -0.14564269662876028
0006e0 6b 6e a5 4c 6b db a2 3f 3f 81 6c a0 50 96 c2 bf
       0.03683028517363315 -0.14521224816508924
0006f0 c9 89 19 d3 28 8f b9 bf 1e 24 e0 83 4b cd ad 3f
       -0.0998406901722212 0.05820690140542005
000700 a6 28 1e 2d ea 93 c1 3f cf 56 18 c6 c7 69 aa 3f
       0.13732649996774632 0.05158829014923826
000710 23 6b 71 b3 48 d5 be bf 8b 94 5a de 01 0b 3f 3f
       -0.12044195538457507 0.0004736785470903024
000720 59 a1 76 6e 2b 9d b1 3f 96 eb eb dc 68 97 a9 3f
       0.06880446860180224 0.049983288734401984
000730 32 62 19 61 de 47 b0 3f 85 e4 4d 51 f9 a0 9e 3f
       0.0635966288622363 0.02991094168416854
000740 40 5d 20 33 31 47 ab bf 54 a4 51 fb 6c bc c6 3f
       -0.05327752827741472 0.17762529632026036
000750 46 21 85 be ce 4c b9 3f 0a 51 27 9c 8a b4 78 bf
       0.09882824088447703 -0.006031552739347976
000760 95 cd ae 7b ca 4a b8 3f e0 c2 90 90 8e 4b 96 bf
       0.09489121932602125 -0.021772601674629466
000770 1b d1 08 f4 ca ae 91 3f fe cc ba 79 4b c4 b9 3f
       0.017268344063453882 0.10065147134701033
000780 57 a4 fd 1f 5b f8 64 3f 7b cc f3 99 61 19 b2 3f
       0.002559831598706579 0.07069978722192787
000790 9c ee 01 e8 57 13 ca bf 13 52 07 19 28 74 b8 bf
       -0.20371531322949898 -0.09552240954446516
0007a0 b1 31 f4 20 d3 9f c5 3f 0f a4 0e 11 d9 1c af bf
       0.1689399634273179 -0.06076696713655149
0007b0 0a bc d3 e1 1e f9 ac 3f eb d6 f5 9b be 85 bd 3f
       0.05658813959768601 0.11532203014015933
0007c0 61 5c 40 42 c3 81 b2 3f aa 09 04 18 de ba a8 bf
       0.07229252212015204 -0.04830068629418645
0007d0 10 2d 4f 78 e1 1a b0 bf f5 48 9b c7 0a cb 9e bf
       -0.06291016757238688 -0.030071419175166054
0007e0 de 05 1f 55 28 67 c9 bf e2 d8 10 3f 28 04 b7 bf
       -0.1984606185560968 -0.089907184025694
0007f0 35 9b b5 12 d0 e0 bd 3f 22 57 2d 0b 24 f5 c3 bf
       0.11671162087223481 -0.15591860337979663

lstm.bias_ih_l0 f8 [120]
000000 ea 38 11 49 18 16 c4 3f 09 c4 56 5b f3 ba c2 3f
       0.1569242817663004 0.146330279921614
000010 97 13 dc 40 5b f9 bf bf 23 2b 7f 94 35 af 90 bf
       -0.12489862760055669 -0.016293370426676234
000020 57 00 25 24 d8 c6 a9 bf 00 f5 9d 71 06 9e 99 3f
       -0.050345186626601084 0.025016880688316867
000030 2b 30 8c 57 bb c2 c3 bf 8f c6 dd a3 00 8b a5 3f
       -0.15438024306092876 0.04207612991639308
000040 9c 86 77 20 c4 b9 c4 3f 86 52 be e2 a3 84 b3 3f
       0.16191913209245434 0.07624267850617103
000050 fc 4b 3d 59 21 4f c6 3f 49 b1 4e 02 33 38 b6 3f
       0.174289864133783 0.08679503256161526
000060 24 5d a1 40 59 cc 36 bf 51 1b 32 1a 64 7c c4 bf
       -0.0003478734876174053 -0.1600461128147921
000070 a5 15 e7 38 b3 ca c5 3f 11 09 dc a5 34 16 83 3f
       0.17024841574145202 0.009319697677260071
000080 c1 7e dc 7e b3 7e b2 bf bc de fa a7 c0 b9 c8 bf
       -0.07224580619049005 -0.1931687183584837
000090 28 f1 4f e2 74 05 c1 bf 1c 08 b0 9e d6 27 c3 bf
       -0.1329790215530775 -0.14965327022952202
0000a0 e6 32 59 d8 5f 57 c6 3f 07 58 01 b3 8d 34 c2 3f
       0.1745414549244721 0.14222880592814155
0000b0 52 9a e5 05 af 3c c0 bf bd 80 92 aa f4 11 c5 3f
       -0.1268519190591229 0.16461046532368143
0000c0 9e b9 62 57 0b 28 ae 3f f2 54 33 b4 95 20 af 3f
       0.058899263779824226 0.060795477149136704
0000d0 e8 6f ee f0 bb 4e a3 bf 80 ee 1c ab f6 d9 a4 bf
       -0.03771006885582989 -0.04072542990476524
0000e0 13 5e 27 69 fa 33 b8 bf bb 6d 0e c8 84 fb c5 bf
       -0.09454312388640344 -0.1717382408940987
0000f0 c7 b4 44 95 4d 3d 7d bf 42 23 15 08 13 90 b3 3f
       -0.007138541277794625 0.07641714999512053
000100 c9 d8 c6 7f e3 36 a5 bf 4c b1 e2 72 e0 98 9a 3f
       -0.04143439230704044 0.025973803531699688
000110 19 3f 6b 51 b0 65 be 3f 28 76 3f cc 08 ff 86 3f
       0.1187391470696152 0.011228626950408119
000120 87 8b 79 5e 0a 2c c3 3f eb 91 67 73 9b 03 57 3f
       0.14978150952364563 0.001404668624325751
000130 8f d4 c8 a9 8c 8e b6 bf a4 48 fa 4b 20 c6 bd bf
       -0.08811263222817643 -0.11630441527293783
000140 1d 07 67 53 a3 be b8 bf 49 bb 05 f4 bb 04 ab bf
       -0.09665890489762004 -0.05277049402035645
000150 8d 53 dd 37 58 3e c7 bf 51 22 78 22 21 d8 9b 3f
       -0.1815901062751916 0.027191655854070188
000160 2e 82 c4 44 53 44 c4 bf 17 56 3e d5 19 d0 b4 3f
       -0.15833512170594716 0.08130036789074101
000170 55 7d ca 85 03 2f b7 bf f2 04 50 f6 ef d0 c3 3f
       -0.09056112305051063 0.1548137619684336
000180 a4 7f b0 9d 23 43 b5 3f 50 39 05 4c b9 34 c5 bf
       0.08305571174469023 -0.1656715031808269
000190 c6 d5 5c 0a 9b cc 91 bf 61 ee ae 84 60 ba b9 3f
       -0.017382071025357403 0.10050013770426737
0001a0 70 4f c2 b9 2b 18 c2 3f 41 ba 37 9a 3b a3 c4 3f
       0.14136263437523722 0.16123147039566457
0001b0 e9 28 a0 43 5b c8 99 bf d1 46 72 41 1b 19 ba bf
       -0.025178361895123045 -0.10194559428989726
0001c0 ff a1 39 40 be 09 a9 bf dc 44 a3 66 69 a0 c2 bf
       -0.04890245946882387 -0.14552037726983869
0001d0 22 a8 3f 11 cf 5a b2 3f fd 3c 84 f1 6a bc bc bf
       0.07169813319310994 -0.11225002666855129
0001e0 69 20 98 30 02 03 c3 3f f1 2d 05 0f 36 12 a4 3f
       0.14852931378141257 0.03920144017555661
0001f0 ed 70 8a b8 f9 99 bd bf 69 ae 01 ad e3 3d b6 3f
       -0.11563072924986147 0.08688185666840699
000200 cb 30 15 11 9f b2 b8 bf 15 ad aa 3f 48 f5 b9 bf
       -0.09647554556903797 -0.10139895967829589
000210 fd 0a 93 19 e9 b5 ad 3f 52 d1 16 36 55 ae 88 3f
       0.05802849232852301 0.012051263535661026
000220 0f b3 76 ff 71 df b4 bf c2 df ab d9 2d f3 a6 bf
       -0.08153450476556777 -0.0448240593158853
000230 17 35 e3 0f 40 5f a3 3f 4d ef 62 1c 8e 09 b8 bf
       0.037836076678653345 -0.09389579957035928
000240 ae df 2b 3b 25 1d a9 3f 2d 9c 27 53 4c 22 94 3f
       0.049050487015790054 0.019662087035524124
000250 a2 2b c9 7f cd 32 c0 bf 39 2a 22 48 4d 9e b4 bf
       -0.1265503763155183 -0.08054049502440187
000260 6b b9 6f 8a 25 ab b5 3f fe 1d a4 8c 15 b0 be 3f
       0.08464274053378566 0.11987433131809408
000270 e8 24 55 36 9d 88 77 bf 08 81 57 28 64 32 8d bf
       -0.005745519743251416 -0.014256269913801592
000280 bb 91 e6 f4 aa a1 51 3f b8 dd a6 01 a9 f6 98 bf
       0.0010761422632664514 -0.024378433919734127
000290 7b cc 2e 98 6a db be 3f 5c 54 70 97 9d eb b1 bf
       0.12053552832985474 -0.07000145861850754
0002a0 8a 6e 74 da 51 b5 c7 3f 20 f9 7c df 52 24 c4 bf
       0.18522093931902744 -0.15735851204403506
0002b0 32 7e 0c d8 2b ae bb 3f 68 0c e0 f6 19 ef 99 3f
       0.10812639259938164 0.025326162045541528
0002c0 9c 93 be 33 a4 da c5 bf 14 cb 04 fa 25 47 c3 3f
       -0.1707349064501188 0.15060877521462912
0002d0 27 39 7b ec a6 a0 7e 3f af 31 97 00 04 06 bb 3f
       0.0074774284800709695 0.10556054129046431
0002e0 0f 1b 81 a7 a4 3c 9b bf f9 3d 3a 23 5b f5 c4 bf
       -0.0265985228764079 -0.1637376710900609
0002f0 b8 bd e4 32 d9 8c 9c bf ff aa e1 fe 3b 57 c2 3f
       -0.027881044131559313 0.1432871813334131
000300 96 b9 31 d7 67 ef a6 3f e0 bf 63 39 1f b7 c0 bf
       0.04479526998408116 -0.13058843900898776
000310 29 17 64 81 c4 c2 bb bf 2f 11 59 e0 09 ac b6 3f
       -0.10844066771468576 0.08856260039562323
000320 aa d0 47 2e f1 eb a6 bf 29 82 da cb 49 ea c3 3f
       -0.04476884546230171 0.15558741048609306
000330 34 aa b1 9c 11 09 c4 bf 61 ca 74 20 15 21 ab 3f
       -0.15652675772737867 0.05298677464670188
000340 d9 b6 86 4c 3c 31 c1 3f 02 b1 29 91 01 8a 88 3f
       0.13431504952079967 0.011981975786703906
000350 d4 b4 24 0b 50 07 bd 3f de 93 c6 cf 81 92 9e 3f
       0.11339283248954085 0.029855755144712386
000360 d0 a4 e2 37 bb f8 c2 3f 9a 2e 51 f6 ca 52 c4 3f
       0.14821567753577947 0.1587766363830852
000370 51 c7 12 2c d1 22 c7 3f 12 4f 03 92 ab 58 c5 bf
       0.1807500329210208 -0.16676849965607993
000380 46 72 fb 4f 0a 83 88 bf d0 9a 48 44 80 bd b5 bf
       -0.011968689504493157 -0.08492280642586114
000390 58 7c d6 44 a4 12 ae 3f fa 31 da 4e 62 92 bf 3f
       0.05873597469621278 0.12332739281755059
0003a0 c0 6c 49 61 57 9f a0 3f 22 82 e6 8a a7 46 c5 3f
       0.03246567785819243 0.16621870310065484
0003b0 8d ec f4 d6 7d be b1 3f fe 77 5f 13 9a 89 c6 bf
       0.06931292055098677 -0.17607427545493687

lstm.bias_hh_l0 f8 [120]
000000 16 c7 ee 56 8b ac c3 bf 07 c4 56 db e5 10 c6 3f
       -0.15370313400995234 0.172390682314955
000010 16 8f 7d e4 ff f2 6c 3f 75 6a c0 b5 4d cb ab 3f
       0.0035338399792851456 0.05428545802734145
000020 37 fb af bd 8d 0d 68 3f c0 82 98 e3 03 0e b1 bf
       0.002936150396180361 -0.06662010485207315
000030 c3 9f e7 d0 05 dc b3 3f 6e 39 22 dc fd 8d a5 bf
       0.07757603025640862 -0.042098935243404564
000040 c0 f2 10 ff f0 ed bf bf ba d6 a0 8e 23 8a c4 bf
       -0.12472444750978706 -0.1604656645228511
000050 20 30 f5 e4 31 00 aa 3f a8 62 9d 04 91 56 ab 3f
       0.05078273696798896 0.053394824803665586
000060 b4 50 a0 2c 45 8c cc bf b2 36 64 d4 fd ff b8 bf
       -0.22303070715918738 -0.09765612063730592
000070 82 56 9c 63 73 67 a2 3f 30 81 bb 54 ae d9 b1 3f
       0.03594551650000445 0.06972779816306196
000080 40 81 23 c1 27 2a b4 3f 9b ad b7 fe 19 ac 62 bf
       0.07876823869037697 -0.002279330035653349
000090 26 f1 4f 62 56 9c c2 bf b1 ef 9f c2 29 a2 b3 3f
       -0.14539603996662115 0.07669316293316687
0000a0 4f 34 9b 9e 8a fd a4 bf 07 58 01 33 3b 5d c6 3f
       -0.04099686800109536 0.1747201918648786
0000b0 e9 b7 4c 43 7f 1f 78 3f 43 7f 6d b5 38 c9 c4 bf
       0.005889412995015755 -0.16239079340720694
0000c0 64 ae d8 75 ae 28 c7 3f c5 2a f3 32 8d 51 c2 bf
       0.18092900041789328 -0.14311375606333435
0000d0 ef 37 77 78 6a 4a b0 bf 64 c4 38 c5 fa 45 c4 3f
       -0.06363549653107702 0.15838560705154514
0000e0 49 78 9d 24 9e d5 9a bf bb 6d 0e 68 48 ce c0 bf
       -0.026205512032327048 -0.13129525261761707
0000f0 54 69 57 cd 22 30 ae 3f be dc ea d7 10 55 b2 bf
       0.058960998121352276 -0.07161050101682329
000100 a6 93 1c 80 e6 f3 bb 3f 88 62 c5 e5 8a d5 86 3f
       0.10919037463879863 0.011149487626128676
000110 e5 c0 94 0e 32 0b bb bf f1 44 e0 99 44 2c 90 bf
       -0.1056395803068458 -0.015793868915413737
000120 84 8b 79 9e 3f 48 c9 3f 19 cf e6 96 0a 17 c4 3f
       0.19751734960581413 0.15695316665880268
000130 71 2b 37 96 ec 1e be 3f a4 48 fa cb 5c 57 b7 bf
       0.11765936534281508 -0.09117679576800924
000140 21 0e ce e6 c4 0b ab bf 2f 91 fe c2 0e b5 c2 3f
       -0.05282416646425881 0.14615044137202335
000150 73 ac 22 c8 05 96 c2 3f 76 f7 61 37 a4 8a b4 bf
       0.14520332596052618 -0.08024050094715371
000160 2d 82 c4 c4 c4 53 c1 bf d5 53 83 15 6c 48 ac bf
       -0.13536891563218614 -0.05524003756151045
000170 9a d5 a7 5c 8a 1c 75 bf d3 78 02 28 8b 41 5c 3f
       -0.005154171444237044 0.0017246111820337542
000180 84 01 3e 89 d3 c9 9a bf 33 ca 29 60 37 e1 9d bf
       -0.026160531283950586 -0.029179444546068644
000190 9a ab b9 14 28 dc 85 bf 61 ee ae 84 94 3d b5 3f
       -0.010673821575627507 0.08297088851298319
0001a0 34 61 7b 6c 01 ed b5 bf 71 74 6f 74 ea 54 b6 3f
       -0.08564766787037997 0.0872332128778497
0001b0 77 14 d0 a1 59 0b a7 bf 2f b9 8d 3e ab 69 b5 3f
       -0.04500846958402687 0.08364362981021566
0001c0 7f 97 f1 3f 19 09 c7 3f 4d 76 b9 b2 9c 8d b3 3f
       0.17996516821147776 0.07637957919492884
0001d0 45 a0 fe 44 98 d0 9d 3f f9 79 08 23 23 f6 a9 bf
       0.02911603852376767 -0.05070600321436198
0001e0 6a 20 98 b0 af 9b c5 3f fb 96 82 87 44 42 be 3f
       0.16881366846814966 0.11819866474487732
0001f0 ed 70 8a d8 2f 05 be bf 30 d7 80 96 e5 df c5 3f
       -0.11726664578094743 0.17089528893273487
000200 73 98 8a 68 4e fd c1 bf b1 4b 55 81 f8 4d 95 3f
       -0.1405427942710876 0.020805247205611447
000210 ae c2 64 26 30 f4 c2 3f 2a da c2 e6 70 ab b3 3f
       0.14807702898680958 0.07683473237816743
000220 0f b3 76 1f 3c 9d b7 bf de ef d5 4c 1f f5 b8 bf
       -0.0922429634872055 -0.097490268954004
000230 b9 32 07 dc c8 b5 c1 bf 66 21 3a c7 59 16 ab 3f
       -0.1383601259571117 0.05290489727946372
000240 af df 2b 3b 8c 69 a7 3f 22 ce 93 29 ac 51 a0 3f
       0.04572714063937099 0.031873111796724155
000250 9b 2b c9 6f e3 75 c1 bf c8 d5 dd d7 f0 3d b8 3f
       -0.13641016920368262 0.09469514150790481
000260 54 23 c8 3a be e4 c1 bf f1 f0 ad 59 d6 33 c6 bf
       -0.13979318494991821 -0.1734569490325906
000270 31 a9 b2 09 bf 11 c6 bf 22 f0 0a 85 9a 34 b5 bf
       -0.17241657231836308 -0.08283391712296909
000280 a3 65 2c 34 3b ab bf bf cb 76 9b 06 14 28 7a bf
       -0.12370653175130157 -0.006385877824610818
000290 1b ce 44 9f 34 00 98 bf 5c 54 70 37 5e 40 bc bf
       -0.023438284131044634 -0.1103571782444574
0002a0 76 91 8b 25 54 3e c4 bf 28 f2 f9 de 82 d8 b9 bf
       -0.15815212090741299 -0.10095994895704818
0002b0 cd 81 f3 c7 bd b9 b1 bf bc f9 8f 04 c7 9c ac bf
       -0.0692404378091915 -0.05588361674016393
0002c0 b4 b1 05 31 11 5e a9 3f d1 69 f6 eb 21 54 bc bf
       0.04954580043235826 -0.11065876017384048
0002d0 cb 98 70 a2 18 30 a9 bf 51 ce 68 7f ec 45 b6 bf
       -0.04919507010372256 -0.08700445280629167
0002e0 75 72 3f ac 12 b7 a8 3f 06 7c 74 a6 57 e4 b2 bf
       0.04827173569330948 -0.07379672826617431
0002f0 b9 bd e4 32 79 b3 9e bf 09 ab e1 3e a8 11 c0 3f
       -0.029981511813444082 0.12553885527025724
000300 ad 91 33 aa 93 cc c4 bf dd 02 88 d3 44 2a 7e 3f
       -0.16249318895928636 0.007364529469214812
000310 ac d1 37 fd e9 95 a8 3f 43 bb 9b 7e 80 3b 9e bf
       0.04801875320473256 -0.029523856856879204
000320 ad 17 dc a8 9c 90 be 3f 40 ba af 84 9a f5 74 bf
       0.11939410326530604 -0.005117038333067259
000330 b0 a8 c6 f2 df 83 ab bf 61 ca 74 a0 31 d6 aa 3f
       -0.05374049986433371 0.05241541942304618
000340 27 49 79 93 46 f0 c1 bf 15 36 25 72 15 9b bd 3f
       -0.14014513207309529 0.1156476405787646
000350 70 5a 92 c5 9e d3 c2 3f d7 93 c6 cf 82 73 95 3f
       0.14708313605361267 0.02094845193063918
000360 53 d9 ea 40 4a 1a 90 bf 2f 5d a2 6c 40 3c be 3f
       -0.015725288593523356 0.11810686733439434
000370 af 8e 25 d8 3d 8d be 3f 12 0f cb df 18 ff 8a 3f
       0.11934267546672105 0.013181871728540826
000380 59 23 01 ec ac cf a8 3f 95 b2 db dd 67 bc c0 3f
       0.04845943814195292 0.1307496865550958
000390 11 9f 35 31 0c b5 c2 3f f9 e6 92 58 15 12 c3 bf
       0.14615013506703936 -0.14898936104673746
0003a0 33 5b 52 58 07 fa c1 3f bf fb 32 aa e7 e2 bf bf
       0.14044277012427528 -0.12455604462864665
0003b0 88 ec f4 16 9a 44 b0 3f fe 77 5f 33 87 19 c6 bf
       0.0635467821165766 -0.1726540566295966
