models/model_d79.pt (torch_old, 193595 bytes, 10 tensors)

lstm.weight_ih_l0 f8 [120, 106]
000000 3b da c4 02 0c 2e d5 3f 54 5c 22 b1 eb 33 b2 bf
       0.33093548078923946 -0.07110474657598448
000010 17 cd 6b 43 0a 31 c6 3f f0 fd e5 66 d5 94 a2 bf
       0.17337158481641587 -0.03629176026424463
000020 92 99 4a d6 e5 0d cb bf 86 18 f0 2e e2 f3 c3 bf
       -0.211361627230144 -0.1558802346409644
000030 ec 51 2e b9 33 0e c3 bf 0c ad 72 31 d8 3b c5 3f
       -0.14887091199911084 0.1658888093419154
000040 ec 84 10 92 61 60 b5 3f 78 c3 2c 75 a2 e8 c2 bf
       0.08350190940884133 -0.14772444459370226
000050 07 ea 01 39 17 bc a3 3f 17 bf 30 d7 17 70 c5 3f
       0.038544393261833725 0.1674833107695057
000060 2b 35 ba e0 01 67 be bf 91 26 5e 15 bc d4 7f bf
       -0.11875926720150136 -0.0077712389955963005
000070 97 3e 08 82 62 2d bc bf e3 74 3d 0d c2 a7 ac bf
       -0.11006751703848248 -0.05596739207860837
000080 58 6d f0 49 cd 0d c3 3f 9d 41 61 08 54 b2 c2 3f
       0.14885870085059127 0.14606714638877075
000090 88 dd e2 4d 84 28 c9 3f 9f a7 1d ad 7f eb c0 3f
       0.1965489750198055 0.13218685105249237
0000a0 2a 18 87 63 1f a8 a8 3f 86 6a 08 e7 5a 84 9c 3f
       0.048157673739794696 0.02784864459145322
0000b0 39 5e 39 1d d3 36 c0 3f 02 60 3a 5a 2f 43 be bf
       0.12667311598737444 -0.11821266129334165
0000c0 b8 dd d9 db c3 a0 9e bf 20 61 9f a2 d4 b2 c2 bf
       -0.029910145085947554 -0.14608247700267274
0000d0 e1 a7 30 5d 6d 1a c9 3f 8f 55 af 23 68 31 b9 bf
       0.1961189942388151 -0.0984101378556572
0000e0 3b 2d 62 48 61 9d b2 bf f5 96 fb 7f a8 81 ba bf
       -0.07271392838645323 -0.10354092716769599
0000f0 a8 3a 93 cd 6c 38 b6 3f ec 79 93 68 b2 84 9f 3f
       0.0867984773533218 0.03077963603288396
000100 39 bb 03 38 d2 20 b2 3f ba 66 6e 63 dc 59 af bf
       0.07081331126731251 -0.06123245919952809
000110 60 36 86 89 5d 44 b1 bf c2 92 88 b7 f1 25 c1 bf
       -0.06744942290807776 -0.13397046529384765
000120 ca e7 f6 59 ab 11 b4 bf 54 64 c5 e5 3c 9b cb 3f
       -0.07839461275480555 0.21567498416223663
000130 fa 1b c4 e4 7d 6a ae bf 31 a2 af a4 22 4f c2 3f
       -0.059406217742484516 0.14304001847564643
000140 b2 ca 43 9c 55 f3 aa 3f 83 ee 91 3f c9 70 c7 3f
       0.05263774426011504 0.183129459419309
000150 d3 f3 c9 0f 7a 2e b4 3f 72 b2 67 1b 85 56 c4 bf
       0.07883417973967193 -0.15889037931573885
000160 f8 cc cc 58 62 53 c0 3f ee 57 69 a0 a4 18 b9 bf
       0.1275446828454745 -0.09803227344795548
000170 cd 73 17 87 7b 7d 99 bf 06 fe 03 e6 69 36 af bf
       -0.024892740364396638 -0.060962018325877707
000180 32 14 b0 85 7f a3 ba 3f b0 51 f2 fd cb 15 d5 be
       0.1040572835336924 -5.027090053695232e-06
000190 f4 fb e5 dc f9 98 b7 bf 63 67 6a ca 6d 13 c0 3f
       -0.09217797892596008 0.12559292205406355
0001a0 02 59 2a 97 82 01 82 bf c3 0e a1 fd ad 1f c8 bf
       -0.008791942823603186 -0.18846678623423516
0001b0 5d 14 e9 a6 48 5a c2 bf 09 2d a3 06 cd 41 bb 3f
       -0.14338024282384057 0.10647279178663295
0001c0 21 c0 0a 18 b1 3c d0 bf 0c af f4 a6 61 09 b5 3f
       -0.25370433185435287 0.08217439962453116
0001d0 1d 88 22 b9 0c 3e 91 3f 23 d7 e7 5e 2f 05 b6 3f
       0.016838263320671943 0.08601661746055504
0001e0 7f 09 fb 65 7d a6 c3 bf 80 b5 26 3c 9e 6b bd bf
       -0.15351836661836768 -0.11492337196860625
0001f0 8f 4e b9 14 57 c0 b0 bf d0 a0 35 18 1f d6 af 3f
       -0.06543487792924395 0.06218049212003651
000200 10 e1 b6 43 e8 8d ae bf 37 02 1b e1 44 0e ae 3f
       -0.05967641665069057 0.05870261428708939
000210 c7 4d 4b e4 06 07 b2 3f f7 b3 e2 c0 80 6e c6 3f
       0.07041972230518133 0.17524728220215
000220 f4 e0 72 bc e1 6d 5d bf 4a 6b 88 a8 b8 fc aa bf
       -0.0017962173895238994 -0.052709360669004626
000230 5b a5 32 e5 78 9e 82 bf e3 27 f6 ff 9f 78 a9 bf
       -0.009091324324190955 -0.04974842071085541
000240 62 23 1a 58 bc 0c b8 3f f5 17 86 55 ac dc c3 3f
       0.09394433165483698 0.15517191101042696
000250 cc 98 ed 03 b7 f0 bd 3f 92 b3 a0 1d 46 8a b0 bf
       0.11695426793957892 -0.06460989211400506
000260 f7 cb 97 a1 fd 6f c6 3f 7b dd 12 29 ca c2 a7 bf
       0.17529268636971526 -0.04640800238979189
000270 85 00 33 cb 4f ec 95 bf 64 e0 00 56 b6 ed 97 bf
       -0.0214092700741735 -0.023367737769348543
000280 41 4a 2a 67 70 9a c0 bf 6a cc f1 da 40 f9 b0 3f
       -0.12971310651171744 0.06630330415082289
000290 22 83 9c 17 b6 94 cc bf 6c 96 ab b9 6c 7d 64 3f
       -0.22328830864810195 0.0025012134113804787
0002a0 90 f9 2c 83 6d 27 ba bf 22 4d a2 dc 2a a2 c0 3f
       -0.10216412022143673 0.12994895718711869
0002b0 b7 51 2f 85 d2 1c c6 bf bf 3a 3d d5 9a 47 ad 3f
       -0.17275458815733 0.05718692639367395
0002c0 5f b5 97 8d aa d5 af bf 33 68 77 26 1c c2 cd 3f
       -0.062177018913511566 0.23248626592868646
0002d0 d9 b2 c5 db fe 13 b2 3f da cb 9d 4d ca 13 96 3f
       0.07061760774167726 0.021559868800476646
0002e0 72 73 0b 7c 7a 6a b4 3f 08 0a 8c 47 23 02 27 3f
       0.079749732288702 0.0001755397859356108
0002f0 d2 ab 09 4e b3 54 8f bf ef 5e cd 76 5e 02 b7 bf
       -0.01529827196028136 -0.08987989807553352
000300 2b 9e 73 19 bf 2a c3 3f e2 97 07 39 23 be c2 bf
       0.14974201910739401 -0.14642753872538977
000310 51 ae 3c 9a 61 43 be 3f b3 eb 00 4a ce 0b c1 3f
       0.11821565642883881 0.13317278493363247
000320 b3 37 42 2f a3 81 c6 3f 8b 8c 7d a7 25 1a 92 3f
       0.17583122069885135 0.01767786822109633
000330 8b a5 1e 86 0b 97 c7 bf 7a 73 da 0b ad 66 54 3f
       -0.1842970280534185 0.0012451829819959113
000340 70 8c 71 6b eb 48 82 bf 1a bc e7 59 73 08 ca bf
       -0.008928145615021615 -0.203382891558676
000350 63 25 cd 50 c5 2b b9 3f 39 3c dc 23 a7 b3 97 bf
       0.09832413885773898 -0.023146258891810077
000360 72 91 9d e5 32 1a af 3f 85 e0 a0 53 b0 2d b4 3f
       0.06074675610469428 0.0788221553965532
000370 89 62 f4 c6 82 c6 b1 bf 34 1c ff 9e e0 38 83 3f
       -0.06943528516093002 0.009385828830899091
000380 50 23 00 4c 31 18 aa 3f 43 45 e3 71 1a fe c6 bf
       0.050965824630174184 -0.17962961731840651
000390 dc 92 1c 82 2f ea 94 bf 58 0f 79 a6 53 7f c1 3f
       -0.02042459708822518 0.13669820431288815
0003a0 56 d8 07 d4 07 2b c3 bf 5a a2 91 de 15 00 c3 bf
       -0.14975068905886485 -0.1484401070367934
0003b0 c0 0a f2 ec 6e 4f ba bf 5d 6d 05 7f c9 cb bf 3f
       -0.1027745560150306 0.12420329428771511
0003c0 e2 a4 1b c5 e9 69 a3 3f 04 e3 eb 05 f6 60 c6 bf
       0.03791742831328705 -0.17483401574261148
0003d0 bb 82 38 31 6b 66 7c bf e8 14 4d 0a e9 07 a6 bf
       -0.0069336116025914786 -0.043029100902040984
0003e0 78 94 91 cf bf a9 94 3f 3f 3a 93 5c e1 04 b1 3f
       0.02017879204176551 0.06648071775564633
0003f0 ac 12 fa bb 7e 44 c5 3f 83 c6 d7 4b 29 94 c3 3f
       0.16615280321652415 0.15295902446046136
000400 18 57 1b 18 7b 83 c1 bf 95 b6 f6 ec 3f d6 ba bf
       -0.1368249767025922 -0.10483169112441211
000410 f3 2e c3 1d 1b df 86 bf f8 b6 7e d4 7a 7e c2 3f
       -0.01116772827699417 0.14448485732776084
000420 5a 62 aa 61 f3 69 b3 3f 9b 68 4e c5 f2 4e c0 3f
       0.07583542951977887 0.12740931161971933
000430 7d 1b 08 76 d3 3e c3 bf a4 31 a2 ff eb e2 c2 3f
       -0.15035479796662435 0.1475501058779517
000440 6e a2 bc e7 5f 6c cc bf fe c2 1c 9d 27 70 c1 3f
       -0.22205733123088883 0.1362351910734318
000450 32 fb 3c 5e 82 36 87 bf 25 c9 20 6b db 41 ab 3f
       -0.011334436894342301 0.05323682482448281
000460 31 c7 a4 ba 88 1b c5 bf 25 ff 0f d6 d7 d1 c0 bf
       -0.16490277398548295 -0.13140390350599165
000470 ab 5b 4b c7 89 61 aa 3f e7 81 b0 8c dc 0e be 3f
       0.051525407388616294 0.11741426882554827
000480 dc 36 c4 cd d2 6a bf 3f 0b 86 19 64 20 f2 c0 bf
       0.12272374652476564 -0.13238911521607152
000490 39 b7 91 9e da 0d c6 3f 5e 7f 44 ff 6c 0d bf bf
       0.1722977899802858 -0.12129861099356051
0004a0 9e 98 af 76 52 08 75 bf 19 17 b4 89 fe 71 b9 bf
       -0.005134889720443207 -0.09939566480542474
0004b0 a7 e4 31 71 68 6f c2 3f bf bb c2 2c 4f d4 b1 3f
       0.1440249016484689 0.06964583246984456
0004c0 b5 12 fd 30 73 d4 bc bf cd b4 17 5f 72 a2 cc bf
       -0.11261672922143869 -0.2237074817962025
0004d0 3a 36 1f fd 31 bd a7 bf 25 49 b6 3c 67 24 b9 3f
       -0.04636532034747316 0.09821171982028838
0004e0 97 b8 a2 ce 95 25 c6 bf b2 06 eb 14 1f ad b3 3f
       -0.17302200879698112 0.07686037312216845
0004f0 4a 59 d2 75 2d e0 c3 3f 83 0c 8f 75 f5 46 cb bf
       0.1552788567830226 -0.21310299148726494
000500 a8 b8 0f c1 a0 18 cc 3f 75 99 cd 41 5a 85 af 3f
       0.21950158526255348 0.06156427434216286
000510 c7 29 a7 11 87 d4 b1 bf 3c 27 21 e1 94 de 85 bf
       -0.06964916401844966 -0.010678446884543662
000520 cf f8 a3 68 f0 ab b6 3f 49 ce 0e 8e 67 95 bb bf
       0.08856108240795212 -0.10774848192414156
000530 f5 74 d3 c7 22 cd c9 3f de 20 ab e8 e4 55 99 bf
       0.2015727496827037 -0.024741722775417745
000540 09 2b 0a c5 2a 35 a9 3f b3 45 aa ab 1b 00 ba bf
       0.04923375754613885 -0.10156414929431072
000550 68 dd a6 5d dc c8 c2 bf 4d 62 78 69 9b 0b 93 bf
       -0.14675478527872632 -0.018598964989083467
000560 74 7e 04 ad 69 78 c0 3f 5c d0 bb 10 e6 51 a8 3f
       0.12867470691798 0.047499837439233444
000570 ff d5 80 30 0f af 6d bf e2 02 7e 9d 74 53 c8 bf
       -0.003623513857770488 -0.19004686059999815
000580 52 10 75 42 7b 1e b7 bf 02 b1 30 c0 5f ae 9c bf
       -0.09030886051647372 -0.028008934121474212
000590 82 cb 57 84 8a b6 c5 bf 32 1c 9b d2 c0 bc ad 3f
       -0.16963321172769602 0.058080697735526945
0005a0 09 4b a9 8a da 7f bd bf 6e c3 d4 ab 3f c7 c4 bf
       -0.11523214230809854 -0.1623305882472112
0005b0 ec 09 ca 6d 22 17 c1 3f 41 66 13 93 55 0f b6 3f
       0.1335185085373064 0.0861714824744917
0005c0 24 73 fe 43 60 aa a5 3f 38 b6 9a 22 65 b6 c2 bf
       0.04231549100879864 -0.1461912554708975
0005d0 8a 47 26 33 07 f1 c8 bf 5c 05 f7 da bb d5 c0 bf
       -0.19485559461150742 -0.1315226382412601
0005e0 4d 68 69 b7 4c 88 c2 bf de 56 43 4c c6 7e bf 3f
       -0.14478453593875643 0.1230281768979142
0005f0 ed 8e b6 6c 4e 93 c3 3f ff 51 6d 9f 2f b6 9d bf
       0.1529329329324506 -0.029015297036794504
000600 9d da 60 da 9f 6c c5 bf 56 34 32 ce 99 64 c8 bf
       -0.16737745440487553 -0.1905700928513478
000610 61 91 8e aa c6 f4 8e bf c6 fc 87 ba e7 74 ac bf
       -0.01511531074522371 -0.055579415817186326
000620 aa 33 7a 5a 41 f1 b7 3f 35 c6 ad c8 48 2d b3 3f
       0.09352501353187273 0.07490973376641182
000630 6e 27 f8 a1 be a8 aa 3f 17 09 40 13 e6 33 b6 3f
       0.05206866957821786 0.08672941179250802
000640 8b 22 21 9e 48 2b be bf 09 27 6c df bd 33 ad bf
       -0.11784795628148907 -0.057035382769823846
000650 89 66 cd 65 b4 0d be 3f a9 fb d9 0f c7 4c c6 3f
       0.11739661679657777 0.17421806596754877
000660 c5 34 da f8 7b 76 c3 3f d0 9e 9c e6 3a 38 74 bf
       0.15205335284227864 -0.0049364376843994
000670 79 37 a3 40 9a 65 c8 3f fb be 4c 04 ec b6 be bf
       0.19060066372042764 -0.11997866730666466
000680 91 26 93 06 88 bf c0 3f 7f 8b e8 c9 1d 4d 9e bf
       0.1308450729468871 -0.02959105057574218
000690 49 45 3a 12 1c 9e a0 3f 8a e5 b7 f2 fb db a9 3f
       0.03245628092293857 0.05050647104139745
0006a0 99 8c 60 fd 6e cd c2 3f 32 6a 97 fb c3 48 ac bf
       0.14689433452540326 -0.05524265714821687
0006b0 c9 83 f4 71 9e 5e b7 3f 84 68 b5 d4 bb 90 90 3f
       0.09128752023799715 0.016177115304664827
0006c0 22 f8 29 ff 75 01 a9 bf 99 ab ba 7c 49 73 bb bf
       -0.04883927097124309 -0.10722789092203157
0006d0 93 dc 6b 42 1b 47 c3 3f 3b 36 c4 36 fe ff bc 3f
       0.15060749762753697 0.11328114354201883
0006e0 f1 75 21 bc 58 59 a7 bf 3b 7b 23 0b 12 9b b3 3f
       -0.04560353561894804 0.07658493778170065
0006f0 e4 72 83 6a ce 44 ba bf 1f eb 47 1b 88 87 b8 bf
       -0.10261240101267394 -0.09581804910696377
000700 50 a1 51 80 73 98 c4 3f 78 18 da b9 bb 2d c2 bf
       0.16090244069642745 -0.1420206696968227
000710 e4 48 59 51 f7 02 c2 3f 3c 94 42 bd 69 63 b6 3f
       0.1407155177317413 0.08745442267043385
000720 5c fd bc e9 b3 ef b5 3f 75 72 d6 93 0c 0a be 3f
       0.08568882423877738 0.11734083756750542
000730 36 8b f5 d2 64 f7 b3 bf c1 46 d4 7f df 91 b8 bf
       -0.07799368048067098 -0.0959758460124034
000740 95 d6 25 44 d5 a0 b8 3f f3 67 66 76 f6 a5 ba bf
       0.09620411790623458 -0.10409489050508096
000750 d5 b4 c0 3b f9 42 bd bf 55 9c 92 6c 43 3e 9d 3f
       -0.11430318554694748 0.028557828428031524
000760 a2 8c 31 c6 14 cf c3 bf 06 24 76 3e 5a 9f bf 3f
       -0.15475711514873064 0.12352527642191555
000770 b8 a2 1b 4f 6e 1a 9f 3f 10 7d 3b c0 b8 92 a7 3f
       0.030374263361326398 0.046041272607675876
000780 86 36 43 2e ea c1 c2 3f 42 8b a3 95 ed 31 a4 3f
       0.1465428090945588 0.039443420902691276
000790 65 a6 41 28 40 80 b1 3f bf f2 c2 4c 7a fe 9b 3f
       0.06836319907019968 0.027337943015242724
0007a0 c6 2f 67 13 f4 fc bc bf 37 dd 74 7d 2c 25 c2 3f
       -0.1132347628947051 0.14175945401960074
0007b0 df 9f 8c a8 a4 f0 b5 bf 35 81 7a 06 a2 8a a3 bf
       -0.08570317378018853 -0.03816706017573993
0007c0 04 70 94 87 e0 bd 96 bf fd 15 09 ab a9 a4 c2 bf
       -0.022208698535095564 -0.14565010882704135
0007d0 ff ad 92 a7 07 38 be 3f 0d ab 6c 5a 47 8f b3 3f
       0.1180424484361353 0.0764050098193076
0007e0 2e 35 d1 7b ef e2 b6 3f fa a2 a7 7f 91 67 cc bf
       0.08940026066666881 -0.2219106553377726
0007f0 9a fb 67 06 41 69 b1 3f e0 88 3e a2 f7 54 bd bf
       0.06801229864502858 -0.11457774840394874

lstm.weight_hh_l0 f8 [120, 30]
000000 33 3e 98 33 81 79 a9 bf 76 fd e1 31 fb ef be bf
       -0.04975513224428276 -0.12084932296601444
000010 46 44 6b 97 b9 46 b2 bf 3e 05 47 08 57 47 b5 3f
       -0.07139167734864413 0.08311981155477086
000020 3f 23 65 c4 ed e4 b6 3f 29 99 37 3e a7 82 bb 3f
       0.08943067593385211 0.10746236103986874
000030 80 a1 5b 94 3e 5f be bf b4 0e e2 de c9 1e 89 3f
       -0.11864081499118662 0.012265755762434473
000040 c7 67 a0 fc fd ef a3 bf 69 bf 71 b4 e6 dc c1 3f
       -0.03894036969013786 0.13955386935003425
000050 19 f8 67 68 0d e0 c1 3f d6 81 9a 52 ed b1 c2 bf
       0.1396500358386568 -0.146054902395021
000060 07 ad 6c 06 87 a9 9b 3f 2e 2c 88 79 6c 27 c7 bf
       0.027013883368607796 -0.18089061674285872
000070 7a 16 ad f2 6e 40 b9 3f bb f1 07 1c 47 aa 9c bf
       0.0986394255133635 -0.027993308149221834
000080 23 01 28 ca 30 60 bd 3f 33 f5 d3 5d ab 6b c2 3f
       0.11474900184112306 0.1439108093399369
000090 5b 46 74 12 9b a9 b7 3f b8 1f d6 43 87 83 8b 3f
       0.09243172836820561 0.013434464223578732
0000a0 b7 ce 9b f9 5c 57 c3 3f 7a a9 f4 fb 05 df ae 3f
       0.15110361278458637 0.06029528332358587
0000b0 cb c3 c9 8c 08 ea cb 3f ad 12 98 9e 90 8d c2 3f
       0.2180796325151547 0.1449452185044228
0000c0 7d 56 96 1d 14 75 aa 3f 4f ca b7 00 e7 8f c5 bf
       0.051674488651014074 -0.16845405135207378
0000d0 cc 0b d7 8d a7 5d 8a 3f 41 0b 66 63 e0 61 b6 bf
       0.012873944297899252 -0.08743097712253435
0000e0 7c c9 9b 9e 12 2c c7 bf af 33 ae b2 3e f5 cb bf
       -0.1810324930625703 -0.21842178082115768
0000f0 f4 ea f3 62 35 a6 99 3f cb f2 7e 7d 74 23 c1 3f
       0.025048097767448277 0.13389450195054162
000100 bd 7a 00 25 30 17 c2 bf 29 53 54 5b 77 90 c9 bf
       -0.14133264357311318 -0.1997212596840197
000110 00 54 f8 46 e5 f5 c2 3f a5 85 58 09 6b 39 b7 3f
       0.14812913861592847 0.0907198808495396
000120 cc 9c 96 a2 54 d0 b3 bf a7 b1 b8 b2 72 0d 75 bf
       -0.07739762277070666 -0.005139778174946852
000130 2a ae 41 90 c0 5b c1 bf 87 5a 5d eb 61 0e bf bf
       -0.13561255496766594 -0.1213132094975241
000140 22 71 68 f8 e2 28 c6 3f dd 2b 1e 89 c5 d6 c9 bf
       0.17312276009841648 -0.20186680979926921
000150 bb 48 cb 0e 9e 73 bd 3f 7e fe 40 05 dc c3 c4 bf
       0.11504543172057684 -0.1622271562246062
000160 02 c9 60 1f f9 36 c7 bf d9 49 91 ae b1 b1 bf 3f
       -0.18136514694339928 0.12380514633085883
000170 c3 49 1d 93 49 42 af 3f da 3e 02 34 67 01 b4 3f
       0.06105260773496781 0.07814641017671012
000180 8a d8 3c b5 ef 69 b8 bf d6 23 1e 7e 40 09 c4 3f
       -0.0953664605593493 0.15653234632580276
000190 2c b4 f3 50 0d bd b2 3f 4c e9 ce ae 18 34 b1 3f
       0.07319720484129338 0.06720117824344135
0001a0 19 01 9b 79 2f 95 9d bf e5 a0 b2 7a 2b a9 b9 bf
       -0.0288894098255251 -0.10023757691908804
0001b0 3e f2 a2 a2 a6 4b b8 bf de c1 ab aa ef 1d c2 3f
       -0.09490434141748325 0.14153858026067118
0001c0 fb c4 dc c2 ba 7a b0 bf 45 42 80 50 8b 3d 62 3f
       -0.06437270409948674 0.002226612185048079
0001d0 f6 72 36 ad 79 74 b2 3f e0 8f 56 89 0c 33 bb bf
       0.07208977202249031 -0.10624769547445068
0001e0 ab 05 88 48 7a 46 c1 bf 4e b1 1c a5 75 a7 ca bf
       -0.1349633077771107 -0.20823545992005638
0001f0 ba f6 5d ca 1c 7f a9 bf 1d 9d c8 51 dd ea a8 bf
       -0.04979791612912039 -0.04866687415442981
000200 3d 20 54 dd 38 be b0 3f 24 fd 29 80 20 3c c0 3f
       0.06540255931406676 0.12683492906578764
000210 3f 85 92 64 b1 a4 b5 3f f6 5e bc 25 19 ac a9 bf
       0.08454426484469922 -0.050141130310462786
000220 89 60 3d ac 8a 5f b3 3f 6f b8 28 e2 bf 5f ca 3f
       0.07567660050460935 0.2060470442097002
000230 02 64 bb 18 a8 a0 c2 3f ec 97 8c 1b 2a d7 ad 3f
       0.14552785117737704 0.05828219972890722
000240 b1 68 00 c5 45 da c0 3f 80 e8 0e 81 c2 cb 77 bf
       0.13166114920824648 -0.005809554845592868
000250 e9 19 10 c6 9e 2e b5 bf 7a 9c b8 f5 7b 52 b5 bf
       -0.08274261794586092 -0.08328985928584301
000260 59 28 b4 26 a5 14 b5 3f fc 9c 69 4e c4 5a af bf
       0.08234626955905479 -0.06123937089142292
000270 5b 7b c4 0c b4 19 c0 bf ac fe 3b 0c 6f 1a b5 3f
       -0.125784403070578 0.08243459747972776
000280 fb a9 5f bb 77 e8 bd bf 05 45 b7 89 61 0e b4 3f
       -0.11682842564156452 0.07834443676189913
000290 0a 6d 1e 1d 4c 63 a0 bf df 57 b4 d2 bf 0c c6 3f
       -0.03200757842497566 0.172264078028717
0002a0 03 79 d0 58 7c 80 96 bf b0 ae 08 aa 8c 89 ba bf
       -0.021974509163663402 -0.10366133834093705
0002b0 39 d6 1d 85 82 f8 ba bf 99 ff 5a 08 56 1c bb 3f
       -0.10535445928493282 0.10590112403860842
0002c0 cf 5d 1a 7f dc a9 ac 3f 09 4b 73 b1 fc c2 ce bf
       0.055983438983442484 -0.2403255335289816
0002d0 e3 f0 0e 94 a6 eb b5 3f 13 46 55 b9 e2 e0 b3 3f
       0.0856269942732442 0.07765023255094432
0002e0 cf e4 b5 be c3 b0 c5 3f e1 99 4d 57 70 c9 be bf
       0.16945692836796986 -0.12026121264862112
0002f0 47 c7 bb d3 4a f3 bc 3f 76 94 72 a9 b9 28 c1 bf
       0.11308734578395017 -0.13405533574874412
000300 79 4c 30 b6 3f fa c5 bf d6 97 3a 73 38 7b a2 bf
       -0.17169948955470085 -0.03609634787180453
000310 65 d2 99 68 f4 12 65 3f e2 2b 58 e3 1d 0a cc bf
       0.0025725148778355405 -0.21905873871614207
000320 3e f5 07 28 c6 2a c1 bf 94 39 06 5e 51 04 ad 3f
       -0.13411786036150802 0.05667356751210942
000330 80 16 5b 72 47 cc a0 bf 0f 5a 09 89 f3 55 8b bf
       -0.03280852576203319 -0.013347532863162063
000340 a4 13 bd 41 f2 0a bb 3f 1b a0 0d 93 48 0e ba 3f
       0.10563577752061676 0.10178044881979569
000350 6c 20 35 b1 ae cd c4 bf 2a 60 fa e9 c4 7b ae bf
       -0.1625269284506915 -0.05953803402115938
000360 77 f8 27 ea 0a 10 cb 3f e4 db 40 cc e0 62 a5 bf
       0.21142708238034277 -0.04177000516249743
000370 d2 c8 4a eb f4 ff b5 3f 33 97 34 99 34 cf ad 3f
       0.08593683952748002 0.058221477224192596
000380 88 4f 3a 42 8e cc c6 bf 04 95 2d 9d 3c 57 a3 3f
       -0.17811754449632766 0.037774938761495874
000390 60 cc 93 7e f6 35 c3 3f c4 ec 5d cb 1f b7 91 bf
       0.1500843160680203 -0.01730012587311759
0003a0 9f bb e2 e3 6a 00 be 3f 7d a6 b2 66 31 8f b8 3f
       0.11719387115111467 0.09593495137473869
0003b0 8a 4b b0 93 6c 51 cd 3f c5 86 d3 4e f2 02 b3 3f
       0.2290473672042846 0.07426371025533303
0003c0 e5 2d e2 5c b6 fe aa bf 5a 7e 47 11 57 06 9a bf
       -0.052724551046676095 -0.025414810590403604
0003d0 4c 6d cc b7 c3 9c c3 bf c7 46 49 34 ad 37 ca bf
       -0.15322157358682842 -0.20482411435164335
0003e0 0e 70 f3 a4 38 77 b5 bf 0b 51 ca ac c1 02 c4 3f
       -0.08385042216417579 0.15633412301088642
0003f0 8a b9 61 3a ce 95 95 3f e0 bc 01 50 69 4f c5 3f
       0.02107927543004843 0.16648594290334184
000400 3b fd 73 2c 72 16 b3 bf 41 39 3d 50 f5 70 c2 3f
       -0.07456124863891926 0.1440722123902081
000410 2c d5 4a f6 45 7e c5 bf f9 40 f9 b9 0e e8 97 bf
       -0.16791605497352557 -0.023346166706972735
000420 75 f8 77 9f c3 3f c0 bf 7a 9a 9a 3e 96 07 b3 bf
       -0.12694592749170722 -0.07433451679626471
000430 f2 bb 97 35 95 d1 68 bf 4a 23 54 19 05 18 bc bf
       -0.0030296243901299863 -0.1097415148580129
000440 91 92 cc 46 16 07 b3 bf 1c dd 3c f3 27 98 b6 3f
       -0.07432688930982524 0.08825921715184787
000450 07 2f b5 8f 55 6d 8b 3f 03 1e 8f 6e e0 09 b3 3f
       0.013392132232773258 0.07436945628352735
000460 80 be 15 cf e9 df 98 bf 72 ad e3 4f d2 d2 c9 bf
       -0.024291661514722396 -0.20174626255844036
000470 c2 8d 49 d6 76 9d 91 bf 82 79 c3 8f 51 bc bd 3f
       -0.01720224078088762 0.116154763792542
000480 ff ab 49 c5 bb 8b ba bf cd c9 e4 65 65 58 b6 bf
       -0.10369466368290146 -0.08728631723059906
000490 aa f0 e7 7d 16 43 c4 3f c7 46 b1 1f 8e 3b ac 3f
       0.1582973589683026 0.055141869896613786
0004a0 7e bf 80 9c d1 f5 c7 3f ef 28 2c b7 78 af c5 bf
       0.1871892942594932 -0.16941746658296306
0004b0 64 80 3c 97 1f 49 c4 bf 9c ed cc ae ba 26 c0 3f
       -0.1584815491160071 0.1261819222944326
0004c0 3e f6 e4 15 bf b0 c8 3f fb b2 59 60 0e f8 b1 3f
       0.19289387291967047 0.07019128658584954
0004d0 83 62 dc f2 5c a0 be bf 92 7c a2 89 1b 17 65 bf
       -0.11963444642277392 -0.0025744951099820413
0004e0 26 ee b4 f0 d3 04 a9 bf fd 9f 39 61 0f a7 b0 bf
       -0.0488649588901036 -0.06504913448009116
0004f0 cd a4 32 b8 a7 1c c4 bf a4 5c 1f 55 20 de a5 3f
       -0.1571244859126523 0.04271031416981799
000500 6c df a0 a5 7f a4 b5 bf 64 c4 28 bd 68 83 c2 3f
       -0.08454129975950558 0.1446352885846266
000510 18 f1 22 8b 58 b1 aa bf 57 34 7a 70 46 8f c4 3f
       -0.05213429163402078 0.16062241069849634
000520 80 2e 8f 17 a5 2c 86 3f 82 dc a0 bb f3 ba 85 bf
       0.010827340871308211 -0.010610489047492292
000530 cb ed a7 ff 82 4e 95 bf aa c8 48 00 11 31 87 3f
       -0.02080731091881009 0.011324055501152525
000540 9b c7 59 29 92 cc c1 bf f1 85 d2 46 75 54 c5 bf
       -0.13905550974919553 -0.16663995702860704
000550 fe ed 18 c5 37 be c8 3f a9 b6 ba 01 d1 d9 99 3f
       0.19330498813529567 0.02524496624999154
000560 7b 2b 19 81 95 aa 74 bf a3 74 cb 8a 81 40 b6 bf
       -0.005045494080671338 -0.08692178381484665
000570 0e 89 6b 4c 89 96 a4 bf ef 5a 9e 3a 0c 99 cc bf
       -0.0402110009943205 -0.22342064726100072
000580 8d 7f 45 70 5f 19 c5 3f b4 d3 44 11 4a df 96 bf
       0.16483681661611307 -0.022336156181342395
000590 a1 0e 4e c1 73 13 b2 bf d1 91 12 03 b2 4b bf 3f
       -0.07060931653364345 0.1222487695218384
0005a0 89 7f 7c 79 c2 9c b5 3f f9 43 57 2f a4 80 ac bf
       0.08442321268057475 -0.05566895559207547
0005b0 fd b9 84 81 63 89 c2 3f a1 65 0b bf d7 7f bf bf
       0.14481777023452472 -0.12304447569058265
0005c0 7a cb 2c 26 5f 87 bc bf 55 ba 40 d8 52 cc c1 bf
       -0.11144060785299628 -0.1390479617998205
0005d0 35 8f d1 7e d8 51 bf 3f 66 ef d7 0c fd 7a b1 3f
       0.12234261604458825 0.06828290523111277
0005e0 6b 42 ac f2 f5 c0 b1 3f 90 e8 30 7d f5 09 c1 3f
       0.06935059713965479 0.1331164227756898
0005f0 71 5c 7e 41 09 83 c1 bf 3c 1c c6 4c 84 79 9c 3f
       -0.13681140611581413 0.027807299791245507
000600 99 37 47 82 d9 a0 be 3f 38 36 f9 ce cf a1 b4 3f
       0.11964187079067158 0.0805940513903004
000610 f8 7d 24 b6 93 5d b3 3f 98 9e 76 bb 86 e3 c1 bf
       0.07564662167396097 -0.13975605157360316
000620 26 c5 5d 42 a2 5a b1 3f a5 d1 02 b2 0a 49 a7 bf
       0.06778921242018451 -0.04547913954721431
000630 a6 b1 3d 9b 9b 02 c3 bf ec 7e 7d 1a a5 42 ad 3f
       -0.14851708488585053 0.057149085506123715
000640 a8 7f c2 6b 76 be a0 3f c7 7c a6 4f b3 0b c0 3f
       0.03270311417986643 0.12535706891228512
000650 f7 62 c3 3e bf 55 ab 3f 55 ad 3d 3e 6b 7c b8 bf
       0.05338857308533378 -0.09564848203233585
000660 55 fb 30 dd 7f e2 b4 3f d2 c7 b1 1b 87 12 95 3f
       0.08158110761813238 0.02057849031957188
000670 73 59 a1 fe 84 c3 a8 bf bf f6 5f bb 29 40 ba 3f
       -0.04836669548301389 0.10254154991704477
000680 5f 12 26 d8 91 03 ad bf 09 e8 d3 b0 c4 d0 c0 bf
       -0.05666785968336251 -0.131371103612594
000690 91 f0 94 2e c2 01 af 3f d7 4e 1f b2 51 7d a8 3f
       0.06056029146790921 0.047831109040684154
0006a0 0f 3b b7 d3 58 fd b7 bf 34 c8 64 0d 07 99 c7 bf
       -0.0937095181354659 -0.18435753015507006
0006b0 74 ad 30 1d 33 75 b9 3f 41 c4 bb bd 47 a8 c6 bf
       0.09944457495355669 -0.1770105053360869
0006c0 e6 ef 5f 99 0f 5d a9 bf 5a 4b 5c 9d b7 dd b0 bf
       -0.04953812358141345 -0.06588313667115867
0006d0 88 75 d7 b7 a1 59 c4 bf 7e 78 d5 a8 a5 fc bf bf
       -0.15898534275667608 -0.12494883891983652
0006e0 2a a4 3b fd d5 ce a5 3f 74 b3 61 c4 e1 88 b3 3f
       0.04259365764830421 0.07630740208123915
0006f0 9e 92 1e 5f 26 87 b0 bf 7d 71 c9 b2 3e 8a c3 3f
       -0.06456222364665584 0.15265640001133454
000700 3d 28 f7 d0 50 96 bb bf d9 56 b1 a1 98 4c b1 bf
       -0.10776238538451906 -0.0675750155217786
000710 56 41 95 64 22 d1 b5 bf ab f7 81 b0 3c f7 b0 3f
       -0.08522238689079606 0.06627253827352202
000720 ad 67 92 ae b9 e4 a0 3f bc 3a 57 7e 94 ac c6 3f
       0.03299503570561 0.17714172524434513
000730 72 f4 ce 71 52 1c a1 bf 99 af 81 4d ae 90 a2 3f
       -0.033419205086354334 0.03626007743954957
000740 8d 0f 40 35 37 de 99 bf 29 99 04 65 13 2b c1 3f
       -0.025261747956406167 0.1341270678760307
000750 fd f3 bf 77 1f 8d c2 bf 68 82 39 ec b4 84 99 3f
       -0.14493172976645488 0.02492029849816149
000760 67 cb 32 58 c9 f0 54 bf 76 2c 9e fe b7 8f c4 bf
       -0.0012781111006858416 -0.160635947537546
000770 af 90 dc e4 e8 79 c1 3f c6 96 58 87 96 10 83 3f
       0.13653289008028 0.009308982854303049
000780 de 4d 9e 4d 07 31 af bf ae 1f c9 75 92 25 c3 bf
       -0.060920932984256146 -0.149584109795112
000790 35 01 d2 4a 9e bf 80 bf 4c 42 5e b4 6d 51 c2 bf
       -0.008177982958159727 -0.14311000163117382
0007a0 26 a0 96 d5 eb ac c0 bf 6c db 42 ca ed d6 cb bf
       -0.13027713708038496 -0.21749660850556596
0007b0 6d 1d a6 a2 65 55 a8 3f a5 7a d1 26 5f 66 ca 3f
       0.047526527504539874 0.20624913592742647
0007c0 cf 92 ce d6 a4 45 b4 bf f4 cf 8c 5e 7d 60 84 3f
       -0.07918768162069088 0.009949664543093185
0007d0 51 fe 61 fa be 6f c2 bf 6b d9 0c 8b 83 34 78 bf
       -0.14403521753046047 -0.005909456100928838
0007e0 6d 6e 2f bc c9 7e b7 bf 20 b1 75 60 21 e3 92 bf
       -0.09177838177077442 -0.01844455863231176
0007f0 de 0d 52 5b 2b 35 b2 bf 0a 4e a9 ed 0b a1 9c 3f
       -0.07112380008225425 0.027958094006249858

lstm.bias_ih_l0 f8 [120]
000000 3c 0a 92 91 c2 89 76 3f 57 e0 f3 97 98 98 b9 3f
       0.005502471955994678 0.09998468122273728
000010 26 32 1d a2 17 96 bd bf 94 0d 71 ef 5e 69 00 bf
       -0.11557147701132262 -3.1302652069099785e-05
000020 53 cc 2a f5 c8 2c a4 3f c0 e7 a7 ac 97 6e a8 bf
       0.03940418236506873 -0.047718753648907875
000030 0a 5d 86 8f 5b 8b b8 bf ce 33 0a c4 94 35 c7 bf
       -0.09587642911934693 -0.18132266590364882
000040 5a e8 63 e4 a4 a4 9b bf ff 82 62 60 00 0a 88 bf
       -0.026995254936061343 -0.011737826291495333
000050 de 74 96 f0 33 1c b4 3f 65 a1 0c 3f 96 cd 9c 3f
       0.07855534194682742 0.02812800178358667
000060 23 82 b9 b1 6e 0b ba bf 52 cc cb 8a f3 c4 a4 bf
       -0.10173694457035558 -0.04056511945045628
000070 4c 64 9f e6 c7 db bb 3f aa e8 3c f9 72 6d a3 bf
       0.10882233982501183 -0.03794440548377172
000080 3a 27 a2 79 99 cf c9 bf 38 c3 bf d6 b7 8e b6 bf
       -0.20164793433314704 -0.08811520569703368
000090 79 fa 94 e3 d0 ca c4 bf 32 8d e5 49 0d 52 c5 bf
       -0.16243945228957893 -0.16656652553783996
0000a0 b7 a0 84 55 60 76 b0 3f 5e ca 0c e5 11 aa 84 3f
       0.06430627906650242 0.010090007593679558
0000b0 44 73 b4 1f 62 61 94 3f f0 70 eb 73 f2 06 c5 3f
       0.01990273779402975 0.1642745080961343
0000c0 4d 72 69 fa 67 17 c9 bf 93 56 03 5e 90 48 c3 bf
       -0.1960267994608266 -0.15065197554092843
0000d0 f1 77 e3 e8 5c bd 96 bf 35 63 a8 86 79 bd bb bf
       -0.022206737245930645 -0.10835990464728414
0000e0 9b 50 f1 90 fb b5 b6 bf 2a 91 0f f3 0f fb 99 bf
       -0.0887143353332384 -0.02537178917909092
0000f0 12 d3 26 b6 21 7b c3 3f bc 24 ff ac 7f 74 bc 3f
       0.1521951808369058 0.11115262960005884
000100 bf ab 81 b3 a5 a7 c5 bf f8 0d cb f1 2e 06 c5 3f
       -0.16917868866889127 0.16425120168979368
000110 5d ba cf 80 ef 9f c4 bf 40 03 8e cc 7e d2 a9 bf
       -0.1611308459245774 -0.0504340767574889
000120 74 39 fb 4a cd c3 b2 bf 9d ce 37 86 d8 ec a0 3f
       -0.07330020027732137 0.03305699003604199
000130 2e 46 7c 5f 3c e9 ac bf 8c e0 98 34 fb db c0 bf
       -0.05646694818109342 -0.13171329563352108
000140 81 3f af dc 35 df c5 3f af fc 28 44 3b 12 be 3f
       0.17087434077847877 0.11746569074692802
000150 02 ce 64 0c aa 71 b2 bf 9d 45 97 f8 41 71 ba bf
       -0.0720468788393234 -0.10329067534555354
000160 cc e4 70 03 c6 94 96 bf ce 17 c9 5d 47 90 c2 3f
       -0.02205190082552093 0.14502803878184384
000170 f7 17 c0 2c d5 33 b2 3f ae 4e 57 23 b3 0e c0 3f
       0.0711034044507811 0.12544860101353578
000180 16 bd db 4e bd 98 bd 3f 9b f5 00 a2 8c 85 c7 bf
       0.11561186957600386 -0.18376310263003579
000190 5e 5d 6f 4e 20 91 9c bf 8b 2a e3 02 48 c7 af bf
       -0.027897362506192784 -0.06206727061506453
0001a0 ec f3 dd 9f 01 a5 c0 bf 81 da 1a c9 37 b5 c5 bf
       -0.13003559404378906 -0.16959283179831533
0001b0 f6 9d 3d 05 26 9c c7 bf be 43 57 7a 94 d5 a3 bf
       -0.1844527745808901 -0.038738861021222246
0001c0 a1 86 12 42 97 fe 99 3f 7e 7f 32 8b 05 ce b2 bf
       0.025385249526726942 -0.07345614097948602
0001d0 a2 5e fb a2 13 2d c0 bf f3 34 d4 3b f8 bd 99 bf
       -0.12637563188649376 -0.02513873925368144
0001e0 28 cc 96 8f cb 63 b7 bf 9a 43 f2 b0 e4 43 b1 bf
       -0.09136650329200846 -0.06744221992472746
0001f0 0c 49 d3 6e d6 08 c8 bf 5b f7 f3 a4 eb ff cc 3f
       -0.18776970302003126 0.22656007341714254
000200 91 f0 d6 cb 4a 4f bc bf 4e dc b1 4f 8f a4 c4 3f
       -0.11058490253975807 0.16127196685167394
000210 63 45 99 ec ac d3 b1 3f b2 80 65 17 a0 fa a9 3f
       0.06963616157851997 0.050740244728105025
000220 24 ca 6b 3b 9a 1a a0 bf a5 4e 93 39 60 8b a4 bf
       -0.03145296073298123 -0.040125853565453874
000230 10 31 fc 8c a7 50 b3 3f 29 02 fc ee 39 16 c0 3f
       0.07544943992633457 0.12567829293404145
000240 cf 72 28 a8 5e 9d a7 bf 27 46 5e b1 1c 6c 8f bf
       -0.046122510935878595 -0.015342926180696171
000250 21 ac f7 16 53 69 ab bf 4c 00 8b 09 86 6a 9d bf
       -0.05353793769230487 -0.02872666772123038
000260 64 d9 94 7a 82 dd aa bf 41 05 3b a4 65 09 a5 3f
       -0.052471234763674685 0.04108731870429461
000270 32 06 a3 7c bd af a3 3f b8 df 81 d2 97 a1 b7 bf
       0.038450166191534754 -0.09230946435297838
000280 77 31 cf 0c 0e 19 b5 bf 40 22 01 40 56 ff c0 bf
       -0.08241355717399822 -0.1327922642251611
000290 15 58 88 b5 de 11 a2 bf 05 f9 20 8a db 75 be bf
       -0.035292586955776674 -0.11898586389813566
0002a0 63 01 56 77 94 be a9 bf cc 6c c1 3e 2d 50 be 3f
       -0.05028213459718491 0.1184108999454338
0002b0 73 a7 01 d4 ba 7d c1 bf bb e8 70 ce 54 97 a4 3f
       -0.13664946891668314 0.04021706600220073
0002c0 2c 3c 5c 23 3f 62 c3 bf 00 fd 36 f7 e3 53 c5 3f
       -0.15143574930741133 0.1666226346114641
0002d0 42 c1 bf c2 56 e1 c3 3f 2f c0 dc 71 5b f9 b0 bf
       0.15531429776411626 -0.0663048890098714
0002e0 33 ab 09 f3 29 e7 ca bf 63 e0 52 fe b4 eb b9 3f
       -0.21017956130102675 0.1012528534801063
0002f0 21 dd 92 2e f2 1f c0 bf 2a 17 12 e3 fd 26 c3 bf
       -0.12597491525750917 -0.14962743365702497
000300 fd 3d 78 fe d7 b3 b2 3f b5 8e 27 ec 67 f2 84 3f
       0.07305669748915729 0.010227977651943257
000310 65 ed 0f fa f2 c2 b1 3f a1 48 5f 5f d4 41 c3 3f
       0.06938093762430737 0.1504464593586521
000320 33 8a 93 6d a5 e0 b4 3f 8f 67 fe b6 da f1 bd bf
       0.0815528290291148 -0.11697165458318025
000330 b8 3b 19 e5 5e 91 c7 bf 4f 19 17 b5 08 95 b2 3f
       -0.18412386118367663 0.0725865785708255
000340 8b f6 5a 1a 9d b0 ba bf 18 d8 1b 63 e4 57 be bf
       -0.10425741094055689 -0.11852862758300409
000350 fd 57 30 af d4 50 c1 bf 0b 82 7b a7 65 3b bf bf
       -0.13527926019804673 -0.12200007761885716
000360 f2 ca 41 a5 a7 eb b1 3f f9 69 b1 90 36 96 c3 3f
       0.07000205788225936 0.15302164139832522
000370 bc 5d 06 50 f9 72 a9 3f 01 ad 1d 51 75 9c bd 3f
       0.04970530607095777 0.11566861372346084
000380 b9 d3 2c 0f a7 3a a7 bf 21 fa 98 e5 70 5d bf bf
       -0.04536935863726605 -0.12251954656037657
000390 06 dd bf fe de e7 80 bf 6c e7 29 c5 e2 48 a8 bf
       -0.00825475897725748 -0.04743107468398375
0003a0 53 70 59 6c f4 1c c6 bf e8 04 c8 c7 6a 4e c1 3f
       -0.1727586297082576 0.1352056003088713
0003b0 82 88 e6 03 06 d8 a9 3f e1 e3 b6 96 f1 1d c9 3f
       0.05047625348676467 0.19622630938627508

lstm.bias_hh_l0 f8 [120]
000000 b0 6f 73 2b 5d 3f c3 bf 38 3f 18 d0 c2 ee a2 bf
       -0.15037121411921595 -0.03697785177439389
000010 0d 99 0e 91 e6 8b c2 bf 54 b8 77 af 01 b1 98 bf
       -0.14489442904341168 -0.024112726530738662
000020 9e 98 55 ea f9 58 9f 3f 08 fa 29 eb 27 41 c5 bf
       0.030612854888567236 -0.16605090124717514
000030 ed 45 f3 60 71 e7 ae 3f cb 7b 46 81 44 41 78 bf
       0.060359519085647274 -0.005921619031510293
000040 fd f9 18 d9 77 f7 b8 bf 93 af f3 33 e2 0c b3 3f
       -0.09752606439813145 0.07441533821446304
000050 2c 8b 69 2f 53 83 b8 bf 2b bd e6 81 3b 4e 85 bf
       -0.09575385959173549 -0.010403122808240703
000060 bd fb 8c 5c 13 ea af 3f 1d f3 b2 22 c5 9e c7 bf
       0.06233273033875928 -0.1845327777317828
000070 e1 4d b0 2c 01 77 c6 bf 2b 3a 4f fe 9e 3c cc bf
       -0.1755067318159567 -0.22060000817732947
000080 9d 13 d1 dc 56 d4 d0 bf 3f c3 bf 76 03 1e b0 bf
       -0.26296016277438544 -0.06295797013423242
000090 10 0b d6 b8 4f c2 bc 3f 81 1a cb 33 37 46 bf bf
       0.11233995688057186 -0.12216515554892206
0000a0 95 be f6 d4 3d 54 a8 bf 4d 99 a1 bc ba 86 bb 3f
       -0.04751771187454527 0.10752455811743751
0000b0 60 c6 25 b0 64 f5 aa bf 24 88 5b 9f 22 2a 98 3f
       -0.0526534523986697 0.023598233200466848
0000c0 98 e4 d2 34 c6 e0 bd bf eb 52 f9 83 12 fc b0 3f
       -0.11671103276866501 0.06634631845492904
0000d0 d7 ef c6 d1 41 d6 89 bf cd 9c 57 79 56 1f b8 3f
       -0.012615694250477745 0.09422817671257917
0000e0 21 a1 e2 a1 e9 a8 ac bf ba dd e0 19 f2 2d 86 3f
       -0.05597620106829227 0.010829821982141098
0000f0 a2 59 b2 93 e7 dd b5 bf a3 6d 80 c9 2e c4 c7 bf
       -0.08541724544406873 -0.18567452277134774
000100 47 54 7e 6c 2f 65 c4 3f de 6f 58 8e 14 2f 90 3f
       0.1593379287484444 0.015804597080304343
000110 5d ba cf c0 7d a7 c4 bf d2 80 23 d3 69 32 c6 bf
       -0.161361426492891 -0.1734134942007644
000120 64 39 fb aa 73 50 b8 bf 78 31 c8 79 6c 88 a5 bf
       -0.09497759746884565 -0.042056455484359156
000130 8b 73 07 c1 87 ee 93 3f 22 c1 31 a9 11 ee b7 bf
       0.019464608341752714 -0.09347639446946635
000140 81 3f af 9c d8 12 c6 3f 9d 06 ae 77 db 9f a7 bf
       0.17245013857472816 -0.04614148937163274
000150 f3 66 32 66 8d ed c3 bf 9e 45 97 f8 5d f5 b9 bf
       -0.15568702211458393 -0.10140025443185727
000160 8e 8d 47 fe 6b e2 a2 3f a4 5f 24 77 7f e1 a4 3f
       0.03688371161458824 0.04078291253443858
000170 f9 f3 9f e9 84 36 c6 bf 9b 62 51 f9 dd b2 b6 bf
       -0.1735387936350035 -0.08866679512847002
000180 78 21 92 98 5c a6 c7 bf 76 29 fc 77 43 20 ac 3f
       -0.1847644562697146 0.054933651348693255
000190 b4 28 64 ac 90 48 bf 3f a2 ca b8 d0 6f 51 c4 bf
       0.12220100601931244 -0.15873525325294674
0001a0 4b 3e df fd 2d 2f 86 bf 82 25 e5 16 fb f5 c0 3f
       -0.010832175550517983 0.13250673883366565
0001b0 e4 3b 7b ea 6f 41 b5 bf 31 0e 5d e9 cd 75 83 bf
       -0.0830297419990838 -0.009502037700833106
0001c0 7b e5 b5 f7 06 1b 7f bf 6c 80 cd f4 8e 52 bf 3f
       -0.007594134537947435 0.12235349156026282
0001d0 a8 42 09 fa 1b 88 b8 3f 51 1a ea 1d 99 60 a5 bf
       0.09582686285399211 -0.04175261011282728
0001e0 e3 33 69 f0 3a 00 ba 3f 40 de 86 c7 5f 3d c7 3f
       0.10156601304443273 0.18156049006005226
0001f0 6a 24 4d 3b 0c 1b a9 bf 2b 11 18 36 25 08 b0 bf
       -0.04903448318379662 -0.06262428827910031
000200 15 e1 ad 57 dd 3c ac bf 7a b8 63 1f 15 aa b0 3f
       -0.0551518601923268 0.0650952531466106
000210 65 45 99 ac fe 52 b9 3f 9c 3f 4d 54 b0 2f b7 bf
       0.09892265046916789 -0.09057142313144911
000220 82 0d 25 b1 d8 7d c0 3f 9c d3 64 ee 7c 85 c1 bf
       0.1288405289616144 -0.1368862308533182
000230 15 62 f8 99 cf 27 a6 3f 93 dd 3f 10 cd 6a 83 bf
       0.043272483391948814 -0.009481050547022451
000240 b6 1c 0a ea 33 22 c3 bf 6f 6e a8 53 e4 1d a9 3f
       -0.14948128631315222 0.04905618210997608
000250 e8 29 84 b4 2e 16 bd 3f e2 7f 3a fb 7c b6 af 3f
       0.11361972720275271 0.061939149539511865
000260 cf b2 29 f5 66 f4 91 bf aa 3e f1 16 13 fd c8 bf
       -0.01753388282161233 -0.1952232229254965
000270 71 3e d7 60 58 c1 c3 bf 46 20 7e ad 2b 1f b6 3f
       -0.15433792809061544 0.08641312585507518
000280 19 9d 61 e6 0a 18 a0 3f 08 ee f6 7f d2 7f 94 3f
       0.03143343031188745 0.020018853245103357
000290 16 58 88 35 0b 81 a5 bf 6d 83 ef 3a 00 57 c1 3f
       -0.04200015095209168 0.13546755674090197
0002a0 4d ff 54 44 8b a3 bb 3f 64 b6 60 df 16 9b c0 3f
       0.10796423357259961 0.12973295123213113
0002b0 32 88 e5 bf fd 77 81 3f 2b 3a 9c d3 e6 d5 c2 3f
       0.008529646319122095 0.14715276081592896
0002c0 56 78 b8 26 c2 e5 b2 bf eb 17 48 c6 48 ff 9d bf
       -0.07381833501173793 -0.02929414472784934
0002d0 cf f5 01 ea 52 65 9a bf 3c 04 98 3b de 3c 6b bf
       -0.02577714494008437 -0.003324922607817386
0002e0 b0 a9 ec 19 75 3c b3 3f d4 8f d6 a0 ba fc c0 bf
       0.07514125712319841 -0.1327126775114481
0002f0 28 dd 92 ae ed 47 cb bf df 5c 48 0c 30 3c aa bf
       -0.2131325819407064 -0.05124044561324025
000300 eb 3d 78 7e c2 71 ba 3f 18 87 3d 71 aa 9b c0 bf
       0.10329833591116937 -0.12975054292024235
000310 78 ed 0f 7a bf d8 be 3f 20 91 be be e5 eb b1 3f
       0.1204948113444767 0.07000575930448294
000320 36 8a 93 ed d4 47 b4 3f bc 33 7f ab 08 cc c5 bf
       0.07922106552317917 -0.17028911947127578
000330 b8 3b 19 65 fb 94 c5 bf b3 e6 e8 8a 02 c3 b8 bf
       -0.16860907017186633 -0.09672561541892825
000340 26 ed b5 f4 91 22 aa bf 1b ec 8d 11 03 c9 cc bf
       -0.05104499923887777 -0.22488439900539067
000350 ff 3f 7d 86 8f 10 9e 3f 2e 9d dd 47 88 8d f8 3e
       0.029360048850605832 2.3415432671395116e-05
000360 15 57 0e 2a b1 3d 80 3f 20 2c 9d be 7d 0d bf bf
       0.007930168243358385 -0.12129960921917915
000370 92 68 fe 4b 50 70 c2 bf 81 29 71 57 f0 70 c0 bf
       -0.14405254088052694 -0.1284466196978649
000380 12 96 69 b8 2e a7 b9 3f 0c fa 98 65 0a ea b4 bf
       0.1002072525239657 -0.0816961763420993
000390 ce fd eb 6f e0 01 c7 bf 50 0c 6b 1d ad 14 be 3f
       -0.17974477257665317 0.11750299423424448
0003a0 62 70 59 cc 12 d2 c2 bf 1e fb 37 78 b6 c6 c2 bf
       -0.1470359323310531 -0.14668923254063143
0003b0 10 bc cb e0 ef 72 7f bf 4f 38 92 d2 d0 12 bc bf
       -0.007677971862661628 -0.10966210499665972
