models/model_d.pt (torch_old, 193595 bytes, 10 tensors)

lstm.weight_ih_l0 f8 [120, 106]
0.33086854291138906 -0.07351427979871925 0.17033176035948794 -0.037405931378839984 -0.20590252299489753 -0.15665804584299034 -0.1529048578723019 0.17271807441054798
0.09111587023024526 -0.1451780822863833 0.04850852643034297 0.1755063923893756 -0.11529625257404251 -0.009050449336169383 -0.1072061853814301 -0.05588009751091295
0.15343511997037446 0.14756587801749424 0.1921006649587014 0.128649923080574 0.04552023933241609 0.024309549767016124 0.1250092232945103 -0.12248519665219207
-0.033071972021748275 -0.14830902327562126 0.2011617661301001 -0.10332389350929562 -0.06773669523326428 -0.10313093415861979 0.09438544043896306 0.024314768165527252
0.07206873197647509 -0.0642083760898948 -0.07805340821267678 -0.14373213606060595 -0.08977110247557424 0.21092361512805502 -0.06367787426465644 0.15063357189256701
0.05919029016291968 0.18946382300392836 0.08055803410021636 -0.1580478497989614 0.12328715118282953 -0.09552880419302968 -0.02754010931211228 -0.06686765085634946
0.10851062727166313 -0.003086710577823208 -0.09064985333916335 0.11539615474961469 -0.015324728516389738 -0.19145340240748362 -0.13762808778176805 0.10483184777130125
-0.25311441581949146 0.08228115743071363 0.023624978481680815 0.08700046110088155 -0.15082833222247435 -0.11964599266417195 -0.05950705018252613 0.05524856537406499
-0.05158248800576736 0.06008904862807343 0.07863572181070265 0.17985378990068346 -0.00386618200390588 -0.04844769408595696 -0.004431548925271794 -0.04436753038995614
0.08191635216637483 0.161373108039115 0.12507633443326574 -0.0549421178023873 0.17853743356666316 -0.04546055028010876 -0.018934497642448922 -0.022750727150611477
-0.11819548697031866 0.07313211314960881 -0.22023682288440738 0.004845988018690402 -0.09019654360282456 0.13027515946332677 -0.16780669449592764 0.06338924255061493
-0.0635150088440093 0.2346271461111864 0.07000780599603248 0.028405915516807677 0.07647094006914747 0.00604683887374374 -0.012360030044316257 -0.08259248461048556
0.16428374677325938 -0.15145909433258345 0.1189985003690849 0.13364356365947885 0.17695296811389824 0.017691297290640597 -0.1817179499764623 0.003038896520153
-0.008379738503883105 -0.19579597014448863 0.10029219990220854 -0.021267075988322826 0.06129972274650948 0.08376914643471056 -0.06303648209149712 0.007836628052146428
0.051730908543306114 -0.1786693349818323 -0.015325151094778508 0.13577586567734828 -0.1471349917227579 -0.14685454146606455 -0.10267193010531364 0.12194230019417608
0.03760402347406523 -0.1731259084249845 -0.0072121754228525415 -0.04116697715796429 0.019953681902661457 0.06730101670064045 0.1671161760448779 0.15346101850041716
-0.136150010062967 -0.10476248132508992 -0.0154112003600571 0.14553773865197758 0.07477264313762716 0.12736609186992168 -0.14993370595902433 0.15140651829818016
-0.2200482999886178 0.13466536786288852 -0.012387218643471604 0.05308266231994976 -0.16890696647023357 -0.13584652520353255 0.05001635640621973 0.11375567240006897
0.12620849875219467 -0.13236710930976966 0.1740038384766051 -0.12201303643589986 -0.003374529392226744 -0.09470118023100656 0.14576795219508507 0.07087053322868021
-0.11263075959653944 -0.22378169167548753 -0.04322660310201097 0.09815729668910227 -0.16902897642877643 0.07486013111082364 0.15381096786775392 -0.21289872995476067
0.21790351955528853 0.06319993340363052 -0.07078165402492442 -0.009620420582011374 0.08929522537572585 -0.10535561073274191 0.20026505140703152 -0.02402146927820552
0.04881399985845231 -0.10450268041658693 -0.1452814783879767 -0.015014442062426733 0.13675876563561046 0.047220955372424676 0.0013344214416395152 -0.19251834792429906
-0.08673164398625567 -0.030608026861487916 -0.17735599124472068 0.057967608796371584 -0.11325845652281209 -0.15666420178046847 0.13374188335157738 0.08568380515382659
0.043527382826021976 -0.1479702364132331 -0.18993952105328799 -0.13077980308035747 -0.14628172945152645 0.12289076446389527 0.16159936145887105 -0.030384551921539743
-0.16571407730237586 -0.18998772034455597 -0.015455113898066683 -0.05688898162532212 0.09490254535548137 0.07554306401012284 0.05098294142723706 0.08673869933612935
-0.1182444421722107 -0.05592913030280607 0.1270606437424854 0.17161894149615234 0.15009298840706597 -0.006956473710688499 0.19011345277685657 -0.12113142862355372
0.13171914629808001 -0.030633656025542192 0.03016882592294109 0.04990894631746357 0.14566256345386513 -0.056418949975240336 0.08891309146831522 0.02099328797302898
-0.04631793280661412 -0.11175058897355712 0.14814005867838972 0.11584709353711713 -0.04217020798947025 0.07813873245759727 -0.09816829800663633 -0.09216129747438158
0.16233262094099338 -0.14087046535938863 0.14139437227858875 0.0859549699388506 0.08768936825723293 0.11586018639460983 -0.080789754351795 -0.0979633181658101
0.09456921604934725 -0.10641724870173984 -0.1127247099768756 0.026260715629822545 -0.15819361392238712 0.12167720251917015 0.03135232487924011 0.0424517700284425
0.148649658621749 0.039988405213628925 0.07003009958082197 0.021818447817760052 -0.11448176269288453 0.1406486323181047 -0.08887258475502802 -0.04690741773145889
-0.02612728340854482 -0.14838394036943325 0.11947808239823525 0.07900549085887013 0.09181405906115003 -0.22128852671036428 0.06681639086147455 -0.11287045045312775
00000000: fb17 c540 f32c d53f 2645 86f3 d4d1 b2bf
00000010: f467 1b5e 6ecd c53f c3a6 e5c7 de26 a3bf
00000020: 0ca7 368d 035b cabf 4b84 c6ef 5e0d c4bf
00000030: 2c04 fbe9 6292 c3bf 2cbd 8238 a01b c63f
00000040: 7015 c9a2 5e53 b73f b80c c205 3295 c2bf
00000050: 0fe2 300d 1cd6 a83f 6091 c653 fe76 c63f
00000060: 8728 2822 0e84 bdbf feb9 4dbf 0a89 82bf
00000070: 4f64 2454 dd71 bbbf d102 9dee 509c acbf
00000080: ee50 2a13 c3a3 c33f d99a 0b4e 70e3 c23f
00000090: 01cc c42c c196 c83f 20ca 21c6 9977 c03f
000000a0: 9d46 7ac6 6d4e a73f 9655 eb44 9ae4 983f
000000b0: bec7 df5e 4d00 c03f e283 dd99 305b bfbf
000000c0: 20ca 7e3c cfee a0bf d1d2 5542 cafb c2bf
000000d0: 2d00 5e33 abbf c93f 498f 8447 6f73 babf
000000e0: de17 c42a 3157 b1bf b4cd 6af5 c966 babf
000000f0: 2366 e7eb a429 b83f 22b3 5278 f8e5 983f
00000100: d634 e7ae 1873 b23f 2e74 6fcb f56f b0bf
00000110: 8662 9de3 4efb b3bf f3db e18b d065 c2bf
00000120: 2c2a 422d 3dfb b6bf 54ec 7686 8bff ca3f
00000130: 410c 7273 314d b0bf 9da7 7afc f547 c33f
00000140: 9321 fb90 304e ae3f 4bdb c9bd 5940 c83f
00000150: a2f6 e389 739f b43f f579 0b75 e93a c4bf
00000160: 11e6 582a bf8f bf3f d9c5 d561 9374 b8bf
00000170: e68e 4b73 7933 9cbf 3e9f 9605 3d1e b1bf
00000180: 0e76 663b 5ac7 bb3f 56aa 7c1f 4d49 69bf
00000190: 6399 7a2b d434 b7bf 0dd7 bb36 9a8a bd3f
000001a0: 6b3f 623e 9262 8fbf 2727 068b 8b81 c8bf
000001b0: a450 0414 cc9d c1bf 0eca c18d 42d6 ba3f
000001c0: aad0 85ce 0633 d0bf f0ef 3dc0 6010 b53f
000001d0: 6d43 ca77 2531 983f f84a 2a87 a945 b63f
000001e0: 0756 1ac1 574e c3bf 1e0f 97a9 1ea1 bebf
000001f0: c3ac d444 b577 aebf 3274 dd3a 8a49 ac3f
00000200: 1fea 0f16 0569 aabf e420 69e5 fdc3 ae3f
00000210: 276d 797d 7821 b43f 0cb1 d7f0 7205 c73f
00000220: 1492 8ca8 f8ab 6fbf 72e3 54db 22ce a8bf
00000230: 2c50 46db d026 72bf 74ec 0e48 57b7 a6bf
00000240: 40ec 8f55 78f8 b43f 09ae bdbe dfa7 c43f
00000250: d97c f256 8002 c03f 2bba 448e 5f21 acbf
00000260: 67ea 238b 50da c63f 7026 6cf1 9a46 a7bf
00000270: 20e1 8fa0 9063 93bf 6bd3 4974 f74b 97bf
00000280: 1783 1237 0f42 bebf 33d3 4342 c9b8 b23f
00000290: b8ec d45f b830 ccbf fccf e900 63d9 733f
000002a0: b682 fce4 1e17 b7bf 7326 b03e dbac c03f
000002b0: b376 7494 b07a c5bf 7650 ac03 473a b03f
000002c0: a148 ca05 8542 b0bf f092 a627 4308 ce3f
000002d0: 5eb9 3715 08ec b13f 3669 a1b8 7016 9d3f
000002e0: 41fd b07a 9993 b33f bd81 4ff3 91c4 783f
000002f0: 6a17 8b26 3750 89bf a323 4cf4 c724 b5bf
00000300: 3fe7 d3f3 3f07 c53f 7d8c 6bf8 0263 c3bf
00000310: 29b7 5b8b af76 be3f 7182 9e77 3b1b c13f
00000320: 7b5a 7d15 65a6 c63f 6a01 26dd aa1d 923f
00000330: 705e 1fa6 8842 c7bf 1885 7025 07e5 683f
00000340: 13ef 9576 6529 81bf 1ec6 3aa4 d70f c9bf
00000350: 9bb6 9fe6 bfac b93f add3 674f 09c7 95bf
00000360: da76 e660 ad62 af3f b0d5 5910 e571 b53f
00000370: d6b1 09ad 2823 b0bf ea1f 8f69 a60c 803f
00000380: 5490 c540 797c aa3f d2c3 4503 a3de c6bf
00000390: 8510 11f6 ca62 8fbf 62cc 5583 1a61 c13f
000003a0: ecf2 c5c4 51d5 c2bf 4bd3 6e2e 21cc c2bf
000003b0: 42ff 0426 b548 babf 893f 554f 9c37 bf3f
000003c0: f2ca 09a6 d540 a33f d646 6361 fd28 c6bf
000003d0: 5bc9 2f99 838a 7dbf 3624 2389 d613 a5bf
000003e0: e3ad d3ec bc6e 943f 3e80 b7b1 a33a b13f
000003f0: f366 5f17 1064 c53f 3cc7 d553 9ca4 c33f
00000400: 9c06 4910 5d6d c1bf 389a 23c7 b6d1 babf
00000410: 9bf2 4e4c e88f 8fbf 7709 ec09 fba0 c23f
00000420: cc5d e9c8 4c24 b33f bdae 9937 884d c03f
00000430: 5cbf d415 0731 c3bf e3f6 3eee 4961 c33f
00000440: d2e9 feed 8a2a ccbf 3cfd 6ffb b63c c13f
00000450: ca67 b257 785e 89bf f32e 4c95 a62d ab3f
00000460: 4632 8754 be9e c5bf ef1f 833f 6b63 c1bf
00000470: 2341 0f6e be9b a93f 6d5a b17c 171f bd3f
00000480: 6d18 4f9f 9927 c03f 2398 c6ca 67f1 c0bf
00000490: 9657 d1fd c145 c63f 5687 2d11 3f3c bfbf
000004a0: 4dce 20ac e6a4 6bbf 351a fc27 563e b8bf
000004b0: cbcb bd35 86a8 c23f 899e 773e 9224 b23f
000004c0: 6fa3 fd94 5ed5 bcbf 874a 98e3 e0a4 ccbf
000004d0: 9ed6 471d cc21 a6bf 03ba 242b d620 b93f
000004e0: ef41 ebd2 bda2 c5bf bd2f e596 082a b33f
000004f0: bf09 61ea 13b0 c33f 4000 42fd 4340 cbbf
00000500: 682d 1635 43e4 cb3f e9f5 13ef de2d b03f
00000510: 509f 3119 bf1e b2bf f022 30fe deb3 83bf
00000520: 367d ad48 0ddc b63f 7817 8cd6 95f8 babf
00000530: 4398 2903 49a2 c93f 8d9a ce83 1599 98bf
00000540: a93f f509 26fe a83f efcb bb0a b0c0 babf
00000550: b508 325f 9598 c2bf 78a8 014d e4bf 8ebf
00000560: c252 ecac 4f81 c13f 5358 0556 582d a83f
00000570: afeb db1c f8dc 553f 067f 1bf4 70a4 c8bf
00000580: 3904 7386 0b34 b6bf c7f1 75e9 b557 9fbf
00000590: 88a7 12e3 99b3 c6bf 38f6 0330 eead ad3f
000005a0: 61cb c296 81fe bcbf 70ef 8c93 920d c4bf
000005b0: 42dc 8c3b 741e c13f bab9 eeb4 5fef b53f
000005c0: b0bc 6f9b 3849 a63f 868e 164f b0f0 c2bf
000005d0: b225 922f f04f c8bf e68d 9a80 64bd c0bf
000005e0: 7291 ff15 5cb9 c2bf a255 5ae6 c475 bf3f
000005f0: 4e9a 42b2 49af c43f 78fc 39c3 201d 9fbf
00000600: 0c11 406f 1e36 c5bf 42bf c282 8451 c8bf
00000610: d836 fc45 eea6 8fbf f6c0 2a77 8d20 adbf
00000620: 18e4 9b80 884b b83f ecf4 5c4d ca56 b33f
00000630: 95f0 2aa4 6f1a aa3f 9a3d f2e4 8134 b63f
00000640: 843b 108c 4445 bebf 2bab 1633 bea2 acbf
00000650: 85c8 bdee 8543 c03f 75d0 8c06 9cf7 c53f
00000660: d49b 483e 3f36 c33f 6085 5331 647e 7cbf
00000670: 0d66 1a3b a355 c83f 46b7 7424 7802 bfbf
00000680: c8bb cd48 2cdc c03f f17e 25db 6d5e 9fbf
00000690: b77e caa2 93e4 9e3f e132 6c58 aa8d a93f
000006a0: 9297 2425 12a5 c23f e160 09d2 f1e2 acbf
000006b0: 74ec 0a24 02c3 b63f b561 1eb5 437f 953f
000006c0: e1d6 3eed fbb6 a7bf 153e f3c4 af9b bcbf
000006d0: 7b27 a0e1 40f6 c23f 3b1d 14b6 27a8 bd3f
000006e0: 514f 5c60 5597 a5bf 5fce 7464 e600 b43f
000006f0: b346 71bd 8e21 b9bf 6501 9cfe e197 b7bf
00000700: eefc 01b9 50c7 c43f 986e d81c 0b08 c2bf
00000710: cc32 63f6 3519 c23f 1ce7 d018 2501 b63f
00000720: c728 df78 cf72 b63f 112b 795f 03a9 bd3f
00000730: 1ef7 ca28 a3ae b4bf fbd3 babf 1f14 b9bf
00000740: 03eb 232a b035 b83f 4f7e e72a 293e bbbf
00000750: 8340 cdce 86db bcbf d8d5 32cb 16e4 9a3f
00000760: 36c9 1d37 b03f c4bf 3115 7db5 3c26 bf3f
00000770: 1012 0574 690d a03f f4e3 db07 3dbc a53f
00000780: e2c5 2bb7 f306 c33f f434 3939 5c79 a43f
00000790: c96c 6f1b 7eed b13f b29a 4e3f 9357 963f
000007a0: 851e c142 ad4e bdbf 1246 043e c600 c23f
000007b0: 50a9 088d 5ac0 b6bf cf5e 31c2 3f04 a8bf
000007c0: 7393 174f 1cc1 9abf ccb4 91b5 3efe c2bf
000007d0: 1b3d 7d98 1d96 be3f 6a7a 712f b439 b43f
000007e0: 000c fb4c 2081 b73f 95bb 99b4 2e53 ccbf
000007f0: a337 9605 e11a b13f 6387 61ed 13e5 bcbf

lstm.weight_hh_l0 f8 [120, 30]
-0.045822517301946905 -0.12031026098088064 -0.07481518950304686 0.07291836813455778 0.08877233094352319 0.11603918050290235 -0.11942473797422071 0.010733414395201785
-0.04376048975214879 0.13976443687684947 0.13227914552333622 -0.1430379629640366 0.02821658541858934 -0.1809344447360646 0.08791763333786128 -0.027082305566936807
0.11541309509496879 0.14816491779889127 0.09603175571084692 0.010738618476064384 0.14427850070406784 0.063031314202751 0.22344192859223805 0.1447089374230796
0.05540971538981793 -0.14449821167467117 0.018985098271391627 -0.09378143991973317 -0.17804816835028706 -0.1925825923055585 0.024754064095760378 0.1324598557703007
-0.1407039305323376 -0.20154990284399169 0.14779377567347884 0.08620144968896888 -0.07806681794787913 -0.005617384623724582 -0.13560765477845604 -0.12113942478398204
0.1736738178233454 -0.20215165269880392 0.11606551381204475 -0.16095605672851357 -0.18320180784170895 0.12489534582113783 0.06088008020360152 0.07898461470479401
-0.09569565391334556 0.15756142716243635 0.07293564981253518 0.06834859943948997 -0.028852351716776324 -0.09641468574622611 -0.09573064579526033 0.13660041797341105
-0.06526309876551628 0.0024743286023346063 0.07283010394996457 -0.09141525025665564 -0.13320196728315736 -0.20796454691871807 -0.05246952714400765 -0.05414561077834293
0.06447789643405313 0.13169141324225223 0.08423583540352447 -0.05164415682741092 0.07186292166519742 0.20535359269049913 0.14156739075874808 0.06004619788605197
0.13230854234677952 -0.006093945346109216 -0.08880270197512553 -0.08288766251750981 0.08274653527727595 -0.05971743501211725 -0.12463478812212779 0.08013850965463637
-0.11959921301652338 0.07825064366070124 -0.02977272631120947 0.1740284463086774 -0.018629626177928585 -0.07528237588026791 -0.10224187698197759 0.10148441582170553
0.05531288191841587 -0.22077971804115296 0.07481584536809152 0.07273799437407265 0.17899858783991707 -0.10263247063129359 0.12208038017763187 -0.14643258843268736
-0.17096817617455468 -0.028671632516710212 0.01779526952236885 -0.21850664114956472 -0.11776074895329401 0.04793901318473159 -0.03463367709125532 -0.009345307906906306
0.11799954680121269 0.10180027080013797 -0.16425186958513416 -0.06147670674194532 0.20657247516410762 -0.03465547718174247 0.10262308758447544 0.06561612889918329
-0.19180523094705462 0.03650213755893637 0.13930965805358553 -0.045951354139492896 0.10939265004041963 0.10662009419207504 0.22733666150147816 0.03963640522257792
-0.05623258335565897 -0.02967196980559768 -0.14866326342929426 -0.20272393393097746 -0.0838926570805826 0.13832547382757146 0.02047437424161035 0.16700363107063132
-0.06934378215406221 0.14262070171460622 -0.16003642173935423 -0.02575286936410152 -0.12554304823304563 -0.0715132178026144 -0.002161509041777479 -0.1080632737001686
-0.07508207321976224 0.08737435553577164 0.011288111408800466 0.07912566538390686 -0.02096076809819512 -0.19906139217427882 -0.02039956240688899 0.12700273384447397
-0.10831658525499506 -0.12589703496808743 0.15298371181096035 0.06112391468461167 0.18953193457501633 -0.1581520903748175 -0.15802915440332566 0.08706765942627938
0.1834652223437035 -0.015743652809220285 -0.13162001732007356 -0.0323607045284305 -0.0644976604207917 -0.09153667687223481 -0.1764143809354351 0.008684817235429413
-0.07005989859891275 0.15149217979550988 -0.010999936028449165 0.17395416131272606 -0.06291193685407744 -0.006660933690906094 -0.014271550197020717 0.030311915798933334
-0.1387894624049331 -0.17303684194788305 0.16184879827385645 0.07382317967212325 0.025285251579203027 -0.06836359284985348 -0.025485286808548963 -0.13892819667495937
0.19118070975199267 -0.04513209259172112 -0.04761983681109385 0.22617598727820598 0.08428541497647422 -0.05653494894045988 0.14537418445157332 -0.1229140194902197
-0.11143297456248585 -0.1396428496666204 0.12200113354297488 0.0685351024606404 0.06994361988050823 0.1326235681478783 -0.13664187451204612 0.02783018375077093
0.11955853004561844 0.0812460223592853 0.07449401423145714 -0.138703918139872 0.06767164481681656 -0.04498223025259115 -0.14819862389948077 0.057961063282763264
0.03260951070026504 0.12713076655596714 0.05316788819558345 -0.0902265774152085 0.08158458745063703 0.007793959692852195 -0.04779480228071105 0.10218011868679679
-0.054380767001088536 -0.11694697533400178 0.05820079748365516 0.04368004205407029 -0.08980746816058557 -0.18493710949681846 0.09826486454608599 -0.19166228598292778
-0.050065216753684604 -0.06695498458181644 -0.15591278900685493 -0.12622084753868923 0.04723378067170197 0.07458639868906426 -0.0628221474794807 0.15504179899605738
-0.10854872466308253 -0.06642861572339558 -0.08579371672173036 0.0650637176429889 0.031763272055100614 0.1801408656685379 -0.03142355902028269 0.04051111003445
-0.02701293512491605 0.14153380790024125 -0.1465299898382976 -0.004720798969525811 -0.005405444662579102 -0.15681080794571628 0.14021451470215596 0.02006972312191768
-0.05217564218216881 -0.14846881030841322 -0.019661674385136788 -0.17457202293512647 -0.1388360424176996 -0.18758030457657177 0.04816364893557586 0.19656617990688122
-0.09988447620614324 0.005598197186722926 -0.16186478806639498 0.005278884419689406 -0.08886461244041613 -0.017305558259242636 -0.09182270256349866 0.02866034668933876
00000000: 46ea 768a 0c76 a7bf 533e 493c a7cc bebf
00000010: 6edd 2898 1627 b3bf b165 6a36 c7aa b23f
00000020: d62e 3192 c8b9 b63f 0c8a 5065 beb4 bd3f
00000030: f8c1 ee9f 9e92 bebf f019 6a7e 66fb 853f
00000040: f651 af60 c667 a6bf 94d4 c312 cde3 c13f
00000050: 4597 fbe5 85ee c03f f02c 8266 114f c2bf
00000060: ae7e 4ffe cee4 9c3f a13f 6e21 dc28 c7bf
00000070: 7f86 ed1f c581 b63f a151 d7c2 76bb 9bbf
00000080: 1189 f66c b68b bd3f 972d 2e6a 11f7 c23f
00000090: 0bd2 2782 8995 b83f be76 45f9 20fe 853f
000000a0: ee1a 05c9 b777 c23f 61ed 1ff9 d122 b03f
000000b0: 22ee edbf be99 cc3f 8ee4 d58c d285 c23f
000000c0: 29ba f586 a95e ac3f c191 bcda ea7e c2bf
000000d0: e575 bf60 d470 933f ae52 6d79 0f02 b8bf
000000e0: 01ae 164a 48ca c6bf 6b9a dddf 8ba6 c8bf
000000f0: f400 f01e 2159 993f 1f7d 48ce 71f4 c03f
00000100: be0b 071e 9602 c2bf c50b 9d20 63cc c9bf
00000110: 30f4 880c e8ea c23f 4d2b 4857 4c11 b63f
00000120: 4d2a fddd 2ffc b3bf c89a f733 4102 77bf
00000130: 4c2c 2e75 975b c1bf 9c15 b44b fe02 bfbf
00000140: 6e82 dc93 f13a c63f 3a3c 96f8 1ae0 c9bf
00000150: 9e23 0432 78b6 bd3f b1fc de43 359a c4bf
00000160: 8dc5 9f26 2873 c7bf 1972 b931 24f9 bf3f
00000170: 3797 e782 ac2b af3f 0854 0bf1 5538 b43f
00000180: f059 eda7 827f b8bf 3f0a 630c f92a c43f
00000190: e747 a826 e9ab b23f 65ec 5137 4b7f b13f
000001a0: 161d 258c 788b 9dbf 3658 2202 a2ae b8bf
000001b0: f664 eab8 cd81 b8bf e069 e85b 1f7c c13f
000001c0: f060 d51a 15b5 b0bf 9694 a60d 0b45 643f
000001d0: ef1e a162 fea4 b23f f03e 3566 fd66 b7bf
000001e0: 243c 9f16 c30c c1bf 2626 df0f 959e cabf
000001f0: 5f7d 3d2e 49dd aabf a4a4 0737 f9b8 abbf
00000200: 32c7 7f98 9f81 b03f 290e 85a4 43db c03f
00000210: b499 35ce 7a90 b53f e9d9 3459 1a71 aabf
00000220: 24d7 58c2 9b65 b23f e463 5cca 0649 ca3f
00000230: 7a93 be58 e11e c23f d7e7 5610 60be ae3f
00000240: 4e30 2e7f 7cef c03f a241 71ff f6f5 78bf
00000250: c993 c71c c6bb b6bf ca2c c137 2038 b5bf
00000260: b98a df7e e02e b53f a28f c19c 4893 aebf
00000270: 77ad edc2 10e8 bfbf 74e9 1d16 f583 b43f
00000280: b486 88d4 0d9e bebf b9e5 69f3 3b08 b43f
00000290: af11 47d7 bd7c 9ebf 4f17 bc6a 9046 c63f
000002a0: b402 af0c a513 93bf 43f5 5eae b445 b3bf
000002b0: e653 eb0d 862c babf 1805 02f7 e1fa b93f
000002c0: bf32 c655 f851 ac3f 5dad 4d82 8242 ccbf
000002d0: 9a1b 1499 2127 b33f ed65 030b f59e b23f
000002e0: 7cbc 66fc 6ce9 c63f 737c de20 1f46 babf
000002f0: f69e 58e8 a840 bf3f e089 3195 4dbe c2bf
00000300: 0eca a902 49e2 c5bf fac5 edaf 185c 9dbf
00000310: 7902 7d52 ec38 923f b31c d98e 06f8 cbbf
00000320: d7c1 8185 9125 bebf 4f70 a95b 768b a83f
00000330: f1f2 e45c 81bb a1bf e552 a6fe a123 83bf
00000340: 4e3b 74e2 3735 be3f 4f7f cf21 950f ba3f
00000350: ac66 168c 3406 c5bf c649 d8f9 df79 afbf
00000360: e1b3 8a84 f770 ca3f 44e7 3eda 5cbe a1bf
00000370: d667 fdb4 8145 ba3f 054d b6f7 37cc b03f
00000380: 1946 0fe5 128d c8bf 8e75 197e 68b0 a23f
00000390: 38b5 ad1c e6d4 c13f bdd9 7896 ef86 a7bf
000003a0: 0fac 581e 2801 bc3f 45c2 a659 744b bb3f
000003b0: 6d53 2a23 5e19 cd3f 7dee 5210 394b a43f
000003c0: 43dc f664 84ca acbf 9417 b12f 5462 9ebf
000003d0: 5cd1 45d7 6507 c3bf 39cd 2c9d dbf2 c9bf
000003e0: 0a20 893a fd79 b5bf 1185 252d a6b4 c13f
000003f0: 1d5a 18ff 3bf7 943f 787c e1fe 5f60 c53f
00000400: 775b 889c 83c0 b1bf 1a64 cc28 6541 c23f
00000410: ba0a c5ce 127c c4bf 2bb4 c9ce f55e 9abf
00000420: a456 336b cb11 c0bf f5a6 b1b3 b04e b2bf
00000430: 0646 9f54 03b5 61bf 34e0 70e2 08aa bbbf
00000440: 58a8 fe28 9438 b3bf e603 896f 2a5e b63f
00000450: 36db acaa 381e 873f 581e 1961 9441 b43f
00000460: bb53 ec55 bd76 95bf f272 a4fc d77a c9bf
00000470: 9caa 8f75 9fe3 94bf 7aab 2e26 a041 c03f
00000480: 85db 48bf a2ba bbbf 87f7 ecdf 641d c0bf
00000490: e33d 8663 f894 c33f 63d6 253d a24b af3f
000004a0: 260e 461a 9542 c83f a918 fae3 533e c4bf
000004b0: 6008 fda0 4c3a c4bf 516f c6ed 104a b63f
000004c0: a2b4 f5d4 c97b c73f bc9f bda7 1a1f 90bf
000004d0: ecbf f1ba ecd8 c0bf ca10 400f 9591 a0bf
000004e0: 2502 2d2e eb82 b0bf 23ff 8c99 f26e b7bf
000004f0: 32b5 5416 bf94 c6bf 62b6 fb6f 58c9 813f
00000500: e34f 3e0d 72ef b1bf d425 e982 1864 c33f
00000510: 7a93 006c 2287 86bf a2ae eb44 2144 c63f
00000520: b5f7 5027 ff1a b0bf 44f0 cfc5 7e48 7bbf
00000530: ea1a e00a 673a 8dbf 8160 243c 160a 9f3f
00000540: 8180 0765 dac3 c1bf ecaa 953c 1226 c6bf
00000550: b4d6 bd1f 76b7 c43f 77e5 606e 13e6 b23f
00000560: 004d 6a82 60e4 993f 47f5 86c3 4680 b1bf
00000570: d5d2 7ca5 d018 9abf d008 9b2e 66c8 c1bf
00000580: 6964 0108 9c78 c83f bfeb 5cbb 8d1b a7bf
00000590: c32f 7d93 a061 a8bf 540d 40b2 55f3 cc3f
000005a0: 0f8f da9c ba93 b53f 2484 8f19 26f2 acbf
000005b0: 9b7a f30b 9f9b c23f b52e ee0d 4b77 bfbf
000005c0: d41e 7115 df86 bcbf cf1c 3820 d1df c1bf
000005d0: 7d5a a45e 773b bf3f 2e4b b237 848b b13f
000005e0: 085d f337 d3e7 b13f 12de ef1f cff9 c03f
000005f0: 488d 251f 7b7d c1bf 1976 3404 847f 9c3f
00000600: b7f6 8048 639b be3f 4495 f610 8acc b43f
00000610: ad32 df2a 0a12 b33f 9b70 1ecc 0cc1 c1bf
00000620: 3ad1 5acd ed52 b13f eb0a ac2f e907 a7bf
00000630: cff0 7a29 2cf8 c2bf 4c51 7b8e 12ad ad3f
00000640: fb0d fe9b 31b2 a03f 592e 562a d245 c03f
00000650: 3aad fe49 d238 ab3f 0374 3ac7 1619 b7bf
00000660: 8948 f53e bae2 b43f d055 cb1f 8fec 7f3f
00000670: 1acb 6d71 8f78 a8bf 31aa 0fec 7928 ba3f
00000680: 0326 9abf cbd7 abbf d0f7 6caa 3cf0 bdbf
00000690: e33a 96b3 7ecc ad3f d263 3800 3b5d a63f
000006a0: ceaf af4a 9ffd b6bf 8284 8dea 04ac c7bf
000006b0: 5241 92db e227 b93f d82d 16c9 6388 c8bf
000006c0: a39a 3fe9 25a2 a9bf 1d45 153d f623 b1bf
000006d0: f502 e844 f3f4 c3bf e843 2036 0128 c0bf
000006e0: 17b7 80ae 062f a83f 1190 181f 1818 b33f
000006f0: 3a8c e3bc 1c15 b0bf bbbc 19e0 68d8 c33f
00000700: 9150 7366 d9c9 bbbf e3ef 0c3c 7701 b1bf
00000710: aca9 85b7 93f6 b5bf 00cd 6e0b 04a8 b03f
00000720: 5a97 618d 4643 a03f 8f18 5c1b db0e c73f
00000730: fdcf a1ac bf16 a0bf 46fb 7149 dfbd a43f
00000740: d4d0 b863 47a9 9bbf 6fdd 1aa2 c71d c23f
00000750: bd8d 1ea5 7ec1 c2bf 772f f6d2 1d56 73bf
00000760: 15e3 bc00 0524 76bf d2a1 e465 6012 c4bf
00000770: a4fe 8899 8cf2 c13f 5f2c cb51 288d 943f
00000780: f9f2 a309 c4b6 aabf b515 60a6 0601 c3bf
00000790: 8403 e0a1 3022 94bf 6ac6 a644 6058 c6bf
000007a0: d254 d822 61c5 c1bf 26da c3a4 a102 c8bf
000007b0: db92 11e2 e7a8 a83f 0190 19a1 1429 c93f
000007c0: 3ef8 ae6e 0792 b9bf ee27 569d 22ee 763f
000007d0: e63f 8f41 fcb7 c4bf 2025 12bf 4f9f 753f
000007e0: 9a0b 34cc d4bf b6bf e3c4 0c5b 8cb8 91bf
000007f0: 4762 8a50 b181 b7bf d113 e44e 2359 9d3f

lstm.bias_ih_l0 f8 [120]
0.000649931044165371 0.0997931586036331 -0.11814690176746445 0.010604919867164277 0.042205201444453 -0.0729123135022671 -0.09598667450933675 -0.17977699715754794
-0.04062469600829529 -0.018159039454315466 0.07548532773250897 0.027317748287910233 -0.10301035549142827 -0.03605698197021268 0.11406410696536327 -0.03766028932758189
-0.19932598930508105 -0.09884086660352813 -0.1631403618813125 -0.16693731270359796 0.05829601314780534 0.009403785288725324 0.023462911489210224 0.17334762443055715
-0.19758127620852056 -0.14839955948926123 -0.02427231113764953 -0.11069479167652131 -0.0870815386808566 -0.0523697748286724 0.14775026183473708 0.11100785474576706
-0.17134883842921073 0.17439885300052957 -0.1601295676814528 -0.05763233188760222 -0.07330684203576927 0.03571948496905771 -0.06969922127502325 -0.13317085781994015
0.16787824187243558 0.1164758077539857 -0.07261128756786919 -0.09668082301597504 -0.015958255365535245 0.14503601674694078 0.07125153960745768 0.13369092669349822
0.11631121802153777 -0.18351590045290192 -0.034970065339212965 -0.06185937451495594 -0.1268015300216565 -0.14785996388699782 -0.18576445750942788 -0.00753156972076825
0.022742903426194425 -0.07633128858386865 -0.12545771277651316 -0.06656001196360799 -0.09003391368577267 -0.06249273866927879 -0.18905410056384572 0.2284175361272312
-0.10949037316492165 0.17054632506386938 0.06561608198471137 0.05543475259766272 -0.03343986673049817 -0.03747142492536214 0.07494606685672144 0.12591335742910478
-0.04585334362673812 -0.02052448017551844 -0.05378252186101375 -0.02677092822332253 -0.056415988053699184 0.013449505508053959 0.0360433640558211 -0.09140061076673474
-0.08191931298907296 -0.13525296727516714 -0.034614613220757325 -0.12114381343452425 -0.04944535139791462 0.12020966526062227 -0.1361279520105099 0.03953785638539964
-0.1477064557866135 0.18404536960056425 0.1543888108768529 -0.06246513798944908 -0.21092111750967063 0.10184986712462639 -0.12476627550245288 -0.15795104905533378
0.07221356608347339 0.01185702452532476 0.05722698313733486 0.14882527073004329 0.07415019303473543 -0.12303583739094054 -0.1849606037127167 0.07410019121791836
-0.09878979614371566 -0.11884672486963473 -0.137264499379986 -0.11856467522727852 0.06382698225888195 0.14969208156671518 0.04526238654319406 0.11560767283461629
-0.034271596961616704 -0.11949286737116123 -0.007774039837127169 -0.05072590672314304 -0.1759205663230922 0.12986518742035066 0.053181976067767284 0.17728788703836515
00000000: 75fd 274a 044c 453f 6d30 9160 0b8c b93f
00000010: 3809 3717 e03e bebf 81a3 0c40 08b8 853f
00000020: e89b d98f eb9b a53f aeca f7a1 61aa b2bf
00000030: e190 de2b 9592 b8bf 3db0 aec1 ee02 c7bf
00000040: cbf8 8799 c2cc a4bf 510d 5582 4898 92bf
00000050: 3360 f0a5 0153 b33f 62dc fc0d 2ff9 9b3f
00000060: 2b2a fcfb e25e babf 5184 b58c 0f76 a2bf
00000070: 674d 1029 4e33 bd3f 5c2b 0a9e 3548 a3bf
00000080: 1472 a796 8383 c9bf 2309 9291 a24d b9bf
00000090: 370b 788b c8e1 c4bf 5ea4 45ad 335e c5bf
000000a0: 35fd e99b f9d8 ad3f c37f 30b2 4a42 833f
000000b0: 8676 0f56 a906 983f 4f5f e244 4130 c63f
000000c0: 820b cfdf 574a c9bf b5a3 5fbb c1fe c2bf
000000d0: ca5e 233a d7da 98bf c193 166e 7e56 bcbf
000000e0: 333a b8c8 f94a b6bf ba45 600c 36d0 aabf
000000f0: f91e 4707 7be9 c23f ab70 bbc1 026b bc3f
00000100: 066a a13c c2ee c5bf 9770 0c9d b352 c63f
00000110: 2c40 282c 207f c4bf 4487 4c29 fc81 adbf
00000120: e5dd 1db9 3cc4 b2bf 4b4c 8b07 d349 a23f
00000130: 07d2 eee3 ced7 b1bf def6 8e1f be0b c1bf
00000140: d7aa 46c3 087d c53f f81b 14c9 5bd1 bd3f
00000150: baa8 6c41 a796 b2bf a104 010d 13c0 b8bf
00000160: f0b2 9563 5c57 90bf bcc9 554a 8a90 c23f
00000170: 8957 6778 8a3d b23f 37d3 f5c6 c81c c13f
00000180: 6078 8f6d 92c6 bd3f d1df 5ef3 727d c7bf
00000190: 2d1a f1ad 98e7 a1bf f149 fc2c 08ac afbf
000001a0: a84c 4354 083b c0bf 9325 a446 13ed c2bf
000001b0: ee8e e136 21c7 c7bf cd3e 365a 6cd9 7ebf
000001c0: 19f3 b969 ea49 973f ca16 2184 728a b3bf
000001d0: 9bfa b392 ff0e c0bf 8be5 9ab2 130a b1bf
000001e0: 13b0 cf6a 760c b7bf b8e0 a459 0cff afbf
000001f0: 3f57 8cbd ec32 c8bf eaea bf2b c93c cd3f
00000200: 5b5d f8a3 8f07 bcbf 4d18 4d44 76d4 c53f
00000210: 214b 372e 37cc b03f 2f08 f0a2 f161 ac3f
00000220: d3ec fabb 071f a1bf ce8a 2d61 742f a3bf
00000230: ef0a 1d5a aa2f b33f e3ce 24cc ed1d c03f
00000240: a303 94e6 167a a7bf 7f29 7c8c 5e04 95bf
00000250: 639a faf8 6189 abbf 6999 cf94 d669 9bbf
00000260: 4007 536f 8ee2 acbf 9f8a 6f12 6a8b 8b3f
00000270: e113 b79b 4674 a23f 65da 13ca 0766 b7bf
00000280: 40e8 3202 aaf8 b4bf 6520 911f f84f c1bf
00000290: 1162 7eaf 01b9 a1bf c562 d0ec 4703 bfbf
000002a0: 71f4 62ae e650 a9bf 681d f584 0fc6 be3f
000002b0: c971 fa06 a46c c1bf 402b 4250 4e3e a43f
000002c0: 4a7b 818e 0be8 c2bf 7313 b575 cc8e c73f
000002d0: 06ce ca36 03c3 c33f 3010 9c39 6efb afbf
000002e0: 0ab2 de92 76ff cabf 9ff7 6638 d512 ba3f
000002f0: 3740 edc0 aef0 bfbf e1e0 076f bd37 c4bf
00000300: 17f3 a798 967c b23f b65b 83e4 7e48 883f
00000310: de14 0cea da4c ad3f 014c 4ddb b40c c33f
00000320: cd86 13ce 81fb b23f 0c7f d4d1 467f bfbf
00000330: e74c ffff c9ac c7bf ba86 e8e9 3af8 b23f
00000340: d2a2 9dbf 494a b9bf 2d42 8d2c bd6c bebf
00000350: b592 de13 e291 c1bf b7e0 8f2a 415a bebf
00000360: 407e 6711 f756 b03f 634c 6631 1c29 c33f
00000370: 8444 e2ab a12c a73f c2c8 fde5 7698 bd3f
00000380: 1a80 43f8 0b8c a1bf 1de3 76a5 1597 bebf
00000390: 4f71 bbed abd7 7fbf 3127 dffc bef8 a9bf
000003a0: e596 86ab 9084 c6bf 17fe 6d26 6c9f c03f
000003b0: ec3a e5ff aa3a ab3f 9f42 6796 5eb1 c63f

lstm.bias_hh_l0 f8 [120]
-0.15522375503104502 -0.037169374393498204 -0.14746985379955352 -0.013476504011505285 0.03341387396795153 -0.19124446110053459 0.06024927369565742 -0.004375950285409613
-0.1111555054703654 0.06799412505164286 -0.09882387380605394 -0.011213376303917168 0.06105931941768665 -0.18002464025153922 -0.1702649646756053 -0.22031589202113966
-0.26063821774631946 -0.07368363104072687 0.11163904728883796 -0.12253594271467991 -0.0535279777932423 0.10683833581248331 -0.049093278703489125 0.03267134953488969
-0.11826550951635913 0.06859873450659634 -0.0146812681421966 0.091893289683342 -0.054343404415910485 -0.01616816366744043 -0.08986216444623739 -0.1858192976256396
0.15716777898812495 0.025952248391040024 -0.1603601482497664 -0.1806117493308778 -0.09498423922729356 -0.039393960551343435 0.006232335247822869 -0.09493395665588542
0.16945403966868497 -0.04713137236457528 -0.15625143084312987 -0.09479040210227876 0.04297735707457396 0.04079089049953551 -0.17339065847832696 -0.08042446944850763
-0.1840651078241806 0.05518085352582745 0.11512830318629227 -0.15852735715283806 -0.0075981115283852724 0.15423960674498316 -0.08434142492762173 0.02170525359962091
-0.010236480638479954 0.1194783439558802 0.09674478196397253 -0.08317388282275398 0.10289860265066852 0.18650997131550087 -0.05031888072761117 -0.0607668255690116
-0.05405733081749018 0.07436961135880621 0.09490257087535929 -0.08587691526189124 0.12685362296409708 -0.13423180221322634 0.04276911032233582 -0.009245986051958978
-0.14921211900401152 0.04387462811515388 0.11337514303404381 0.06389488903741962 -0.021478636111636785 -0.22286103612173722 -0.1567447302263293 0.08732197944131882
0.031927674496812976 0.017558150195097197 -0.041322177217072334 0.13330960720451338 0.10880101677186998 0.13153171654731952 0.009051163225295372 0.14647355119912794
-0.07008904149094013 -0.01187140973874902 -0.026702631827347927 0.000514828412604698 0.07439970091455417 -0.1321156638669279 -0.21192394218565005 -0.059564061011549395
0.10245520450548547 -0.12812149604686104 0.10834085685750419 0.06838457067587403 0.0718184295287998 -0.1763533022790359 -0.1694458127009064 -0.09521200277183539
-0.045577384442036586 -0.2252024962920211 0.027374809668666362 0.0034588178242499793 0.0017550926199809834 -0.124629169050789 -0.14849546040829056 -0.12850756058670945
0.11130501419961512 -0.07866949715288396 -0.17926405343652285 0.11420816219508514 -0.1501978689458877 -0.15202964542915207 -0.0049722492816590275 -0.12860052734456967
00000000: fcd7 b53b 5fde c3bf 1f9f dd3e dd07 a3bf
00000010: 9684 9bcb 4ae0 c2bf 195c f3bf 9199 8bbf
00000020: e79b d98f 9f1b a13f 77e5 fbd0 b27a c8bf
00000030: 39de 4228 fed8 ae3f 8c0a d635 84ec 71bf
00000040: 4cfc c3ec af74 bcbf 9bbc 6a1f 1068 b13f
00000050: d79f 0f7a 854c b9bf 4147 06e4 09f7 86bf
00000060: b6ab 07c8 2a43 af3f 1d61 2d23 0c0b c7bf
00000070: 56d9 770b 3ecb c5bf d88a 82a7 4f33 ccbf
00000080: 0ab9 53eb 4bae d0bf 2a09 9231 eedc b2bf
00000090: 7de9 0f69 6094 bc3f ce48 8bfa 835e bfbf
000000a0: c702 16e4 0468 abbf fc0f 46d6 c159 bb3f
000000b0: b144 f814 c122 a9bf 8e7d 8993 4cba a03f
000000c0: 0d17 9eff a546 bebf aeb8 40c9 af8f b13f
000000d0: 79bd 4674 3611 8ebf 416c e991 5186 b73f
000000e0: 5474 7011 e6d2 abbf 7a8b c018 638e 90bf
000000f0: cfc1 71f1 3401 b7bf ae47 223f edc8 c7bf
00000100: 0096 5ee3 121e c43f 9a84 63e8 3993 9a3f
00000110: 2c40 286c ae86 c4bf d621 532a 491e c7bf
00000120: d5dd 1d19 e350 b8bf cab3 74f8 712b a4bf
00000130: 15df 12c1 1387 793f c6ed 1d7f 974d b8bf
00000140: d7aa 4683 abb0 c53f 2ac8 d76d 9a21 a8bf
00000150: 5454 b600 0c00 c4bf a204 010d 2f44 b8bf
00000160: 8126 35ce 2001 a63f 5b27 5729 8be2 a43f
00000170: 3254 cc43 aa31 c6bf 8d59 14b2 b296 b4bf
00000180: cf43 3809 728f c7bf ce80 8432 aa40 ac3f
00000190: f672 0769 0c79 bd3f 7812 3fdb 9f4a c4bf
000001a0: 6293 6988 321f 7fbf 70da 5b99 1fbe c33f
000001b0: de1d c34d 6697 b5bf b670 72e9 e639 963f
000001c0: cf19 8c2c ddf6 84bf 20e9 defb 2196 be3f
000001d0: a90a 981a 44c4 b83f 82e5 9a32 e24a b5bf
000001e0: f84f 3015 9057 ba3f ddc7 9609 8fdf c73f
000001f0: 435d 3176 65c3 a9bf 1254 0051 d41c afbf
00000200: 8dba f007 67ad abbf 8430 9a08 e309 b33f
00000210: 234b 37ee 884b b83f d1fb 878e 07fc b5bf
00000220: c844 0151 bd3c c03f a262 4bf8 812e c1bf
00000230: e715 3a34 d5e5 a53f a111 b33d 8fef 82bf
00000240: e300 a5f9 6119 c3bf 43eb c139 bc76 a63f
00000250: c6b2 8243 2706 bd3f a319 cc5a 6a5b b03f
00000260: 7a0e a6de 7efe 95bf 5307 d9de b586 ccbf
00000270: 0c3b 1219 3610 c4bf 9925 ecb5 bb5a b63f
00000280: ad2f 9afb d258 a03f bcfc 7683 c3fa 913f
00000290: 1262 7e2f 2e28 a5bf 8dce 9709 4a10 c13f
000002a0: cc85 ce28 62da bb3f af8e 7a02 08d6 c03f
000002b0: e3e2 5890 6a89 823f cf8a 1034 a5bf c23f
000002c0: 93f6 02fd 5af1 b1bf 48c8 aea4 0950 88bf
000002d0: eb8f a949 ef57 9bbf 18f2 fb98 b1de 403f
000002e0: e89b 42da db0b b33f 3284 cc83 2ae9 c0bf
000002f0: 21a0 76e0 5220 cbbf eb83 1f3c 2e7f aebf
00000300: 05f3 a718 813a ba3f 4fca b701 4966 c0bf
00000310: 820a 06f5 39bc bb3f da97 9ab6 a681 b13f
00000320: d086 134e b162 b23f 743f eab8 be92 c6bf
00000330: e74c ff7f 66b0 c5bf 4879 1756 d05f b8bf
00000340: ba45 3b3f eb55 a7bf 1ea1 4676 6fd3 ccbf
00000350: 056a 0b61 2408 9c3f 46e5 03ae aa55 6c3f
00000360: 428c df59 64c1 5c3f 3e67 337d b2e7 bfbf
00000370: dd6e 0735 e601 c3bf a11b 018d ef72 c0bf
00000380: e73f de43 7c7e bc3f 08e3 7625 af23 b4bf
00000390: 88db 6ddf 1ff2 c6bf 6a6c 9001 bf3c bd3f
000003a0: f496 860b af39 c3bf ef01 9219 b575 c3bf
000003b0: d028 d600 c85d 74bf 6abd 9869 fb75 c0bf

lstm.weight_ih_l1 f8 [120, 30]
0.031092538723942093 -0.08457068512240698 0.17457694555108338 -0.17774623102175713 -0.02007486404822524 0.15582820663730165 -0.18607227501234014 0.131660388022774
0.030390400772353745 -0.10590999234423767 0.01792948011097303 0.02439222249590951 0.19377573206226192 -0.05031375644596315 -0.11553278162234099 0.13905835893337376
-0.03548983372853711 -0.13356446297347008 -0.0966488631832644 -0.09542816408396695 0.2057840955042697 0.06429659212059519 -0.11918396882110588 -0.09929899850537584
0.1876302279994529 0.07882325344232445 -0.06670345688020003 -0.28167474963140027 -0.04069221807793684 0.008941750080013414 -0.1081708971656589 0.14453379494943783
-0.00482107619246118 0.046507235403830824 0.0195586304843998 0.030865897859195527 0.1262948719953647 0.03325882036308774 0.13594835235547953 -0.00799969628280781
-0.11665745423766025 0.14491664802602655 0.11418415017384657 0.1653532743113868 -0.16667905575749903 -0.06966605587999017 -0.049686744408387495 0.13364768584164544
-0.046874371305963156 0.05746492389660608 0.22641284425184927 0.11103725704738747 0.04698431800414821 -0.12323339249750598 -0.11190401310162813 0.11922929241109821
0.026917110170090665 -0.02489349009453074 -0.15690111756774303 -0.2016845169562534 -0.1359776835212657 0.07067599946676661 -0.1423777710257745 0.09358671358746465
-0.059890963559086435 0.07012050621380936 0.018240430892683217 -0.15133293036393933 -0.07963833085016561 -0.15616155049399125 0.0737689991526391 -0.044940355379708
-0.17196416149457805 -0.03628824316113507 0.08712152677108452 -0.12764522545866797 0.016851568448046115 0.12426811207990278 0.010584673656130117 0.10392047625019604
0.1993233683070363 0.15481969504702675 0.03610122049134508 -0.1446280034054176 0.09924139673110975 -0.13273932851531442 -0.13739044058111582 0.04782797597005283
0.1497036793750952 -0.13577206788304924 -0.07277361006560691 -0.008447460849326734 0.17339652346441947 -0.005850021019543716 0.08412249377888224 0.07968096513079881
-0.0411024093623796 -0.018466371476588563 0.17923483930936784 -0.1512358932045049 -0.14282118446570885 0.05924034680653814 0.11760199747216588 -0.11404376972396715
0.0130049621683592 -0.07718900728786365 0.0009025085217251227 -0.10265637681897438 -0.03462474285761959 0.019789342346601974 -0.1358802824315178 -0.062356138462781104
-0.08496926315747033 -0.2008614979635268 -0.0862773905476744 -0.12793603652002278 0.18005796968030383 -0.18927333497713963 0.08133605942298476 -0.17762467664206988
0.05562439905379636 -0.16486768776635385 0.1006076231030462 0.1066982767214421 -0.09665410373157816 0.1826505579829882 -0.10358643013768792 -0.07749923517645908
0.046335904597516894 0.15545353210562962 -0.1416876056670799 0.12596688435071496 0.06937744912139336 -0.11857850372928155 0.14315384206579312 0.024620634790904053
-0.09225786541139759 0.13681889791892532 -0.054479429288326386 -0.20769397453318822 0.06940035813917182 -0.029878932582577337 0.014080384360346221 -0.017465168201353524
-0.03305014257174176 0.059527982355754176 0.20440333635720712 0.09033245156016403 -0.017226273973296905 -0.034595709483991904 -0.12048228556371696 -0.033320034309287413
0.14500719058460793 0.009270282870098791 -0.11025320021605649 -0.14065289442762804 -0.05125621302961179 -0.0006516014080761855 0.005633520245116108 -0.1538231750095795
-0.08706390286423996 -0.006454212806917029 0.08143263703983923 0.11086753608341407 -0.09600725449999592 0.016432842438242348 0.017137983743474458 0.0878887000386649
-0.03903727620129539 0.09037896204574813 0.02035967012354369 0.029161065183531617 -0.0299002693362162 0.10384897112521707 0.1873760367297812 -0.231810004505871
-0.0016447568874858078 -0.015236369756372945 -0.13237820091473687 0.028049162420484983 -0.06958699353497512 0.09255235309993536 0.14128600693939608 -0.1856113536426787
-0.06421489118495839 -0.10648266946393198 -0.11263484476547703 0.08626915213824983 0.04095277428131426 -0.09922281633924787 0.0750080398993948 0.20198586714673175
0.15190862233979432 -0.032231468374354956 0.019978049644550026 -0.15424509277620774 -0.17691401910362567 -0.10629262280824638 0.013821947213368544 -0.04615774041145443
-0.10766727281607397 0.16725032018462652 -0.09207825933804303 -0.1517402044567111 -0.007355107265359249 -0.1550924882713053 0.15019196448863734 0.07253306761908414
0.0696714767786776 -0.157417413997566 -0.1695312168110729 0.1399014631164956 0.19977775408054724 -0.19501202217401048 -0.04069911157131914 -0.057581873313128064
-0.13074705443316054 -0.08855558833198762 0.07908249775803086 -0.09238155355481659 -0.16132511773881525 -0.06913446494094241 0.13141327233556457 -0.18444435295231218
-0.024061571252480138 -0.09131877942284833 0.09362525093801337 0.08133769920125199 -0.17897941327930647 0.12345117381084861 -0.09591116720640086 0.1802602633407178
0.017184042591912262 0.013434975027025564 0.0536630368513215 0.10225603903044259 0.09943641767079467 -0.09711328409938018 0.16177456377371813 0.10371702338159439
-0.17093352312858098 -0.09374134061326461 -0.13019828814657383 -0.25535268539604417 0.009933123097529556 0.12297281364165231 -0.015584208857012411 0.11332171697371246
0.17073523509784766 -0.0526302421213816 0.0206293355218663 0.10243659719184521 -0.12279596506305399 0.1345354367593488 -0.06021907517347731 -0.17052037086705948
00000000: 1533 e0f3 b8d6 9f3f ba11 cda6 6ca6 b5bf
00000010: 5484 e38f 8958 c63f fce3 9c74 63c0 c6bf
00000020: 242f 3c52 818e 94bf e398 a6bd 2df2 c33f
00000030: 9c66 ef5f 37d1 c7bf 1f45 5e62 3fda c03f
00000040: 17e7 b745 a91e 9f3f 0e28 70d1 ea1c bbbf
00000050: 37f9 d70a 1b5c 923f 1335 9657 46fa 983f
00000060: bfa1 fba7 a4cd c83f 31da f284 b9c2 a9bf
00000070: bc11 af6e 8e93 bdbf b658 ed0f aacc c13f
00000080: 13ba 6836 b92b a2bf 627e 30ec a318 c1bf
00000090: ba54 91da fabd b8bf 42a3 dbeb fa6d b8bf
000000a0: dd27 1d1c 2257 ca3f 14f7 66d0 bd75 b03f
000000b0: 544c 4b30 d782 bebf 212c 1bbf a86b b9bf
000000c0: 8ad4 7f6e 4404 c83f 69f8 b2bf c22d b43f
000000d0: 8da2 d44d 7a13 b1bf 90a7 7187 f506 d2bf
000000e0: 6a60 b143 9cd5 a4bf 4222 4d61 0d50 823f
000000f0: 9b9a b481 16b1 bbbf dfbf 3c59 1580 c23f
00000100: f114 40c9 43bf 73bf 8e74 2cde cbcf a73f
00000110: 0ae3 2379 2d07 943f 31ba 7757 4f9b 9f3f
00000120: 48b1 6f2c 6e2a c03f 07a8 86d3 4c07 a13f
00000130: 54eb a76f c166 c13f 33fd 4c0f 2562 80bf
00000140: d60d c94e 43dd bdbf 1478 f5f3 a08c c23f
00000150: 83dd b726 2c3b bd3f 281a bacc 4b2a c53f
00000160: 160c b442 bd55 c5bf 7e57 a577 a2d5 b1bf
00000170: 60b6 8e7c 8a70 a9bf 1c1f f00b 5e1b c13f
00000180: 3e31 8fe7 eaff a7bf a229 9be1 0a6c ad3f
00000190: 545f ba98 18fb cc3f 83f4 a70b f06c bc3f
000001a0: 585f 811a 540e a83f a04a 8d3e 398c bfbf
000001b0: b909 90cc bda5 bcbf dd81 a197 cf85 be3f
000001c0: ba91 88af 2890 9b3f f273 5bd7 ad7d 99bf
000001d0: 2f64 54f8 5515 c4bf aae4 375a ccd0 c9bf
000001e0: 9cd6 da7b b767 c1bf 7866 5282 d217 b23f
000001f0: 7fd5 1d4f 6f39 c2bf 72c2 3282 4cf5 b73f
00000200: 34d9 9f43 07aa aebf 669f f7e0 6af3 b13f
00000210: 5b99 9898 9ead 923f 9348 5ca1 e05e c3bf
00000220: e26d 827a 2d63 b4bf 0fd6 2108 1afd c3bf
00000230: 7eb9 d16e 86e2 b23f d4bf 4019 6c02 a7bf
00000240: ec04 daf0 eb02 c6bf 3b76 3663 5f94 a2bf
00000250: cf67 42ac 984d b63f 80f2 6ac2 ad56 c0bf
00000260: 398f 7b9d 8941 913f d39f 51f5 08d0 bf3f
00000270: f308 89d9 6aad 853f 361c e146 889a ba3f
00000280: 4788 1a9a 6d83 c93f 5c78 80bb 21d1 c33f
00000290: 3a47 b6f2 db7b a23f 4c24 5ba0 2b83 c2bf
000002a0: 1796 5e59 e267 b93f 1fe2 6e31 9afd c0bf
000002b0: 2c1a 8a8c 0296 c1bf df20 4091 e87c a83f
000002c0: 38e2 807b 7d29 c33f 724d a2a7 fa60 c1bf
000002d0: 115f 3e93 4aa1 b2bf 5e23 a800 e74c 81bf
000002e0: 1888 c276 db31 c63f a68e 5b0f 31f6 77bf
000002f0: 2f65 a33f 0d89 b53f 30ba 59c3 f865 b43f
00000300: 4b17 ffff 5f0b a5bf 5a5c 4536 d9e8 92bf
00000310: 3e9b 91ce 2af1 c63f a3b8 a59f b25b c3bf
00000320: da64 3aee f647 c2bf 048b 4630 c054 ae3f
00000330: 8454 161d 2a1b be3f 12e9 46f5 f831 bdbf
00000340: f22e 9779 58a2 8a3f 147e e9a5 a8c2 b3bf
00000350: aedf e64a ca92 4d3f 24d1 2935 b047 babf
00000360: db69 6994 55ba a1bf f583 c048 a843 943f
00000370: 6b78 9b6c 8664 c1bf 8113 cece 24ed afbf
00000380: 9032 6dae 8bc0 b5bf 98b3 635e d4b5 c9bf
00000390: d356 c96a 4616 b6bf 86ab 6a42 3560 c0bf
000003a0: c39d 94b9 230c c73f 49a7 ddcf 1b3a c8bf
000003b0: 2b0d 35a3 70d2 b43f 36f4 91c8 67bc c6bf
000003c0: 2267 971d cd7a ac3f 14d3 8f67 621a c5bf
000003d0: 63b4 f4d2 6bc1 b93f 0be3 0e09 9450 bb3f
000003e0: 4b23 8dc6 52be b8bf f708 91ee 1761 c73f
000003f0: b431 c0e9 a384 babf 7943 8c68 fdd6 b3bf
00000400: 7efa c0f5 56b9 a73f a87e 38be e6e5 c33f
00000410: f758 4bc8 d122 c2bf b229 55d0 ae1f c03f
00000420: eb68 0e73 b8c2 b13f f69f 862b 295b bebf
00000430: 0613 fc76 dd52 c23f 244d efd4 2636 993f
00000440: f99f bd22 369e b7bf 90ad 041a 4883 c13f
00000450: 003b 324e bae4 abbf 5e20 1956 b795 cabf
00000460: 93d6 89cc 38c4 b13f de50 2039 9598 9ebf
00000470: 4d0c be32 2dd6 8c3f b1ce f998 63e2 91bf
00000480: bf91 f2c2 f2eb a0bf 7f64 d4a2 737a ae3f
00000490: a17a 6c76 e329 ca3f a2e9 370d 0720 b73f
000004a0: 8194 63ad c3a3 91bf 7c9e a161 87b6 a1bf
000004b0: d655 3e54 edd7 bebf dee9 51d3 520f a1bf
000004c0: 1674 9f7a 988f c23f 0192 034e 4cfc 823f
000004d0: cb11 35c1 8d39 bcbf 7bc3 d3fe e900 c2bf
000004e0: cda4 5b1d 413e aabf ff6f 6d5e 075a 45bf
000004f0: 0d11 6d93 2c13 773f 473a 0451 7ab0 c3bf
00000500: c2ca 76e7 d149 b6bf 6a89 d58e bb6f 7abf
00000510: 0dc4 e9f0 c4d8 b43f ca96 aa99 d061 bc3f
00000520: 6098 4172 ee93 b8bf 9408 6963 c5d3 903f
00000530: 4c58 ca9e 9e8c 913f 09a1 5ab4 df7f b63f
00000540: 220e 38a1 b1fc a3bf 38a0 3b5e 1323 b73f
00000550: 6514 5a55 2ad9 943f ef81 1ef5 65dc 9d3f
00000560: 3037 c31b 2d9e 9ebf 10c0 b49e d895 ba3f
00000570: 187d e71e f0fb c73f 8d81 1e42 f3ab cdbf
00000580: 90f0 a942 9cf2 5abf 25d0 81ee 3e34 8fbf
00000590: 0de9 d0d5 c4f1 c0bf accd 1a6d ebb8 9c3f
000005a0: b1ad 7505 74d0 b1bf b768 bbd1 82b1 b73f
000005b0: 0cf4 97ed a815 c23f 29af d4e2 1cc2 c7bf
000005c0: 793b 8e19 6370 b0bf bc38 f0be 7242 bbbf
000005d0: 0063 a81e a3d5 bcbf e961 1633 bc15 b63f
000005e0: 5efb 6f14 c3f7 a43f 7eaf 319f aa66 b9bf
000005f0: 1b12 4e16 ba33 b33f fd1f d342 acda c93f
00000600: b904 77e2 bd71 c33f 9dcb 239d a480 a0bf
00000610: 31e0 7137 2075 943f 066a 859e 4dbe c3bf
00000620: cb82 205b 1ea5 c6bf b179 c44a fe35 bbbf
00000630: 9fd6 fc59 ae4e 8c3f 4885 0cc3 fca1 a7bf
00000640: 4434 9817 1590 bbbf c120 b85f 7568 c53f
00000650: 688d 87d8 7092 b7bf 78a1 d017 396c c3bf
00000660: f1d5 9c92 6320 7ebf ad81 7d16 12da c3bf
00000670: 6fe3 cc83 7d39 c33f 2572 4df1 8691 b23f
00000680: 4a7b 3a6a fdd5 b13f 4b60 78fa 4026 c4bf
00000690: f564 edeb 32b3 c5bf 26bb 5f88 4ae8 c13f
000006a0: 9944 1f44 5192 c93f c437 c868 27f6 c8bf
000006b0: e4a2 5992 83d6 a4bf 55d1 710d 5f7b adbf
000006c0: 5e5c 6bc9 51bc c0bf a890 c33b 94ab b6bf
000006d0: 3e86 8e25 c03e b43f 3888 4547 51a6 b7bf
000006e0: 6e14 5b2c 4da6 c4bf 6ea3 f2d9 cbb2 b1bf
000006f0: 1186 786d 26d2 c03f 0b58 ee5f df9b c7bf
00000700: 8ca6 7ab6 98a3 98bf c4bb 21e3 aa60 b7bf
00000710: a3ca db0e d3f7 b73f bf52 0026 8cd2 b43f
00000720: d58f 5823 cce8 c6bf c29f 2b02 7f9a bf3f
00000730: 8401 795e a28d b8bf a18a e8af c412 c73f
00000740: b305 c893 b198 913f 20c2 e8d2 cb83 8b3f
00000750: 9699 8fb8 b879 ab3f c249 74a7 732d ba3f
00000760: fe6d ed41 aa74 b93f 5bc8 368b 6adc b8bf
00000770: eccb 5d66 07b5 c43f d860 76e7 328d ba3f
00000780: db4b d051 26e1 c5bf 5498 37b8 6eff b7bf
00000790: 13d8 ca66 56aa c0bf c031 2eca b257 d0bf
000007a0: b0e9 ce36 d157 843f ed53 e374 257b bf3f
000007b0: 8acc ff1a 9dea 8fbf 4423 54ec a602 bd3f
000007c0: 8693 82f5 a6da c53f 2540 62e1 59f2 aabf
000007d0: 8056 9e45 db1f 953f 7b3d daea 4839 ba3f
000007e0: a6cd 066e 8e6f bfbf d169 840a 7538 c13f
000007f0: 8a4f eedc 08d5 aebf ff80 168c 9cd3 c5bf
