models/model_d59.pt (torch_old, 373299 bytes, 22 tensors)

lstm.weight_ih_l0 f8 [120, 106]
00000000: d0c1 c1d9 5927 a53f 9823 af09 d63c b23f
00000010: 50c1 001e 3461 b0bf cbaf 026c 038d c23f
00000020: 91ff dacf e050 a9bf 3536 0dae 967b b33f
00000030: ffb4 c887 111d aa3f 0215 6615 5cba babf
00000040: 188b 59c7 795d b13f 230d 6e64 5981 c43f
00000050: cc64 72c9 c07b abbf e430 0fd9 da45 a5bf
00000060: e08f 6221 89b5 95bf 769c aafd cf71 be3f
00000070: 8d66 0de3 d9be b2bf 4758 7ae8 0b43 913f
00000080: 266c 98d4 13b8 b9bf f283 8e54 b573 c13f
00000090: 7551 d8a5 bee0 b9bf 9f8b decf 8541 b73f
000000a0: 716c 0ffa 73f7 b9bf 5376 0e5b 9f00 c5bf
000000b0: f82b 4084 6bad b93f 3e4b 6a22 1b67 c3bf
000000c0: 2d01 6571 f550 b2bf 4701 81cc 7076 aa3f
000000d0: dd6e 08f2 6512 b9bf 6054 746d 58b3 bf3f
000000e0: 7750 2429 4ff2 c2bf 2a40 ea1e a9f4 a4bf
000000f0: b497 84a3 efba bfbf 2bbb e832 f85b b5bf
00000100: 5793 2c84 5463 89bf 38e6 0cfb 58a9 bbbf
00000110: 0220 3dad 315a ab3f ada2 4682 d591 a1bf
00000120: b198 2c2e de01 c03f d216 1ff7 1145 bbbf
00000130: 8544 b42e 2fa0 a2bf 662b f46b e5fe 8e3f
00000140: b0a2 588c 199f c5bf 7f2d 46a4 6716 c1bf
00000150: fed6 2c16 362b b5bf e12b 557a e3bd bdbf
00000160: 282b 9457 b023 ab3f b3be 8838 ebef c23f
00000170: f3e7 d1b9 4e33 b6bf d98b e7cf fa37 afbf
00000180: 7d7e 18da 1e37 a3bf 7ff6 e358 acaf 923f
00000190: f6d1 72dd 780d 94bf 85c6 3de4 781a ad3f
000001a0: d97f afd8 da58 a8bf f525 6aa1 3012 a3bf
000001b0: 5953 fa69 9ec0 b43f 3615 363c 550a c53f
000001c0: 0840 2a3c 743c 7dbf 6944 1d15 4d04 c7bf
000001d0: 249d f188 9b19 9e3f c971 d0a7 f838 bd3f
000001e0: 94cd d5a0 2769 c6bf 7c7a 253a bddb 903f
000001f0: fcd9 3363 9a0b 8fbf 0e28 54a5 72d2 bb3f
00000200: 5fe9 b191 92d9 ba3f 74b7 589a bcc3 b4bf
00000210: b382 d933 d03f c5bf 8dd7 05fe 6fd3 c53f
00000220: 9928 a953 0b4d 87bf d229 4540 4ec3 b9bf
00000230: c1fc 6517 f29f b83f fcda b9eb 47bf a0bf
00000240: a82b 4a6e a1b1 91bf c25a 7c18 1d3d a2bf
00000250: b481 2fca 0d07 993f 8815 1ed3 ff71 c03f
00000260: 1425 e966 c9ce c33f a57b 01ba 9320 b73f
00000270: 1507 3b0f addd bebf 22ae 37cb 2b77 7bbf
00000280: 0d98 c55a 1e35 b93f 1c11 843c 9228 673f
00000290: 73da fdbf ab63 b53f 6c07 c705 c961 8a3f
000002a0: f396 8b23 7f57 b0bf 7823 60b4 0707 c5bf
000002b0: 1c10 a693 be93 c33f 2e10 cdfc 02be a03f
000002c0: ce3a 412b effe b1bf 32ec d577 924a a8bf
000002d0: b2cc 58e8 c91d b7bf d0f1 97c7 feec adbf
000002e0: 6219 8eab ff8a c83f 177a 87d9 613d bbbf
000002f0: ad09 ab99 7a08 c0bf 7d1c 2518 9a0d b23f
00000300: 44f8 6bc8 519f c8bf 4353 7e58 8720 b63f
00000310: 2875 dcb2 d051 a13f 17ca f9b5 65f4 b5bf
00000320: 7701 2fbe 3294 bcbf 5a17 4453 40ca bebf
00000330: 1166 eb89 02ab a83f ec74 cb25 adc2 babf
00000340: c717 6b7f fefb c5bf 80de a67d fc62 94bf
00000350: 9a21 a4fe 558c b13f 29df 2df5 193e c4bf
00000360: 39f2 bd46 f4a0 933f 9ae3 f039 146c bd3f
00000370: 42f1 5ab6 65bc 913f 72bf 5cb2 6be6 c8bf
00000380: 7c70 666b bb03 b4bf 8842 68a2 e001 c5bf
00000390: 0e64 3e50 9bdc c43f 49f2 eab7 f658 9bbf
000003a0: dce8 bc3c 889f 9ebf 3f30 486b b211 b6bf
000003b0: 8095 c6bd ab29 c23f a3c3 3fdb fb7f b83f
000003c0: c46e 955e 3912 c13f 78b7 4eb7 f7da b6bf
000003d0: d97c fd82 dea6 b1bf 00b8 2fe3 aff6 b73f
000003e0: fbda 7052 3dad c73f 872a ce2e ff76 a8bf
000003f0: ee1f 8dd8 81d9 bc3f db2b 077b 8cac c33f
00000400: e967 0773 0c56 b73f dbb3 7b26 ccc7 823f
00000410: 9675 0945 ceb8 c8bf f24a bb41 b284 c93f
00000420: 3e76 27bc 3ff9 bebf d9d0 7d5d c6cb c73f
00000430: 7b94 1350 748c c6bf a579 f9bb 3747 c23f
00000440: 1e78 1c51 ee4e 91bf 365a 6dd9 3c01 8ebf
00000450: 755e 6f9e 8463 a1bf 031e faed b32d c23f
00000460: 23a1 0e50 da8e b33f 5c8d 4ef5 7eb3 aebf
00000470: 77c2 cd78 05e6 af3f ceb7 8fbe db30 b1bf
00000480: 2050 0de6 f5f1 75bf 3fbc 9ac2 ba6a b7bf
00000490: 7756 23b5 34ae c63f c29f 6d70 75d7 83bf
000004a0: 405d ef12 27b7 b7bf 28b8 fe98 92dd b5bf
000004b0: b97a efa0 d428 b8bf 96d6 4779 5af6 c1bf
000004c0: 0371 e46e 5829 bfbf b9cf f2c8 d85a c93f
000004d0: f857 eb2c 3faf a1bf 4aee a7b8 0de5 a8bf
000004e0: a04e 8f63 0be1 773f e981 4caf 1c74 c3bf
000004f0: 5256 088e a5a1 a03f 4547 8ea3 7ee2 c23f
00000500: 8a64 7e01 43c9 c3bf a12d 2e5e a143 7ebf
00000510: a0ed 7a8b 8405 b43f 9bb3 4734 db2d acbf
00000520: 6036 3dbe 3d55 b03f ea4c e966 5835 9dbf
00000530: 6ca2 c3d5 54e8 bc3f 33ca bd52 7eb5 a13f
00000540: 6fd8 678e 39fc af3f 1bfb 20f3 02b8 c13f
00000550: 16ef 778f 561a 60bf 12df e87d fd90 bcbf
00000560: ea70 4412 09dc a4bf 0e51 2099 5e48 c0bf
00000570: be19 6514 a439 67bf d7ff 0e12 bba3 b33f
00000580: afb0 78d9 2e5d b63f 5b38 5435 9015 c13f
00000590: 2042 a9b5 fcd0 c53f 3de7 88b3 c20f b83f
000005a0: cafe 2319 d620 973f f063 e8ea d7b2 c3bf
000005b0: 4196 ba90 8b9f cabf d629 8398 0636 50bf
000005c0: 30fb 0dee 3028 b73f 9969 9bd1 6af5 86bf
000005d0: 3092 be38 87b3 c53f 0cca bd40 0e44 833f
000005e0: 046e be2b 5e1f a93f 6f4a 8961 8c38 bb3f
000005f0: 35a9 86b2 0f0e c0bf 7306 a789 e7de c33f
00000600: ac08 fda4 a857 9cbf ac14 c191 d00b 92bf
00000610: e965 2f12 c14b b3bf 4b3e 1d6d fadd abbf
00000620: 0e95 3880 3c58 933f 6445 6719 947b c2bf
00000630: c57f 470e 715a b53f b2ff e773 7265 c3bf
00000640: 0cac b714 86f5 babf df82 30b4 d063 b3bf
00000650: 9441 1f1e f273 683f 5a79 f0b9 190e 91bf
00000660: efe9 9f61 a9f0 c5bf 3a4a af04 9a9f c6bf
00000670: ca80 612a c442 c1bf 3142 a5db 7550 9cbf
00000680: c4fc 8c32 bf4e a1bf 1120 f5e1 8dd3 87bf
00000690: 4d80 667b 63eb 893f 30ce 0a0e 4471 babf
000006a0: 0381 d55b 0d77 9fbf 83b3 8063 0cd1 bd3f
000006b0: c955 f3ec 37ef c43f 461f be1c 982a acbf
000006c0: df20 e851 7eb7 c03f 8284 986e 470c c03f
000006d0: 85ec 17c9 0263 c4bf a4d0 ebb3 dcc6 a7bf
000006e0: 7bc6 885a 9a38 ba3f 569a 755b 4ade ab3f
000006f0: 6f9f ca8c c8cc c7bf 17af dc26 ec6a b1bf
00000700: 7adc 4b68 8700 c3bf 7433 f4b0 42d7 ba3f
00000710: 3de7 6cf1 5283 c0bf 2ee6 bd46 b75c b4bf
00000720: 9685 d622 e923 c6bf 3b22 f9be 37b4 bc3f
00000730: e212 ec5a 58ca c13f ac82 7be4 026c a4bf
00000740: 7dd6 e4ff ee2a ba3f 5701 a863 c0c5 c03f
00000750: 6ce4 7e46 0907 b63f 06dc cbd1 dcdd c33f
00000760: 29e6 7346 7bc1 bb3f c11f daaa 2210 b7bf
00000770: 4618 d4fb 4975 bbbf 1395 0456 45ea 9abf
00000780: 58ef 76f2 4c2f c73f a5a0 bd57 02d0 b1bf
00000790: e3a1 be36 4cf9 b03f 5e99 a48f e7b8 9b3f
000007a0: cc8d 942c 5efd c73f 2298 37da cedc ba3f
000007b0: d89d 21d4 a548 b5bf 1b1a f5ee b157 b13f
000007c0: 4833 cbeb 27cc c53f 7b3e f28e 5a28 c3bf
000007d0: d605 9a4c 70e3 bc3f f70b e63d 8632 bc3f
000007e0: eb93 6a1f bcfd a83f 92cc 0af5 4932 923f
000007f0: d0c7 34bb d125 bf3f 8a5c 1241 dd5a 823f
0.04131584914364661 0.07124078499249575 -0.06398320896619691 0.14492838643979974 -0.04944517648027536 0.07610456227595182 0.05100302488822627 -0.10440612337523095
0.0678325759595676 0.16019742397120593 -0.053678536024742124 -0.04154857539796966 -0.0212003161074249 0.11892414038685381 -0.07322465699453513 0.016857324661565334
-0.1004650491744746 0.13634363774056585 -0.10108558224630378 0.09084354710516472 -0.10143208365427527 -0.16408149667852232 0.1003024289968123 -0.15158404522352414
-0.07154783266469585 0.05168488022218525 -0.0979369846249329 0.12383034393526904 -0.14801969059829265 -0.040929112457093034 -0.12394616834771349 -0.0834345936097917
-0.012396488460191852 -0.10805278901252613 0.05342250098925662 -0.03431575026781295 0.12505700354194496 -0.10652267726171807 -0.036378359271233264 0.01513461337755979
-0.16891784050792102 -0.13349624177167738 -0.0826906017435611 -0.11617871986997798 0.05300665921284625 0.14794674168068908 -0.0867203906690575 -0.06097396648308235
-0.037529911158569164 0.018248265195316634 -0.01958264209379653 0.05684259210728463 -0.04755290885054792 -0.03724815340417457 0.08106412970876188 0.1643778366089152
-0.007137731593175552 -0.17981875925991922 0.02939456008280418 0.11415056321170093 -0.1750840697601289 0.01646323840520346 -0.015158849861546912 0.10867992912622546
0.1048823934269527 -0.08111170547701169 -0.1660099270984766 0.17051505950410864 -0.011377418985962161 -0.10063637799354488 0.09619057723283488 -0.03270935776247616
-0.01727916942267496 -0.03562251018427311 0.024440970864704162 0.12847898300621474 0.154748130082489 0.09034083644063047 -0.12057000753250365 -0.006705447263339022
0.09846677509412434 0.0028269630603309347 0.08355210721297528 0.012881823052228923 -0.06383509271435255 -0.16427704150580857 0.1529463025036656 0.032699673995495324
-0.07029623800302007 -0.047443940285085154 -0.09029828951388444 -0.05844875513500691 0.19174190403664243 -0.10640536843082092 -0.1252587557156181 0.07052004899479587
-0.19236204420298197 0.08643384848103346 0.033827325662267704 -0.08576045696990096 -0.11163632529406252 -0.12027360947476265 0.04817970212543455 -0.10453302548144777
-0.1717527506027052 -0.019908852738551364 0.0685476061518159 -0.15814518424644433 0.019168679063556324 0.11493040480207953 0.017320241217690276 -0.1945318814191484
-0.07818194744180745 -0.16411979608576055 0.16298238199377163 -0.026706557250451266 -0.029905441958569465 -0.08620753401936641 0.14189669386284365 0.09570287802468029
0.13336865537973186 -0.08927868104248471 -0.06895247171404452 0.09360789581816675 0.18497435117179592 -0.047782873595754664 0.11269389664550974 0.15370327002741999
0.09115674789737195 0.00917014591638037 -0.1931398236364827 0.19936207017470725 -0.12099073737723473 0.1859062153340634 -0.1761613265036067 0.14279839209025372
-0.016902660084376568 -0.014650798211431764 -0.03396238740941452 0.14201974029514028 0.07639851049919293 -0.059963195271189845 0.062301798817206704 -0.06715176966073885
-0.005357704679074288 -0.09147231341442906 0.17719134182577864 -0.00968829869607635 -0.09263843738823585 -0.08541218028287345 -0.0943730252179006 -0.1403306095304983
-0.12172463137943983 0.19808492481172182 -0.03454015181857523 -0.0486225402746326 0.005829853523170364 -0.15198095855249896 0.032483266437492234 0.14753706918832613
-0.15457952092109323 -0.0073887160714422315 0.07820919423368489 -0.055037355548711996 0.06380067724713845 -0.028523808747490977 0.11292009562351674 0.03458781013513992
0.06247119773245024 0.1384280860092638 -0.0019656839974667812 -0.1115873749157539 -0.04074123714437568 -0.12720854260317832 -0.002835102527714655 0.07671708289035394
0.08735935983048891 0.13347056011156408 0.17044028158353886 0.09399048693822194 0.022586198124371383 -0.1538953682909603 -0.20799393240774758 -0.000989443246043655
0.09045701801185824 -0.011210283776951257 0.16954126616214316 0.009407149649381295 0.049067442741229456 0.1063316095472062 -0.12542911736574927 0.15524000378904965
-0.027678141660779573 -0.017623194595462507 -0.07537466711018904 -0.05442793447457158 0.01889128239249254 -0.14439631691360966 0.08341127966514168 -0.1515334192226852
-0.10530889516637404 -0.07574180983693733 0.0029849747524865553 -0.01665535161384333 -0.17140691057996046 -0.17674565533396153 -0.1348500449121331 -0.027650682002162866
-0.03380391590189327 -0.011633976419616972 0.012655999377614214 -0.10329079954936371 -0.030727585535147216 0.1164710753370866 0.16355036802148806 -0.05501246786940199
0.13059977530816178 0.12537472629722762 -0.15927157229439018 -0.04643907257369165 0.10242619238194976 0.05443031660506807 -0.18593699335655908 -0.06803775738506733
-0.14845364182085402 0.10484711475528546 -0.1290076903185823 -0.07953973271460121 -0.17297090722153702 0.11212490475112073 0.138987583537662 -0.039886560812879196
0.10221761462602248 0.13103489748028593 0.08604486437879338 0.15520820850335343 0.10842104406392451 -0.09008995696251444 -0.10725843809277177 -0.026284297347179363
0.18113099898425378 -0.06958021776302077 0.06630398117579932 0.02707254232623179 0.18741967369815737 0.10493176295821674 -0.08313976696955849 0.06774437030717488
0.17029284489981422 -0.14966899852560175 0.11284543867261418 0.11014594088742045 0.04881084331035609 0.017769961911380756 0.12167082615340452 0.008962372349101484

lstm.weight_hh_l0 f8 [120, 30]
00000000: de56 113f aa2a 813f 773b f078 947d 9abf
00000010: 746f 9d31 a9bc c53f ab8a 046d d036 8e3f
00000020: 3564 36e8 a092 aebf 9a2b c6e9 d0d4 c4bf
00000030: 9400 67a7 d37c b53f afbc 5f0f 287b b4bf
00000040: 9247 19b9 7dd1 b63f 2d4f 12f9 1a82 b3bf
00000050: 7be0 df42 c416 b53f 9f51 fb17 02aa aebf
00000060: 7ccf 57d4 1f00 c1bf 867c d6c6 7a7c aebf
00000070: 91b4 ac5d 2e4c c6bf 4391 672a e939 babf
00000080: 06a7 247c 9311 2d3f d4e6 aaa5 5336 c3bf
00000090: 0475 2deb 7ae1 ba3f 8490 6a61 412f 9c3f
000000a0: 1e79 0e2d d806 ba3f f1a4 baf7 7f35 b1bf
000000b0: 2c2a 8993 ad94 c63f 14e2 a15d cbe3 c23f
000000c0: b518 c1e0 db53 98bf 8044 2791 eb54 bdbf
000000d0: e8dd 96bf 6dd2 c0bf fbd1 2084 ad5a b9bf
000000e0: e8cc ea20 baa9 b0bf acb0 3f7e 28a1 c33f
000000f0: dcde 27fd d723 bd3f 87fa 253b 3168 c4bf
00000100: 6aa2 efd0 9512 b53f 6938 b17c 1b1f cdbf
00000110: aa01 b3b0 fb56 aa3f 288b b04c 2a75 bdbf
00000120: 97d2 5a4d c5c9 b23f 1b6f ea9d 909f a73f
00000130: 03bf 90f3 c70e b63f 954b b9e4 7755 be3f
00000140: fa16 2890 45cf a83f 27ee 8ae2 964f 543f
00000150: cf59 207f 2cc1 b3bf 26e4 3108 1cca cb3f
00000160: 9a10 7091 4b7f 973f 1276 f580 0358 94bf
00000170: 4a4c 5ba1 b7ae b43f 8de2 9b5b 7b1b b23f
00000180: df5f 6c48 4457 b03f 0b01 0ebc ad92 a43f
00000190: bee6 39b0 1df0 b4bf 25dd 3cbd bfe6 cabf
000001a0: 804f 0962 6072 b23f 4dbb 38e0 5c97 a13f
000001b0: c7f7 cee4 62bb c6bf c70a e5a1 0b51 b03f
000001c0: bf55 0fa1 971c c13f e7e2 1ca4 e975 b03f
000001d0: e41f 98ef 0637 83bf b940 ff40 2bf2 b13f
000001e0: e442 8c54 6d18 b5bf fd87 490f 8dc9 c4bf
000001f0: 0c68 1fc4 ad73 c4bf da7c f5da 2d95 bcbf
00000200: b94a 5de2 1d3a a03f 0687 b3d2 9675 bfbf
00000210: e62e d507 be65 a93f 4601 f663 c8c9 b4bf
00000220: 37c9 20cf a55e 7dbf a55e f5f9 2297 c0bf
00000230: 1546 13cd a8b9 9cbf e1b0 87a2 9c85 b9bf
00000240: 32c8 6e63 e4c9 b43f c5f5 8d07 568f adbf
00000250: 81c9 05d2 2343 c2bf 826c 46b7 dbb3 c33f
00000260: 9c32 ef08 7340 c43f 2f11 4099 aff6 aa3f
00000270: 87fd 2d52 10b7 b3bf 6a5c 1483 aab5 c0bf
00000280: befa 6222 de6f bc3f 3027 3b45 82d6 b7bf
00000290: 817f 5201 585f a23f 407b ce44 5d81 b2bf
000002a0: 5105 0b72 1adc b8bf 61ab 3421 940e bfbf
000002b0: 8d54 93c3 caa7 c6bf 8000 957a 601b c0bf
000002c0: 27c2 9f04 5573 b43f 3c0c 5aec 1f41 b43f
000002d0: 6800 92ee 25d5 a2bf f58c 9483 d01e c13f
000002e0: e966 b75c 3209 c1bf d53b 872e c278 c23f
000002f0: 92ab ed6d e301 bdbf 4de2 d93b e1cd b03f
00000300: 8e54 6483 1714 c2bf 6761 ec20 e4f7 b0bf
00000310: db29 0b63 29e5 823f 7f08 be8f d0a8 a8bf
00000320: 21ab 24d2 f919 6d3f f1de bd9a d10b 8e3f
00000330: 1445 8f51 e9fc c43f 88b1 36ea dc9d c23f
00000340: 60e0 dea4 4868 81bf 72d4 ff2a 8a52 bb3f
00000350: 7575 b612 52ab a3bf 0c9f e16b e2b8 b03f
00000360: ea6a 872e 6ab2 bb3f 5ef5 478f 0ce5 c1bf
00000370: 32b1 9b51 3d0f c23f 531f 53d0 09fa b8bf
00000380: e09a e0ea 937e c7bf 48ce c53c 1879 c43f
00000390: b801 e7b1 f5e4 703f b7f5 b5e6 6608 b1bf
000003a0: 6893 5da2 755c c63f d758 5520 cc85 a5bf
000003b0: 3bb4 a66c 1d3b c23f 7ef0 7808 a7af 913f
000003c0: 9ba6 2723 1979 c0bf 920b 89fb fef2 783f
000003d0: 0b75 0075 7142 c33f 9f51 eb4a b56a b53f
000003e0: c55e 6e04 7e97 bcbf 5295 3b0a c740 9e3f
000003f0: 9942 cf52 3ad9 c8bf 4e75 6dd4 d0f7 c3bf
00000400: af51 1a55 0b85 a6bf cc3e 0db0 d631 87bf
00000410: 667c bb30 a78d c13f e00c 1b69 05c9 a0bf
00000420: d18f 9b9f 49a1 b8bf daa4 5d53 3bed 613f
00000430: dce6 9d55 bb9f a33f 2a7c 6a60 7363 b2bf
00000440: 0600 60e8 d298 c33f db83 7fd9 a2ff b0bf
00000450: b1f0 311a 7c78 a73f b9cc 7452 c4dc bbbf
00000460: 967d f1d3 1e5f 403f ce1c 9b85 92b6 a83f
00000470: bc50 4568 8517 b4bf 6309 9864 ce48 bfbf
00000480: 0c99 03ce 6227 b1bf 1dee d734 c1f5 bbbf
00000490: 5233 8b2a b702 c5bf ef7e 73b5 859a c1bf
000004a0: f177 b876 d36c c23f 17dc 5969 f367 713f
000004b0: 9e67 27c8 1151 c2bf 485a 83e8 df2d 883f
000004c0: 7be7 d1a5 5611 c0bf d173 0f47 de07 c73f
000004d0: b6d9 9062 703b c2bf cf8b 8ad5 93b3 bdbf
000004e0: 1d2c bd64 5f8a bf3f 5742 3ff1 f779 8cbf
000004f0: d718 b8f7 4706 ba3f 3870 5238 0b92 b8bf
00000500: 7e3c 56af 5629 aebf a520 54c5 34bf c13f
00000510: 0389 8ca1 5ad7 be3f 164c 611f 3e2e c8bf
00000520: 4079 fb2e a898 843f f053 de45 99ad ba3f
00000530: 6f64 efe6 cd96 c23f e32f df6d 48d8 93bf
00000540: 26e5 3ff8 38ef be3f 2e1d 14bf 38b2 c2bf
00000550: c825 6d1b e089 b53f 4e48 240e c880 b53f
00000560: 0d59 d33c d4df c0bf 2822 4277 95dc b13f
00000570: 5d59 7914 73bc b53f 5b17 7fae 3c5d b7bf
00000580: e4b5 a098 ff12 b1bf 2b3c 292a 9968 a63f
00000590: e119 923a 480d c13f f9bf 1445 bb2b b9bf
000005a0: 42c2 ab95 d21e 973f a432 4005 133e b8bf
000005b0: d4a4 5d87 ac13 9b3f 8b91 85a9 cc45 c3bf
000005c0: be9b e508 3920 a7bf fd37 1e7f 9343 bf3f
000005d0: 9e61 4079 ef6b b33f 41eb 0beb 358e b83f
000005e0: 99ed 8a55 de69 a4bf 953e fe20 e3d8 943f
000005f0: 4828 7074 ea5a aebf ec24 c0ea 4d52 c53f
00000600: c1cd 8843 e0d3 bcbf 51a3 d33f 8c31 b63f
00000610: ac4b a95d 79f6 46bf e730 f3bd 320c bcbf
00000620: 93cd cdd0 95f0 573f a206 46f6 b28c b7bf
00000630: bef3 67c3 5a59 a5bf 653a e82e bf50 c13f
00000640: dba4 32ef e75b c03f 86c1 1e00 ee2d c5bf
00000650: ab3c c5ec 9c81 7d3f 0274 4999 9e9e b53f
00000660: 16e7 d035 8c51 c0bf c30e e55b bd5b b63f
00000670: 2847 e2f7 cf0f b5bf e709 db2c 7e9e c4bf
00000680: 93ea 2799 f376 a1bf a43c a78a da6d c6bf
00000690: 4678 a97e 689c c2bf d70d a80c d8d2 96bf
000006a0: 6e8a 75dc 7d74 bf3f 6916 7c15 584b 97bf
000006b0: 587f 1858 addc 75bf a29a a67e 2e0c c5bf
000006c0: 796c 6e2c 6664 b8bf 1fdb 8046 9afc c23f
000006d0: 2857 9092 646a b9bf bd4c 9203 60e2 c2bf
000006e0: de2e d4b0 66c5 a33f 06d0 c5d2 3f85 c2bf
000006f0: 3562 d86a e775 b9bf 2508 5a00 c3d0 af3f
00000700: db6c 702d 2d2b c13f d554 515b bf09 ae3f
00000710: 54ed 4080 1abd bfbf 007a ea71 08cc 3ebf
00000720: 9b60 255b dc5a af3f dd37 e4ad f695 a63f
00000730: 0b11 f282 af9c ad3f b036 a85a d0d4 9a3f
00000740: 39cf a024 d521 aabf 64a1 8400 ab1f cb3f
00000750: 8c67 a074 8bf8 b93f 6d0f bae8 5a1f 83bf
00000760: b944 bf91 1a4c b73f 77eb 4fce 271c 9abf
00000770: 1c9a 6803 c1ef 993f 6651 f814 55e8 b73f
00000780: e153 6797 fd5a 69bf b313 1d86 9ad5 b23f
00000790: f7ff 3fdb 8eb4 c9bf 8811 1c74 d2ca b7bf
000007a0: 743e c0e8 6947 c53f b9ea bafc a9ff adbf
000007b0: 067d 9bcc 2a48 ae3f 4dd4 0d25 2019 bd3f
000007c0: 5701 6937 6265 b13f 1868 4b76 9766 a7bf
000007d0: 30a3 8f9f 8820 b0bf 184d d98a d369 a0bf
000007e0: 4dba 8bd1 3f4a c9bf bc1d dc1f c183 b7bf
000007f0: 1215 2efa 7f46 be3f 40f5 2cb1 fa31 c4bf
0.008382158326792174 -0.02586967456960162 0.16981997416121042 0.014752987219769883 -0.059712437006233555 -0.16274463095427621 0.0839359554001951 -0.0800042188200105
0.08913408059132014 -0.07620400029037162 0.08237864144018829 -0.05989080946679625 -0.13281629436789533 -0.05954345395297715 -0.17419986318546823 -0.10244614873187623
0.0002217762503929287 -0.15009542073476345 0.10500305406226934 0.02752401501733505 0.10166693782818867 -0.06722259328911996 0.17641229347130272 0.1475767333211172
-0.023757396309769436 -0.1145770291689292 -0.13142177443454206 -0.09903988338266594 -0.06508982947962105 0.1533556572388809 0.1138281815582291 -0.15942969692328665
0.08231483794191666 -0.22751182163705444 0.051444878883106185 -0.11506904957108743 0.0733912767271455 0.04613925864870635 0.08616304108067756 0.11849164327695257
0.04845635781025055 0.0012396787152927442 -0.07716634849234726 0.2171053924573993 0.022946530105415343 -0.019866995569250596 0.08079097451563758 0.07073184000536
0.0638315846266546 0.04018156929578439 -0.08178887894055273 -0.2101669000637482 0.07205774682489441 0.03435793149070907 -0.17759357616699686 0.06373665525920123
0.13368506778958353 0.0642992044130427 -0.00938229960139831 0.07010145508616263 -0.08240397752912149 -0.16240084883162345 -0.15978023601820757 -0.11165129275967747
0.031693395502448714 -0.12288801807474323 0.04960435720076166 -0.08120396080449152 -0.007170341197751554 -0.12961232380870516 -0.028051984326174024 -0.09969500511187192
0.08120562961156066 -0.057734192297157295 -0.14267394785890633 0.15392633866290245 0.1582168382286867 0.05266331430178394 -0.07701208120669466 -0.1305440082585137
0.11108196582334082 -0.09311689558230962 0.035883665238769964 -0.07228644304130416 -0.09710850986723087 -0.12131620226561558 -0.1769956068953075 -0.1258354757828819
0.07988482821361541 0.07911872406298043 -0.036782441494325024 0.1337528841478172 -0.13309316184204725 0.14431025764358077 -0.11331006463812646 0.06564147673805927
-0.14123815456028804 -0.06628251842301368 0.009226153693266894 -0.04816295389811475 0.0035524253190905163 0.014670980009881403 0.16396824343113592 0.14544259487355427
-0.008499686747981794 0.10672820615566694 -0.038416447433728 0.06532111295529947 0.10819114337884242 -0.13980252262255538 0.14109007344030428 -0.0975652822118012
-0.18355034798260927 0.1599455162755581 0.004124603029083955 -0.06653445370280663 0.17469664028171938 -0.042036417910524974 0.14242904477342386 0.017271623508563476
-0.12869562355563322 0.006091114068626962 0.1504651852891715 0.08365948752481821 -0.11168658836538288 0.029543981551701855 -0.19412926715314852 -0.15600023624839782
-0.0439837972054734 -0.011325528381035531 0.1371354091597567 -0.03278366954830303 -0.09621105333968606 0.0021883162216239484 0.03832803173186303 -0.07182999709992602
0.15310131403384747 -0.06640069780361506 0.045841100881234616 -0.10883738530246746 0.0004996204878686013 0.04826791649753091 -0.07848390384362153 -0.12220468479066464
-0.0670072319950103 -0.10921866932033493 -0.16414537026721604 -0.13752814636153896 0.1439461068811734 0.004249525858191403 -0.14309904358998166 0.011806248934971411
-0.12552912804295233 0.17992762059921444 -0.14243893444809225 -0.11602138484390355 0.12320514878699425 -0.013904511499192624 0.10165834234075831 -0.09597845196771082
-0.05890913858740364 0.1386476481932323 0.12047354168001694 -0.18891121418218465 0.010056795057093226 0.10421140628598358 0.14522718216065608 -0.019379741388362858
0.12083774624615681 -0.14606389360435784 0.08413506192768871 0.08399629922158278 -0.1318307206153765 0.06977209245281613 0.08490676164487838 -0.09126643428961982
-0.06669614292396592 0.043766771694770355 0.13321783885858365 -0.09832354008244683 0.022578516373814368 -0.09469717863266652 0.02644223762709859 -0.15056761052541065
-0.04516771539311247 0.12212488034694498 0.07586571417085117 0.09591996181908959 -0.039870212499830866 0.02035860909341965 -0.05928738280643181 0.16657422983579495
-0.11260797165669258 0.0866935401751452 -0.0007007687193641885 -0.10956112992716137 0.0014611685794222215 -0.09199064743554655 -0.04169734607055585 0.13527669706714388
0.12780474834042974 -0.16546416288248283 0.007203686702566585 0.08445159189564325 -0.1274886381887021 0.08733733647846535 -0.08227252771237359 -0.16108681860175908
-0.034110653348723784 -0.17522746820620683 -0.14539819893519929 -0.022288680813302122 0.12287127144149121 -0.022748352347682053 -0.005337407231792067 -0.1644342535411925
-0.0952819689249952 0.14833382074876852 -0.09927967622965339 -0.14753341841114845 0.03861542614512613 -0.14469144622455604 -0.0994553218701036 0.06213960055630733
0.134130141436663 0.05866811742513681 -0.12397924071494987 -0.0004699249856602583 0.06124008762952934 0.04411288140009593 0.05783604119736382 0.026202445538777652
-0.05103937217827909 0.21190392995164153 0.10144874188736547 -0.009337148883112179 0.09100500162391513 -0.025498029677673863 0.02532865126900151 0.09338886033976265
-0.003095145507567385 0.07357183241135949 -0.2008226938778532 -0.09293856939991063 0.1662418734053862 -0.05859118661961333 0.05914434192322386 0.1136646357025068
0.06795324185168759 -0.04570458716416698 -0.0629964246323993 -0.03205739087993659 -0.19757840854386402 -0.09185416248157358 0.118263243273834 -0.1577752461543387

lstm.bias_ih_l0 f8 [120]
00000000: f3e2 7b07 b64f c43f 317e 16e6 bae3 c23f
00000010: 153f c95b 4d98 c0bf 604e 05d2 64d7 91bf
00000020: 9942 6e73 f2d2 acbf e453 cbd2 6244 993f
00000030: 5e5c 42d9 1ab2 c3bf 6d80 8476 7629 a73f
00000040: f2af acd6 1764 c43f 2008 33bb 9179 b33f
00000050: 1d49 2856 5070 c63f 79f4 b95b 265a b83f
00000060: 9129 4e16 1b4b 523f 6a54 886e 0044 c5bf
00000070: 7885 9313 5596 c53f 9a87 1bc0 c378 823f
00000080: c42c d330 26a0 b2bf 0233 1eb9 4a57 c8bf
00000090: 1c3d a793 a144 c0bf 5687 b1a3 b9db c2bf
000000a0: fbc2 4527 cd59 c63f 5352 99d1 09d9 c13f
000000b0: 41d2 9cdf e035 c0bf cbe7 d066 e3d3 c13f
000000c0: 8b8d cfa4 7f49 ae3f 96b2 7018 784f af3f
000000d0: e5fc fb23 a391 a2bf 7f11 6c20 3ce4 a5bf
000000e0: e8a4 834c 43a2 b8bf 6021 d854 832a c6bf
000000f0: b0cf db18 f357 79bf b9ba b222 ca16 b43f
00000100: 4193 67e8 5f68 a5bf a6c7 76e4 1b20 9a3f
00000110: 6b8c 4271 8588 bd3f 34de 0cb3 167a 863f
00000120: 880e 7039 d43a c33f 1e4f 1ebc 7486 653f
00000130: c986 08a2 ea1e b7bf 5f13 bfd7 93b5 bdbf
00000140: 4ccd 872f 58f1 b7bf 05cf e3f0 a077 a8bf
00000150: ea61 6128 791d c7bf 8a39 1cfe 0fee 993f
00000160: 5f76 047d da98 c4bf 27e6 d59d 21af b43f
00000170: 51ef 35ee 7b67 b7bf 0d70 5262 0b2d c43f
00000180: 0204 9eb4 d49c b63f 126c 255b 6de7 c4bf
00000190: 053f 1ce0 f664 91bf 73a9 4c3f 03b1 b93f
000001a0: 2c50 5666 3515 c23f 796c 4ece 98ff c03f
000001b0: ea21 c9f3 d182 99bf 3200 0375 3720 babf
000001c0: c41b c80e 0223 a8bf 31d5 0c23 8cd0 c2bf
000001d0: 4197 d297 6009 b23f 0425 2cf5 905e bdbf
000001e0: 222b 46af a5c0 c23f 8cc0 d1d4 2e4d a33f
000001f0: 9636 6bdd 6002 bebf d82c 0766 3739 b73f
00000200: 434b 5b1f f35c b7bf 4e78 143f eb41 b9bf
00000210: 78ae ce3e 8ba6 ad3f e6dc f9be 0e0c 7e3f
00000220: afe0 c5a1 d9b8 b4bf f31c 07c0 9a60 a6bf
00000230: 8309 cc67 dd8b ac3f 4171 3245 d908 b8bf
00000240: 4727 7feb 1c15 a93f e0f4 f76c 4bc7 9b3f
00000250: f33f 59f8 5586 c0bf 5019 f97b 07a5 b4bf
00000260: 3f9f 42f5 d582 b53f c7f2 3430 9a3e bd3f
00000270: c69f 78bc 1b77 80bf 5250 1428 90f3 8dbf
00000280: 74f4 8cd3 1f9a 513f fc3c 0bee dcd4 98bf
00000290: ef85 cf0a 93cf be3f db53 e55f 8e88 b1bf
000002a0: 1b7f 3aa8 0bb6 c73f fcd2 e872 1002 c4bf
000002b0: e5ca 37dd 8dc0 bb3f 56b8 9d2b 1f8e 9a3f
000002c0: 0b46 86f6 29d8 c5bf 498b 0d11 9d6b c33f
000002d0: 43b2 ce6d fd64 833f e9d0 a413 9313 bb3f
000002e0: be87 fd50 4e70 9bbf 0d90 1067 6bd9 c4bf
000002f0: 26e7 e7cb d6cc 9bbf 2844 7b83 1944 c23f
00000300: 4ddc a912 8cff a63f 19b8 c6c8 6aaf c0bf
00000310: fc54 7be2 03a4 bbbf 55f9 a861 c749 b73f
00000320: b1e2 b2d3 3173 a5bf e48d be00 e2ea c33f
00000330: 13a4 f391 daff c3bf f0a7 3d18 0c76 aa3f
00000340: 99e6 63c4 cb2b c13f eff2 7349 c353 8c3f
00000350: f559 4f0f f869 bd3f e580 138b beac a13f
00000360: 0c4b 30f4 3fdd c23f 1b98 31af 9579 c43f
00000370: b7a0 10bc a12e c73f 0c26 6dd7 3c48 c5bf
00000380: 0bb2 3c4a 4e4c 88bf b3be c938 aa6c b5bf
00000390: b906 64c7 9a9b af3f 4152 2ce4 24ac bf3f
000003a0: 8846 609d 1557 a13f 5e5f 3f81 5e63 c53f
000003b0: f09a 3144 7c71 b13f c22b 89be 02d8 c6bf
0.15868258824755052 0.14757477030524194 -0.12964789373153765 -0.01742322475304403 -0.05629689845148284 0.024674934497699655 -0.15387282951698728 0.045238210647085754
0.1593045995917915 0.07607374973579839 0.17530254561331385 0.0951255773488401 0.0011165394327884196 -0.16613774678322396 0.16865027862426607 0.009019402790219112
-0.07275618259443478 -0.19016393698657202 -0.12709445676453235 -0.14733047955365447 0.1746155206451688 0.13943598493883033 -0.12664423864920774 0.13927881737055112
0.0591544998822214 0.06115317629187193 -0.036267374174707524 -0.04275691886690235 -0.09622593515418354 -0.17317239420686814 -0.00618739089781066 0.07847274157641494
-0.04181194030733205 0.02551311094220634 0.11536439910064337 0.01097505315702483 0.1502328186471582 0.002627590177277996 -0.09031549888507152 -0.11605190293546518
-0.09352637443935413 -0.04778769436407341 -0.18058695289324983 0.025322198757800098 -0.16091471771590002 0.08079729178816618 -0.0914227921074915 0.15762464810256951
0.08833054933167264 -0.16331259680268367 -0.016986710957154667 0.10035724921605098 0.14127223488742524 0.13280019830276382 -0.024913101677414597 -0.10205408674937713
-0.04714209013405182 -0.14698936187202485 0.07045558649641938 -0.11472421632437962 0.1465041261511369 0.03769823406116854 -0.11722379117710555 0.09071680298727658
-0.09126204982321177 -0.09866209306753257 0.057911254326737216 0.0073357177749280075 -0.08094558906111858 -0.04370578378762415 0.055754584236654935 -0.09388502063160777
0.04898920416560642 0.027127436185755083 -0.1290996039047055 -0.0806431462925492 0.08402764547156226 0.11423648526119755 -0.008039681138214304 -0.014624716017842019
0.0010743437580480715 -0.02424950793175372 0.12035483373576715 -0.06848993149954145 0.18524308885843585 -0.15631299601377424 0.10840689326122861 0.02593277648650657
-0.17065929925279053 0.1517216046587129 0.009469966805988444 0.10576743344865104 -0.026795600598582096 -0.1628851178403469 -0.02714858645956677 0.14270323677058738
0.044918420103322455 -0.13035330585029284 -0.10797142295207957 0.09096952566412615 -0.041894490329871366 0.15560555492730466 -0.15624553801106397 0.05168187900456178
0.13414904679648457 0.013831639937501332 0.11489820836809612 0.03452105949122756 0.14737700866006553 0.1599604707182046 0.18111058886393547 -0.16626701849809
-0.011864291801964041 -0.0836893452303638 0.061734043922127176 0.12372046061165866 0.03386752649397545 0.1670950060931728 0.0681379000176141 -0.17846712401873616

lstm.bias_hh_l0 f8 [120]
00000000: 0d1d 8498 ed72 c3bf 2f7e 1666 ad39 c63f
00000010: de84 9fe4 dde9 53bf d358 fd16 3637 ab3f
00000020: 2329 e436 17b4 68bf 112b 4dcb 6c24 b1bf
00000030: 6347 7bcd 46fd b33f 907f 7b09 88ef a3bf
00000040: 0950 53c9 a44c c0bf f87b 66a2 ac8f c4bf
00000050: b324 a1d8 ed84 aa3f ece8 73b7 779a af3f
00000060: bb63 d3c9 485c ccbf e4a8 107d 368f babf
00000070: ce15 4ece fa95 a13f 0971 0338 00c6 b13f
00000080: 3dd3 2c0f b508 b43f db05 cde1 86c5 473f
00000090: 1a3d a713 83db c1bf 42f1 9cb8 633a b43f
000000a0: 07f4 e862 d5f3 a4bf 5352 9951 b701 c63f
000000b0: dab9 650c 44f9 783f 3518 2ff9 4907 c8bf
000000c0: 5ee3 3389 0b31 c73f 60d3 e399 d445 c2bf
000000d0: d6fc fb23 bcd7 afbf a2fb e467 6903 c43f
000000e0: a093 0eb2 c18e 9cbf 6021 d8f4 46fd c0bf
000000f0: fd85 e41c ceac ae3f 4745 4dbd 59ce b1bf
00000100: 6d36 cc4b 28db bb3f 1e8f edc8 01e4 853f
00000110: 9373 bdee 5ce8 bbbf e890 79a6 bd6e 90bf
00000120: 850e 7079 0957 c93f 3479 f032 1d3f c43f
00000130: 3779 f79d 8e8e bd3f 5f13 bf57 d046 b7bf
00000140: 779a 0f9f 2e71 a9bf 3e0c c783 5558 c33f
00000150: 169e 9ed7 e4b6 c23f b6f1 7880 2805 b5bf
00000160: 5e76 04fd 4ba8 c1bf b433 5484 5c8a acbf
00000170: e9f4 5ee3 10a4 78bf de01 4e4a d093 723f
00000180: 1af0 872d 0f63 95bf 7260 2bd9 d776 9bbf
00000190: 1b7e 38c0 df0c 85bf 73a9 4c3f 3734 b53f
000001a0: be5f 5313 eef2 b5bf b6b1 39b9 491b ae3f
000001b0: fe90 e4f9 94e8 a6bf ceff fc0a 8f62 b53f
000001c0: 0df9 4d4c c842 c73f 8e55 e639 572d b33f
000001d0: bb5c 4a5f de8a 9c3f 0e4a 582a 6f3a abbf
000001e0: 232b 462f 5359 c53f 53e0 68ea c0df bd3f
000001f0: 9636 6bfd 966d bebf 7196 0373 8f5d c63f
00000200: a9a5 ad6f 7852 c1bf db1e ae83 6c1b 983f
00000210: 8eab b3af 58f0 c23f cf9d ef2b 6776 b23f
00000220: afe0 c5c1 a376 b7bf 838e 03c0 d5ab b8bf
00000230: 3afb 190c 43d5 bebf 831d 9b75 c317 ab3f
00000240: 4827 7feb 8361 a73f 80fa 7bb6 2b24 a43f
00000250: ec3f 59e8 6bc9 c1bf b1e6 06a4 3637 b83f
00000260: 71b0 5e05 e6f8 c1bf 8886 e507 94ec c6bf
00000270: 048a c7db eb5c c6bf 068a 0205 c04c b5bf
00000280: 13cc b160 59ab bfbf e7f3 2cb8 e3a0 79bf
00000290: 77e8 c1d4 922f 98bf db53 e5ff 4edd bbbf
000002a0: e580 c557 9a3d c4bf c8a5 d105 fe93 b9bf
000002b0: 1a35 c8c2 5ba7 b1bf c423 316a 444d acbf
000002c0: 14e8 e625 fa67 a93f 66e9 e4bd 330b bcbf
000002d0: 6253 8c24 ee2a a8bf 172f 5b6c 5d38 b6bf
000002e0: 1e3c 81d7 3d9d a83f 4920 212e 78ac b2bf
000002f0: 25e7 e7cb 76f3 9dbf 6888 f686 0bfd bf3f
00000300: ff88 559b 8ac8 c4bf 4bfc 28e7 d220 7f3f
00000310: 0756 093b 6bd3 a83f a21a 5c79 8ac4 9bbf
00000320: a98e 2656 fc4c bf3f 7843 2ee8 93e2 74bf
00000330: 2590 cec7 035f abbf f0a7 3d98 282b aa3f
00000340: 6719 9c1b b7f5 c1bf 507e 2ea9 4d14 be3f
00000350: 09ad a7c7 f204 c33f bc01 2716 7e3a 9a3f
00000360: 5ca7 7d5e 24f6 90bf 3530 63de d589 be3f
00000370: 7741 21f8 dea4 be3f 379f 2d89 0406 8c3f
00000380: 68d3 70ed 5bdd a83f 9e20 9be3 d2e4 c03f
00000390: b401 d9d1 4917 c33f d0d6 e90d 3405 c3bf
000003a0: 9f11 58e7 f627 c23f 4f41 81bd 79a9 bfbf
000003b0: d635 6308 31ef af3f c22b 89de ef67 c6bf
-0.15194482752870223 0.17363517269858295 -0.0012154261516957236 0.05315560370097363 -0.003015561428701423 -0.0669620510426905 0.07808344380035019 -0.038936854512711894
-0.12733898001044988 -0.16063459329322405 0.05179541844751991 0.06172536959089023 -0.2215662942387818 -0.10374775460573776 0.034347379382818496 0.06942750327602111
0.07825786228643224 0.0007254513362583941 -0.139511475178076 0.07901595360903449 -0.04092280228039873 0.1719273708755674 0.006097093404930887 -0.18772244136033725
0.18118423652029042 -0.14275605692059923 -0.06219280184995461 0.15635411808940797 -0.027888323300107154 -0.1327294059303865 0.05991214850133628 -0.06955490943552887
0.10881282663850707 0.010688795036635276 -0.10901432827581763 -0.016047442708797016 0.1979686587293267 0.158176088211755 0.11545649868591999 -0.09092428343053659
-0.04969163600599285 0.15113324102830633 0.14620647934246794 -0.082109958043424 -0.137948511642139 -0.05574311366408527 -0.00601584050121782 0.004535497316169727
-0.020885693696968223 -0.026820538167925574 -0.010278461507424777 0.0828280000247668 -0.08573806735819198 0.05880194078494887 -0.04474320936631847 0.08353513735073578
0.1817255375462498 0.07491059459274238 0.027873491827077084 -0.053180192870190365 0.16678848083787398 0.1166954586304894 -0.11885970770819151 0.17473023525160472
-0.13532929852526124 0.023542113816374815 0.14795979098502382 0.07211918661743442 -0.0916540477827563 -0.09637199342574303 -0.12044161839911008 0.05291567621821527
0.04566585778918736 0.039338460946955145 -0.13895939679286984 0.09459249023975748 -0.1404082800121418 -0.179094795089487 -0.1747107337133259 -0.08320236322700944
-0.12370833025651988 -0.0062569518366304205 -0.02361897872513238 -0.10884565112549131 -0.15812997136800458 -0.09991443292678703 -0.06895993714734452 -0.05527700229919888
0.049621407629686726 -0.10954593072975669 -0.047202531777805104 -0.08679756064810494 0.04807465797113529 -0.07294417501646068 -0.02924905414145153 0.12495491070743159
-0.16237003884004506 0.007599662627909852 0.04848799796733876 -0.027116931588376254 0.12226845839773638 -0.005098893891855798 -0.05345928014801896 0.05111052378090608
-0.1403111347974104 0.11749730472956199 0.14858851193216818 0.02561375627715433 -0.01656395746923721 0.11929070166951379 0.11970323140963567 0.013683352886530649
0.04856383584448204 0.131983147750593 0.14914820429295406 -0.14859629325262924 0.14184461876005813 -0.12367974163612881 0.06237176158320394 -0.17504690519339589

lstm.weight_ih_l1 f8 [120, 30]
00000000: ca0b 0362 a846 96bf 1e04 e200 0b08 b4bf
00000010: 9cd7 abee 05ee b43f 5205 cb53 87cf 87bf
00000020: 7a53 2544 c040 b3bf c5bb f28b cda3 a1bf
00000030: 0841 b61e dba5 b03f f3a0 d1f3 08b9 c73f
00000040: 1f30 cc0e f913 c23f 181f 69c7 e3b3 b2bf
00000050: 3681 6fd5 cc99 c5bf 36f8 416d e3a1 ac3f
00000060: ce9e a006 0109 96bf 3933 cafb 2aca b0bf
00000070: aa88 ee16 b439 b43f f0be d372 8155 b6bf
00000080: 93ab a5ef 7e6d b33f 55c9 24d0 4179 c4bf
00000090: cd8d 7e4d 0a2b abbf 6769 abb8 d938 cabf
000000a0: 6245 2dd9 4e2b bd3f 6cb1 4c98 93da a03f
000000b0: b1b3 2f3e eec6 b0bf ccb2 e828 f871 d03f
000000c0: 806a 79ab 9bfe a43f aab5 123f ccc4 9e3f
000000d0: de2b 32d9 c24d c3bf 4dfa d7db 414c c6bf
000000e0: adf0 347a 4f7a ae3f 62e0 8439 e6a6 c1bf
000000f0: 6f4a 41d3 f12c c43f b342 5642 efc8 c2bf
00000100: 0e6f 42a8 0ff9 ba3f 580e cf6a 6a3e a3bf
00000110: e9c4 9b06 032c c63f 187a 76b5 1d54 c23f
00000120: ea62 a273 b352 afbf a77e 0ea0 ad2a c4bf
00000130: 1ea2 7d70 5446 a0bf 6c70 2ca3 d4cb 6ebf
00000140: 9d24 69bd ca35 9d3f 95c1 9378 c0c2 a23f
00000150: 40f2 9f55 b13e bb3f fdce 7edc 8dde c43f
00000160: 4c95 421e 18da a4bf 09b1 a5dd 598a bdbf
00000170: 6596 0021 cb02 b23f b6cb 2d93 715c 813f
00000180: af4b fe35 4610 c13f 8f95 251b 40d4 c3bf
00000190: 5bbd 2b51 d136 a6bf 8961 f0b8 2a08 a2bf
000001a0: c215 be05 e3e1 bb3f 7510 6513 3cd4 90bf
000001b0: ba6d d993 3b7e b7bf 6c84 b2c2 f00b c2bf
000001c0: a657 f4dc 18dd b1bf f8cb 304b 6dab a3bf
000001d0: 671a 7fab fc70 b7bf 73d5 9cce 9f67 b1bf
000001e0: 2c08 fc4a eace 88bf 9903 33a9 aab4 9c3f
000001f0: bb36 d7b7 4957 c5bf 0288 3ac5 9208 c1bf
00000200: 2464 0b66 1b24 9fbf 16c5 4433 f4d5 b93f
00000210: 24ee 7d14 ee75 b7bf 246d 167b 6ff2 c33f
00000220: dc06 b12e ba18 c23f 4c47 c756 9c85 b5bf
00000230: 3fb4 0f2e 2dce c9bf 7cf4 a5f8 cd8d c23f
00000240: c5f2 c848 f644 b13f f9c7 224a 5549 b13f
00000250: de7d beee 8e65 97bf 80d9 77a6 8b9f be3f
00000260: f35f bd43 1b02 9abf 0966 6b9d bbb4 a33f
00000270: 9f25 2b35 002c cbbf 7aeb 6c49 2d13 9b3f
00000280: 4c1a edb9 9d71 c23f bb8f 830e 095b b8bf
00000290: 2bc0 e7dd 2376 bebf b29d ebac 2586 9dbf
000002a0: e58d 305c c915 a13f 2941 feea 8aaf c43f
000002b0: 0fe0 d7a5 8573 a13f c99e 80ec 69a0 b13f
000002c0: 7613 aa72 9859 cb3f 836b 1d86 f792 b2bf
000002d0: 1bbc 9ade 7796 b93f 85b9 f77d 4162 c23f
000002e0: f03b 0db0 2270 b2bf f2c2 ceef e6fa c7bf
000002f0: 7211 663e 7cb8 b0bf 98c8 fc27 3ec0 a73f
00000300: aa1a b661 b3cf c03f 8a53 bd42 0706 c4bf
00000310: c31f 2c98 2952 b43f 5cd3 3fc0 bd5d 763f
00000320: 7845 a132 e983 c6bf 1b64 7537 ad7c b03f
00000330: 2a05 48fa 478f c0bf 8b96 0629 4aea bebf
00000340: bbb7 4f1f bd38 b73f 37c6 8087 3fcf 91bf
00000350: 59ca ecbf 1308 9c3f 8eef 1f4f 46d0 973f
00000360: 4ef0 a557 6d4a b73f c8a3 8d4c 4281 c6bf
00000370: 416f a40e be9b b93f e2d4 e759 2e73 c3bf
00000380: 17db 5572 689c b2bf 4900 957e c331 c03f
00000390: 1bae 21af d051 b83f 287d 1ad2 f934 afbf
000003a0: d426 52b2 62ac bebf fd9d c44f 3207 babf
000003b0: 0ab6 eabb 9179 b2bf 656a 9826 d3cf 81bf
000003c0: 213a bad1 3158 ab3f af4c 83a7 b061 a5bf
000003d0: 1596 dac9 5f9a a43f 0ffe 3a01 6ea3 90bf
000003e0: 8b33 b94e f058 a23f dd64 e0ce a189 c13f
000003f0: 8dca 10aa 6afa c0bf 0387 cf03 5c2f 4cbf
00000400: f4f7 0cd8 8812 c23f 8008 3d77 472b b4bf
00000410: 8b05 3c35 8b99 7d3f 150a 06a1 4118 c4bf
00000420: b8b5 1aa6 a483 bbbf b62c 0b2b e2ed c03f
00000430: 5fdc 38c3 9ff3 653f 139a 58ae 5efa c73f
00000440: c173 4664 af2d b33f 3c4c 7c2c cf9e 963f
00000450: ccef 494e f2c6 a63f 5419 a2e7 bd3f c23f
00000460: 1d46 e2b7 7933 c2bf b0e1 ac27 2fe9 bd3f
00000470: 8504 adb0 e043 9abf 2bc7 08dd fa8d b2bf
00000480: 96cf 1d17 6a3b c8bf e809 0999 43f5 96bf
00000490: 32e7 ac8b 0887 9abf 8bd2 2760 ac6b b0bf
000004a0: e606 775b 3a66 933f 2aca a2df d4f4 ba3f
000004b0: b2e1 75a0 1594 bb3f 08ed 4d6f eaa5 bfbf
000004c0: a5e7 24a9 0b7a bfbf 05ce 176f b585 aabf
000004d0: fde5 165e 4b9d b2bf 82ac 352a 971a bd3f
000004e0: 2db8 d285 9bcd c33f f47c eb1b 3768 983f
000004f0: 22d0 55d8 e5de b43f e445 8e15 7e2f c7bf
00000500: 407b 1041 c00e c4bf 595f a168 80b6 ab3f
00000510: 3152 6b58 d46f c53f b205 b4c9 1676 b93f
00000520: 70f9 da67 b472 a8bf fec0 e876 3505 aabf
00000530: e612 ada8 b992 c03f 44d2 4db5 272c 223f
00000540: 82b6 d352 6b5b 313f 777f 1e3c f109 c5bf
00000550: f620 1a9c 8343 9abf 4cc8 8fad 353b a0bf
00000560: 536f 426e 028a a43f e59f 6785 755a babf
00000570: 933c f686 5851 823f c86a 0828 8cb9 c7bf
00000580: ca3d cf0c b8af a6bf 3d85 95de 34a7 a0bf
00000590: 56bd 7d24 5b42 c63f 6c66 4633 a335 bbbf
000005a0: c8e3 1c98 d549 92bf d058 98f9 c56e c63f
000005b0: c5e7 7a62 49ab b63f 59a7 8026 4848 b23f
000005c0: 4be3 b1d5 c916 553f 0bf0 82b3 604f a23f
000005d0: 7977 3c46 a15c bf3f 1da3 606b f3aa 9fbf
000005e0: 8c78 3eea 5ed4 b5bf 757b af2f e692 9d3f
000005f0: a220 f157 cd39 c23f 6396 ce95 feb7 8ebf
00000600: a787 fa34 f60d c53f c3db af58 69a7 c63f
00000610: 1bac bfd5 2926 aebf 88a9 cae9 7fe3 c43f
00000620: e3ca b9fa c36c c53f ae41 ec78 60e4 b3bf
00000630: 4b2d 74f0 964a c33f a84c 303e 72f8 c53f
00000640: 8280 9c34 f51b c03f df23 809b 0fc9 8c3f
00000650: 0bf1 8878 94f5 b33f eb2e 4968 62a8 ba3f
00000660: c411 77e6 d16e c7bf fd27 0499 ba42 c33f
00000670: 1a53 628d 9826 acbf 7baf cd34 fd10 c9bf
00000680: eb6e efb5 2b1a a6bf 1920 4d7c 7d3d b23f
00000690: c4cc aab3 5f04 ae3f 133b 8f93 f0eb c9bf
000006a0: acd5 fcf9 e0ef c7bf daea 1fa8 055d ac3f
000006b0: d119 021f c698 c23f 336a 43f8 f427 af3f
000006c0: fc7e 98c1 e416 98bf 7889 391a bded c1bf
000006d0: bf7c 3cb0 c100 bcbf ed60 4758 a87c 92bf
000006e0: f2b5 b0aa c1e5 c43f e5d2 c62b 1f81 a8bf
000006f0: fe9d 89c5 6e3c b2bf f662 5a94 da2e a13f
00000700: 1e31 3a25 3c87 c6bf 55d7 658f 5ff9 963f
00000710: bd72 ec2c 816e b23f 96d1 ced9 66aa 983f
00000720: 26d0 e156 f281 b03f 421d a55f 2ea6 b5bf
00000730: d232 1385 661f c5bf 4e47 e182 04a9 b73f
00000740: 093f 12d0 0e76 c23f 0f62 8b44 c66a ca3f
00000750: d624 3900 5ffa a63f 5464 b525 43e3 c2bf
00000760: 36e3 108c 8b7e 9fbf 795d 549e 96d4 a83f
00000770: ed73 a22f 7fa7 c83f bf3d 023b 074e 823f
00000780: 0b52 c12b 7dc9 afbf 1cce 5c33 0b7d 993f
00000790: 10d9 1129 4c82 c93f 391f dffb cc0a 633f
000007a0: 367f f432 a1a0 3d3f 4a3e e598 41e4 c9bf
000007b0: f342 955a a9cf bcbf e8c6 220d 3cfe c53f
000007c0: 0208 51d7 95fa ba3f 04f4 867c 33db bd3f
000007d0: afba c21e 6eca c23f c029 5fbb 4330 993f
000007e0: 8466 c03a 1e98 b4bf d5ab b670 39b9 c83f
000007f0: 02c7 b43b cd0b ab3f cc3f 766f 4f83 a63f
-0.021753912908717678 -0.07824772616915296 0.08175694539008166 -0.011626298184071491 -0.07520677245822852 -0.034452842076795366 0.0650307607631967 0.18533431916444662
0.14123452398814693 -0.07305739992545701 -0.16875610753687348 0.055922610365982825 -0.02151872256231862 -0.06558483741009703 0.0790054851518415 -0.08724221280476363
0.07588952399025421 -0.15995047248140773 -0.05306274600959746 -0.2048599387843055 0.11394207765740341 0.03291760667920837 -0.06553544061871609 0.2569561385633221
0.04100500553314124 0.03004759917228276 -0.15081058125755836 -0.17420218691400394 0.05952690474302478 -0.137905862889741 0.15762160124957655 -0.14675703753575461
0.10536287172220346 -0.03758556894129289 0.17321813414267886 0.14319201813209825 -0.061177833428876685 -0.15755243602051403 -0.03178657410791551 -0.003759303386130999
0.02852551251479395 0.03664208862199129 0.10642536488007526 0.16304181352972327 -0.04072642678628799 -0.11539231931027784 0.07035512500495995 0.008477103523295653
0.13330915104287785 -0.1549148685982513 -0.043386975439598095 -0.03521855838352212 0.10891550913046102 -0.016434611018909046 -0.09176990851977154 -0.14098939425187795
-0.06977992433925681 -0.03841725867132334 -0.09156779467512309 -0.06798743051770888 -0.012113409436555221 0.0280329385539094 -0.1667263171824994 -0.1330741370230158
-0.0304111748726862 0.10092092754054635 -0.0916432189969148 0.15583604345452173 0.14137961654528552 -0.08406998747457556 -0.20160450696076457 0.14495253220585258
0.06745852734543252 0.0675252252574693 -0.02284835178545374 0.11962197126545071 -0.02539866066885561 0.03848825737595624 -0.21228029819603209 0.026440341574225347
0.14409228876520996 -0.09513908962577393 -0.11899017493829038 -0.028832043341848475 0.03336934328424571 0.16160713648106054 0.0340844883866681 0.06885396980271276
0.21367173765988995 -0.07255503677644808 0.09995221314123663 0.1436235299183403 -0.07202355192315202 -0.18734442433699133 -0.06531502269178249 0.04638857114913825
0.131338522635095 -0.1564339710118044 0.07937869992394923 0.005460492338887981 -0.1759006020752556 0.06440241435974807 -0.12937259407775886 -0.12076247693638657
0.09070951475561533 -0.01739215149445369 0.027374561871690826 0.023255442218200133 0.09097941770409188 -0.17581967103913443 0.10003269059637622 -0.15195254697724808
-0.07269909659758543 0.12651866608394105 0.09499840045617029 -0.06095104875316287 -0.11981789449250907 -0.10167231032811937 -0.07216749990285379 -0.008697175612771344
0.053407246448035524 -0.04176094097933835 0.04024028147732054 -0.01624843485364918 0.03583479844073797 0.13701269723313816 -0.13264210990890427 -0.000860137871878858
0.14119062947605665 -0.07878538762182252 0.0072265088854249855 -0.15699024546127363 -0.10747746520310997 0.1322596273588254 0.0026796455729499037 0.1873281813906976
0.07491584966778843 0.022090184297735002 0.044486591393222946 0.14257024584021372 -0.142195906436016 0.11683935850749694 -0.025649557860792278 -0.07247894188256214
-0.18931318405850267 -0.022419983115705394 -0.025905736470327408 -0.06414296481654895 0.01894465621240373 0.10529833278523229 0.10772833983890598 -0.12362542359726458
-0.12295601729866108 -0.0518013666259343 -0.07271262213807712 0.11368698864468921 0.154712143271753 0.0238350497046413 0.08152615100499408 -0.18113685658003853
-0.156700164575307 0.05412675168253029 0.16747526471466892 0.09945814537424871 -0.047750127484948446 -0.05082099033859498 0.1294776986707326 0.00013864502639261884
0.00026484842494665245 -0.16436591563705935 -0.025648170855249362 -0.031701734005665644 0.04011542888585375 -0.10294279581978534 0.008944217318257485 -0.18534995989542424
-0.04430937916151441 -0.03252568451967839 0.17390002519412445 -0.10628719331580222 -0.017859780701858147 0.17525553405056948 0.08855112699794095 0.07141543331149815
0.0012871714632451566 0.03576185408880413 0.12250717129469803 -0.03092556326751882 -0.08527177065704644 0.028880688343515943 0.14238898080862322 -0.014999379107233318
0.16448857867095265 0.17698399382035576 -0.05888491377103141 0.16319273868186834 0.16738176100223887 -0.07770350410669977 0.15071379414471617 0.17164447819286477
0.12585320538437733 0.014055368359565832 0.07796600287196413 0.10413184209863473 -0.18306945565394817 0.1504739043378435 -0.054981963404463666 -0.19583096578878298
-0.04316841693773007 0.07125076565455436 0.058627119714765225 -0.20251280980161165 -0.18700802046229847 0.0553972022753066 0.14528728975365238 0.06085172205503788
-0.023524832073348087 -0.14006770878320274 -0.1093865447296478 -0.018053655994521845 0.16326161226736208 -0.04786012086279871 -0.07123462984747417 0.0335605913252887
-0.17600204293956606 0.022435658576305546 0.07199866625564773 0.024087531131685568 0.0644828283419093 -0.08456697306711639 -0.1650207662372823 0.09242275424301491
0.14422784003954117 0.20638349863908487 0.044878929879425364 -0.1475604948161925 -0.030756168769787005 0.04849692042096882 0.19261159730822844 0.008937889564804345
-0.06208411368485053 0.024891066560668404 0.19928886418683378 0.002324486121299343 0.0004520791580535534 -0.20227832761382764 -0.11254366361141503 0.17182112351797874
0.10538612848998244 0.11662599363531007 0.14680267812714962 0.02459817725302016 -0.08044613775600779 0.19315259936897058 0.05282441476664525 0.043970568042936614
